Chapter09/AlphaZero/models/best_model.pth (torch_old, 524759 bytes, 15 tensors)

conv1.weight f4 [32, 2, 3, 3]
00000000: d6e4 b23e 2960 dbbd b6a3 fc3e f07b b23d
00000010: 5c9b f23e b334 dc3e 1959 003f b5fe b03e
00000020: 5f4a c83e df7e 01be 57a1 c93e c75e 86be
00000030: 0091 723e fbd6 ecbd 9c3d 423d c336 cabe
00000040: a0d2 b43c d11f 78be 7b98 c93d c60d 203f
00000050: e749 1bbe d665 13bd 2971 00be 8284 403d
00000060: 93c0 f53c 45c4 853d b237 25be b9b7 16bf
00000070: 2bef 93be c1c7 2ebf d6d6 dabb 0abf 16bd
00000080: 745c 983d 08bb eebd 99bd b4bd 46d7 a7bd
00000090: 9898 653d 33b3 ee3d 26b7 9a3e c139 bc3d
000000a0: cbb8 773e 0bcf 2f3e 3f2a 06be dfa1 3e3d
000000b0: d442 18bf 45ba 3bbe 13c3 9d3e 99b6 c1be
000000c0: 3cc5 1b3e b2f7 03be de32 04bd 97b6 c63e
000000d0: c540 523e 0adb c13e 5ab1 b2be c2d4 d5be
000000e0: f9de f53e 48d9 7a3e 1b8e 15be d520 813e
000000f0: cf41 38bc 975e c9bc c2d5 013e eacd f8bd
00000100: d86e 93be 87f1 03be 50f1 32be 3844 c23d
00000110: 9b7f 27be 07ac 95be 341f 02be d921 0dbd
00000120: 5c30 dabe 6562 763e 43ef 013f 5b00 32be
00000130: 95b0 7a3d 0e45 10be 018a fe3e 2cc0 e6bb
00000140: d760 5bbe 5dc1 e6bd e999 003c 6526 e7be
00000150: dda4 0cbe 8e53 11be 5680 8a3d f829 e63d
00000160: 66c9 98bd 9b04 50bc 9b82 d43e 1d4f 533a
00000170: 22c2 0b3e 32bf 39be 4f4d 86be dd57 a53d
00000180: fced ec3e 9c8d a33d bf9d babe c303 883e
00000190: c648 babd f570 c3bd 300a febe 2178 51bc
000001a0: 9a48 90be 4ec7 ccbe 0244 9dbd 9690 c83e
000001b0: e938 43bd d739 84bd 015a 9ebe e248 1ebd
000001c0: c264 fb3e 0314 3ebc b8a4 8dbe c127 3dbd
000001d0: 1f4f 01bf 33eb 28bf 853e 09be 0a59 b1be
000001e0: b87b 5ebc 1e6a 333f 4cd8 7dbd f08e ecbe
000001f0: 6116 b63d c41f 4cbf 6b52 a3be f700 403d
00000200: c1c3 0d3c 56c3 683e 1dfa 463e fbdb 4a3e
00000210: f8c9 87bd 7d03 c93e 9910 a3be 0114 223f
00000220: cf84 e13d 42ec d4bd b86f 8ebe 3b25 aa3e
00000230: 2985 823c 61c9 c3bd fc2a 40be ba10 e13e
00000240: 66ac f6bd 86de 973e 5480 853d 1502 4f3e
00000250: 0ad6 803e 347e 853d 2a39 04bf a588 843e
00000260: b30e 093e 9943 c3be b052 d4bd 70ba f6bd
00000270: 02b2 6b3d 4373 233e 621b 20be 5e1e 6bbe
00000280: 07da e6be a4f8 24bd 4fce bc3c 634c 5d3d
00000290: dd64 5dbe ba03 ba3e 5db5 153e 4b03 15bb
000002a0: 2495 f2bc e3f3 5c3e 0b7c 1cbe a96d 25bf
000002b0: 9362 1abe 67b5 c13e d1d4 87be 67d1 2d3e
000002c0: 7b37 f4be 2f23 e5be 94ae bbbd 283d 9f3d
000002d0: ef6b e9bd 00ed 82be 976a 3cbe 056b c6bd
000002e0: 7313 843d d290 c6bc 98dd 20be 5d58 0dbe
000002f0: e73a e8bc 3684 793e 8cf6 2dbf f6a6 323f
00000300: 9319 3f3e 7ebf 8cbe 65bb 62be c2f1 02bf
00000310: 269d 033e 0a63 05bf a591 f63d 2404 5f3e
00000320: 2cf0 213f d2ea 2cbc d23d 76be dfb2 5e3e
00000330: dc4a 2bbe 30bf 443d b3e2 173f d1fa 2f3e
00000340: 061d 393d 30ba 2abf a323 e23d 9ef6 3d3e
00000350: 0621 c3be 56c9 babd 9acb 93bc e5bf 81be
00000360: c9da babe 96bc 0f3e 7364 51be 5a8e 2a3f
00000370: d5a8 963e ed9b b63d b7a3 71be fa01 9fbd
00000380: cf9f e6bd 4fad b0bd 9b91 923d 625b b1bb
00000390: 4b9c c7be c75e 823d 32f4 683e 7498 3f3e
000003a0: f840 263e 58b9 46be 77fa 7cbe 276a 63bd
000003b0: 6da3 6b3e 474f 5fbe 8854 973e 4c2f 743e
000003c0: 2a73 d8be ea4a c6bd 2bc4 e23e 4a84 b13e
000003d0: 8c4f 74b9 94a6 cbbe 4a09 8c3e ebca b03d
000003e0: 5d89 44bd 579e 023f 1fe9 9d3e 2d80 9cbe
000003f0: 8af1 7fbb 5072 1cbe 4e3b cabe 1c12 c5be
0.34940213 -0.107117005 0.49343652 0.087150455 0.47384155 0.43008956 0.5013595 0.34569326
0.3911924 -0.12646054 0.39380905 -0.26244184 0.23688126 -0.11564442 0.047422037 -0.39494905
0.02207309 -0.24230887 0.098435365 0.62521017 -0.1516491 -0.03598579 -0.12543167 0.04700137
0.029999053 0.06531576 -0.16134527 -0.5887409 -0.28893408 -0.6827355 -0.0066784425 -0.036803283
0.07439509 -0.11656767 -0.088252254 -0.08195357 0.056053728 0.11655273 0.30217856 0.09190703
0.24191587 0.17168824 -0.13102053 0.04654109 -0.5947697 -0.18332775 0.30812892 -0.37834623
0.15211958 -0.12887457 -0.032275073 0.3881118 0.2053252 0.37862426 -0.34900934 -0.41763884
0.48021677 0.24496949 -0.1460499 0.2522036 -0.011246159 -0.024581237 0.12679198 -0.1214865
-0.28795505 -0.12885104 -0.17474866 0.09485668 -0.16357271 -0.2923281 -0.12707216 -0.034456108
-0.4261502 0.24060972 0.5075571 -0.17382948 0.061203558 -0.14088842 0.49714664 -0.0070419516
-0.2142366 -0.1126735 0.007849195 -0.4514648 -0.13734765 -0.1419203 0.067627594 0.11238474
-0.07460289 -0.0126964105 0.41505894 0.00080608 0.13648275 -0.18139341 -0.26230857 0.08073399
0.46275318 0.07985994 -0.36448476 0.2656537 -0.09095912 -0.09543029 -0.49617147 -0.012784989
-0.2818039 -0.39995807 -0.07678987 0.3917281 -0.047661696 -0.064563446 -0.30928043 -0.038643725
0.4910031 -0.011601451 -0.27664733 -0.04618049 -0.50511354 -0.65983886 -0.13402756 -0.34638244
-0.013579302 0.70083797 -0.061973855 -0.46202803 0.08890987 -0.7973597 -0.31898817 0.04687592
0.008652628 0.22730765 0.19431348 0.19810478 -0.06630319 0.39260474 -0.318486 0.63311774
0.11011659 -0.10396625 -0.2781961 0.3323153 0.015932636 -0.09559894 -0.18766397 0.43958074
-0.12044601 0.2966196 0.06518617 0.20215638 0.251633 0.06518212 -0.51649725 0.25885502
0.13384514 -0.3813751 -0.10367334 -0.12047279 0.05754281 0.15961938 -0.15635446 -0.22960803
-0.45088217 -0.040276185 0.023047594 0.054027926 -0.21620508 0.36330968 0.14619966 -0.0022737558
-0.029612131 0.2157741 -0.15281694 -0.64620453 -0.15076666 0.37833712 -0.26529554 0.16974412
-0.47698578 -0.44753405 -0.091641575 0.077753365 -0.1139754 -0.25571442 -0.18400036 -0.09688381
0.06449022 -0.024238978 -0.15709531 -0.13803239 -0.0283484 0.2436684 -0.67954326 0.6978601
0.186621 -0.27489847 -0.22141798 -0.51150143 0.12852916 -0.52104247 0.12039498 0.21778923
0.632571 -0.010554032 -0.2404702 0.21747921 -0.16727775 0.048033893 0.5933029 0.17185523
0.045193695 -0.6669035 0.110419534 0.18551108 -0.38111132 -0.09120433 -0.01804142 -0.25341716
-0.36495045 0.14036784 -0.20448475 0.6662346 0.29425684 0.08916459 -0.23597609 -0.07764049
-0.1126095 -0.08626806 0.07156678 -0.005412505 -0.3898643 0.063657336 0.22749403 0.187105
0.16235721 -0.1940664 -0.2470492 -0.055521157 0.2301156 -0.21807586 0.2955668 0.23846167
-0.42275363 -0.096822575 0.4429029 0.3467124 -0.00023299287 -0.39775527 0.27350837 0.086324535
-0.047982562 0.5102286 0.3084192 -0.3056654 -0.003905388 -0.15277982 -0.3949837 -0.3849038

conv1.bias f4 [32]
00000000: 5669 dcbe 3717 113d 5ac1 c6be ac55 223e
00000010: 7963 4abd d5b0 d3bc 9a89 acbc 71df aebe
00000020: 35c2 40be e50a 05bd 764b 01bd 7676 35be
00000030: ecc3 93be 0007 9bbe 1757 21be 0544 3cbe
00000040: eb54 c3be f601 aebe f2c7 c9bd e541 7dbe
00000050: af29 d8be a9ac b2be b50f 9fbe ac81 99be
00000060: 37b2 9dbd 62b1 63bd bc7e 72be 64ca 91bd
00000070: 023b 0e3e 527e e5bd dbc0 64bd 0182 74bd
-0.43049115 0.03542253 -0.3881939 0.15852994 -0.04941127 -0.025841156 -0.021061707 -0.34154847
-0.18824084 -0.032481093 -0.031566106 -0.1772097 -0.28860414 -0.30278778 -0.15755878 -0.18385322
-0.38150725 -0.3398587 -0.0985259 -0.24732168 -0.42219302 -0.34897354 -0.3106667 -0.29981744
-0.077000074 -0.055589087 -0.23681158 -0.07118681 0.13889697 -0.11205734 -0.055847984 -0.059694294

conv2.weight f4 [64, 32, 3, 3]
00000000: a45a a4be d0f8 3dbe b1be 82ba 192f 53be
00000010: 0566 4d3c 0cc6 e83c fe0d 7f3d ed5f d7bd
00000020: 543b adbc 017b 12be 313c fcbc cf4a 3c3e
00000030: ba18 a43d f8d3 72bc 69ca a2bd 3942 6dbd
00000040: 1453 b7bd c571 a4bd 3a00 de3d 45f4 243e
00000050: 0a1f 803d c04f 12be 5a0c 583c 0ab3 2fbe
00000060: 001d 80be 4072 113c a386 4bbd 40b7 1cbe
00000070: f55a a93d 56a1 0d3e ae34 d1bd 6c29 f4bd
00000080: 2f70 21be d882 d7be f6be 6dbd abe3 a63d
00000090: 53f6 b63d f2b4 cbbd ed43 953e 48b2 8cbd
000000a0: de63 933d 0782 37bd b025 0fbd 65bf 3ebe
000000b0: cbe7 ef3c 5ac4 8e3c 0835 05be a966 22bd
000000c0: 754e 67bd 3201 cc3e 9c70 d6be fa9e 61bd
000000d0: 5141 a6be 2383 96bd 9a21 ad3e e0de b63c
000000e0: f118 2c3e 237d b7be 4d26 b43c f864 a4bd
000000f0: 96c2 07bd 50b6 c8b8 73f5 4c3e edd9 43be
00000100: 6efc 41bd 28d3 af3d 8553 1d3e dd1a 3ebe
00000110: c66e 0dbe 72ae fd3d 92cc 253d 01e5 71bb
00000120: ddee b7bd 983b c7bd 3ff3 c73d 78a5 fabb
00000130: 1cb1 1dbd b440 84bc bab4 fcbd 1231 76bd
00000140: befe 183d 935b 51be d25c 2ebe 20c4 043e
00000150: 81b4 0c3e 7370 523e 5499 27bd ba07 eb3d
00000160: a352 92bd 674c fbbd 2cc4 7abd ff44 9dbe
00000170: 654d 783d 7f2c 503d 0886 b63e cf27 5f3e
00000180: 1aeb a23e 1f2b efbd 50a1 b6bc dc01 9ebe
00000190: 33fa 11bd e4eb 01be 7f74 4dbe 1686 63bd
000001a0: adc4 e93b 08ea 263d 3175 dbbd c62e 8e3e
000001b0: 9fe1 e4bd 4211 4c3e ef96 9d3d 8682 ca3d
000001c0: d5de 93be 1c8f f0bd 00db 213e 6f45 023e
000001d0: 5716 5ebe a00b 03be 6fa8 8cbd e2b2 5f3e
000001e0: ed25 1fbe 5a3e 673e 17c5 843e 9d42 2d3e
000001f0: 9491 b5bc 7530 0ebe 7a54 c2bd da56 04be
00000200: a9ed 69bd 7bec b0bd 33b5 763d db56 7bbc
00000210: 730c 153e 1441 303d 77b4 543e 2fdf 52bd
00000220: 9706 8abe da53 2bbd 2d43 a0bd 187e 7d3d
00000230: 01fc 2ebe d561 fe3c 8512 203e 5042 5e3c
00000240: 0a5f a7be e4e3 cdbc 9639 c7be 7328 b43d
00000250: 3c8e 9a3d 2bdc 3abe 7a33 a23d d8e5 0b3e
00000260: 77a5 babe ca18 60be b6f8 c8bc 4329 acbe
00000270: f303 0bbe 61bc 9dbd f80a 863d b61d 553e
00000280: 1ca9 f53d f1a3 8dbe 05bb 0cbe 4179 303e
00000290: c10e 3ebe 305c 76be f02f f2bc 1e8b 95bd
000002a0: 159d 99be 5bb7 f8bd 9b14 8fbe 7fb5 e7be
000002b0: dc09 8e3e bd19 d9bd 9a15 1ebe 62bd 1dbb
000002c0: 0cc0 06be 0745 073d d884 80be ce25 6cbe
000002d0: 5a76 c43d ded5 f4bc 8bbd 33bd b414 e4bc
000002e0: 114c 083e c1dc ef3e b482 24bd 64b2 83bd
000002f0: 32a0 37be 1d05 943e df75 a1bd 8657 74bd
00000300: 017b 523e da0f 6c3e dae2 9bbd 123a 213c
00000310: 51ea 32bc 1c45 6abc e840 003e c342 eebe
00000320: 0ca6 21be 20e9 1a3d 59d5 a0bd 5171 21be
00000330: 0c78 023a 06a0 daba 89d3 f3be 4a69 0bbd
00000340: 1dfb c4bd 921e 6ebd 4eae 7bbc f129 b93c
00000350: de82 103c 5ed1 d8bc 7d17 8f3e 061a 9abc
00000360: 35a7 7ebe c736 ba3d 1462 d5bd b117 183e
00000370: 6485 073d 88f8 693e c38b 1bbe 6c8f a4ba
00000380: 2cb8 603e b517 8ebd 49a3 9dbe 2318 5f3d
00000390: 1428 28be 0d6e 973d 81ed 843e 6a64 74bd
000003a0: 2b93 4c3e e178 0ebe a2a2 b8be 5950 b9bb
000003b0: 2e6b 7ebe d675 f9bd 5e23 dfbd 1fa0 803e
000003c0: 4f06 a4bd 66ce 173d ecd2 c03c bb68 59be
000003d0: 8776 a1be c91a e13d cea9 9bbe c601 9dbe
000003e0: b6c1 ecbc 6b15 9e3e cacf 4a3e bab5 bfbe
000003f0: 3ff3 993d ec35 363e edf4 663d 6a34 f9bd
-0.32100403 -0.18551946 -0.0009975043 -0.20623435 0.01253653 0.028414749 0.062269203 -0.10516343
-0.021146454 -0.14304735 -0.03079042 0.18387912 0.08012529 -0.014821045 -0.07948763 -0.057924483
-0.08951393 -0.08029512 0.10839887 0.16108806 0.0625592 -0.14288235 0.013186539 -0.17158142
-0.25022125 0.008877337 -0.049688946 -0.1530428 0.08269302 0.13831076 -0.10215126 -0.11921963
-0.15765451 -0.42092013 -0.058043443 0.08148893 0.08933701 -0.09946622 0.29153386 -0.06869942
0.071967825 -0.044801738 -0.03494805 -0.18627699 0.029285332 0.017427612 -0.13008511 -0.039648686
-0.056471307 0.39844662 -0.4188279 -0.055083252 -0.32471707 -0.07349231 0.33814698 0.022323072
0.1680639 -0.3583766 0.02199092 -0.08027071 -0.033144556 -9.5707015e-05 0.20015506 -0.19126101
-0.047359876 0.08585197 0.15363891 -0.18564935 -0.13811788 0.123867884 0.040478297 -0.0036910179
-0.089811064 -0.097281635 0.097631924 -0.00764912 -0.038498983 -0.016144134 -0.12339158 -0.06010539
0.037352316 -0.20445089 -0.17027596 0.12965441 0.13740732 0.20550708 -0.04091771 0.11476083
-0.07144668 -0.12270432 -0.06122224 -0.30716702 0.060620684 0.050823685 0.35649133 0.2179253
0.31819993 -0.116781466 -0.022293717 -0.30860794 -0.035639 -0.12687641 -0.20063971 -0.055547796
0.0071340413 0.040750533 -0.10715712 0.2777006 -0.11175846 0.19928458 0.07694804 0.098881766
-0.28880945 -0.11746046 0.15806198 0.127218 -0.2168821 -0.12797403 -0.06868064 0.21845582
-0.15541811 0.22582379 0.25931618 0.16919942 -0.022164144 -0.13885672 -0.09488769 -0.12923756
-0.057111416 -0.08638855 0.0602314 -0.015340532 0.1455553 0.043030813 0.20771967 -0.051482376
-0.26958153 -0.041828014 -0.07825313 0.06188783 -0.1708832 0.03105251 0.15632065 0.013565615
-0.32689697 -0.02513308 -0.38911122 0.087967776 0.0754666 -0.1824805 0.079199746 0.13661897
-0.36454365 -0.21884456 -0.024532657 -0.3362523 -0.13575725 -0.07701946 0.06545061 0.20812115
0.11995146 -0.2766414 -0.13743217 0.17233755 -0.18560316 -0.24058604 -0.029563874 -0.07301925
-0.30002657 -0.12144347 -0.27945408 -0.45255658 0.27741897 -0.10600612 -0.15437928 -0.002406918
-0.13159198 0.033024814 -0.25101352 -0.23061296 0.09592886 -0.029887136 -0.043881934 -0.027841903
0.13310267 0.4684811 -0.04016371 -0.0643051 -0.17932203 0.2891015 -0.0788381 -0.05965378
0.20554735 0.23052922 -0.07611628 0.009840505 -0.010920123 -0.0142987035 0.1252476 -0.4653531
-0.15785998 0.03781998 -0.07853193 -0.15765883 0.0004976995 -0.0016679771 -0.47622326 -0.03403596
-0.096182086 -0.058134623 -0.015361382 0.022603007 0.008820264 -0.026467022 0.27947608 -0.018811237
-0.24868472 0.09092479 -0.104190975 0.14852788 0.033086196 0.22848713 -0.15190034 -0.001255495
0.21945256 -0.069381155 -0.3078864 0.054466378 -0.16421539 0.073940374 0.2596245 -0.059666075
0.19978015 -0.13913299 -0.3606158 -0.00565533 -0.24845573 -0.121806785 -0.10895418 0.25122163
-0.08009016 0.03706207 0.023538075 -0.21231358 -0.31535742 0.10991437 -0.30402988 -0.30665416
-0.028900962 0.30875716 0.19805828 -0.37443334 0.07517099 0.17794007 0.056385923 -0.121682

conv2.bias f4 [64]
00000000: ec12 a0bd a566 c7bd a156 9fbe f2eb 24be
00000010: b852 c1be 3ecc aa3d 354d 1bbe ad0c acbe
00000020: 41e7 e2bd d09d 4abe 907b 0abe 5a5c 66be
00000030: 3919 d23c 0324 edbd d77e 72be 0463 87be
00000040: 7f0c 6dbe 276b f4bd 7ab2 66be e61c b83d
00000050: f8d1 8bbd 5a9c 28be 8698 3abe e53c 24be
00000060: ff85 ebbd 29c0 60be 49fc 98be 27ba b4be
00000070: bdf9 e9be 1981 ad3c b176 bbbc 55a1 8dbe
00000080: 7e65 78be 6444 d2bb 7fa1 2abe 9ea8 dfbe
00000090: 9504 9cbe 1617 42bd c8ca ffbe 34e2 20be
000000a0: 141f edbd 8048 82be 8d6f 66be a2ac e0be
000000b0: b2b2 a4bd e31f c03c 16fb 8dbd 1704 eebd
000000c0: 2474 cf3a cad1 71bd c26d 62bd 5155 643c
000000d0: 2c66 69be 2c9c 1bbe e449 64be 3989 ebbd
000000e0: a842 82bd 28d8 94bd 699e 90be 2557 adbe
000000f0: 21df 2cbd bc35 5ebe 489b 60be 4ae6 4fbe
-0.07816109 -0.09736375 -0.3112078 -0.16105631 -0.37758422 0.08339737 -0.15166171 -0.3360342
-0.110792644 -0.19786763 -0.13523698 -0.22496167 0.025646793 -0.11579134 -0.23681198 -0.2644273
-0.23149298 -0.119345 -0.22529021 0.08989887 -0.06827158 -0.16465893 -0.18222246 -0.16038854
-0.11500167 -0.21948303 -0.29879978 -0.35298273 -0.45698348 0.021179723 -0.022883745 -0.2766215
-0.24257466 -0.006416844 -0.16663168 -0.43683332 -0.30472246 -0.047385298 -0.49959397 -0.1571129
-0.11578193 -0.25445938 -0.22503491 -0.43881708 -0.08041896 0.023452705 -0.069326565 -0.11621874
0.0015827459 -0.05903796 -0.055280454 0.013936357 -0.22792882 -0.15196294 -0.22293812 -0.115007825
-0.0636037 -0.07267791 -0.28245857 -0.33855549 -0.04220498 -0.21700186 -0.21934235 -0.20302692

conv3.weight f4 [128, 64, 3, 3]
00000000: 7e71 1dbe 9a8e d0bd c704 83bd 612c b83d
00000010: f221 a23d 1b30 a2bd a6ae 143e 1405 35be
00000020: ef38 4bbe 4dbb 1dbe e3de 263e fdeb b9bd
00000030: 1a2d 8a3e 05cb 91bd 88aa 07be 47d3 a9bd
00000040: 5def 9b3a dcb2 2bbe b270 c9bd a491 04be
00000050: 9bd2 cd3d cdca 9a3c d4cb 98be d646 e4bd
00000060: c883 9b3d 266e 5a3d 456b d0bd a54a 24bd
00000070: 2789 f8bd bc52 8dbe fbba 99bd 83db ddbd
00000080: eec9 f03c c11d 9ebd e513 443e 7c94 783d
00000090: 027e 763e c290 d53b 68e2 b43d c259 4f3e
000000a0: a718 e13d 8669 cdbd 7db8 9f3e 1134 c63d
000000b0: a618 49bd bd82 04be 18ec d7bd 9f41 7cbe
000000c0: 7af1 383c 96d4 0a3d 7de2 f1bd 5e5a efbd
000000d0: d74a 09be a3c7 763e 1144 a83c 6d0f 4fbe
000000e0: f56c 6c3c cade 20be 55bc 103d 446b 7b3d
000000f0: c3fc 533e e9f9 44bc e8e7 8bbc cf24 4dbe
00000100: ff96 ca3c 2448 b4bd 7b16 6abe 7f86 aabd
00000110: 05c7 c23d 6fc4 86bd 4560 543e 66e5 d03d
00000120: 9a62 22bd 7f6a 8d3d bebd 1a3d 1a20 063d
00000130: f7c3 b9bc 03a4 c8bc 5031 e1bd f9bb d13d
00000140: ba11 09be ad7d e1bc 297d 253d fc0b 8ebe
00000150: a462 0abe db3f 1bbe 28ef 12be 85cc 0d3e
00000160: ede1 113d 4e6c 01be 7f52 7ebe 0a53 a9ba
00000170: ec36 893d 101c e7bd 23a6 453e 0cbc 15bd
00000180: 9a54 3cbe 17ed 84be 538a 1b3e 2361 2cbd
00000190: d98e 31be 96ef 753e 8483 5dbe 55ea 3cbd
000001a0: f2a2 613e 26e1 9f3d 8b4c c13d 6592 0dbd
000001b0: 2220 7ebd 061f 89bd 05f9 853c e706 ec3d
000001c0: fcc2 68bd ffd4 29be 48c5 36be 5ac7 97bc
000001d0: ccf7 22bd 02cf 7fbe 9cb8 bdbc cf8d edbd
000001e0: 6f05 ce3d 233a 49be 7635 653c d451 8cbe
000001f0: 0a97 11be e9d8 1c3d f32c 8c3e d468 473e
00000200: 9afd d53d 70bc 92bd c032 823d dfe2 85bd
00000210: 9d9a 8abe 6c06 4a3c 673d 69bd 6a35 18bd
00000220: e4d5 ebbd b87d 9a3d d35c 59bd 5695 f43b
00000230: 99ad 64bd bcf7 813c 3d24 adbe ec0e 4dbe
00000240: d097 15be 116c 32be 8e38 d93d ad28 07be
00000250: 11ed 0abe 71fd e33d 4c8e 0ebe 887b edbd
00000260: 7039 9cbe 16b7 3ebd 640e 693e 0a75 393c
00000270: dc33 cabd fabc 373c ceeb d3bd 1a89 b1bc
00000280: c584 033d 6201 51bb 4397 8f3e c687 933d
00000290: 6562 18bd 45bb 153e 11cb 1bbb e70e 95bc
000002a0: 68ca 70be 3e02 a9bc 0088 783e d34a cabd
000002b0: fdd2 2d3e a629 21bc 1fdd 463e f657 eebc
000002c0: 34c8 5dbd fd8e ecbd 4bf4 343e 6242 aebd
000002d0: 7fd2 293e 9343 b23d 7ad9 503e ac7c 6e3d
000002e0: 9b12 6f3d 4ef1 05be 0eff 73bd 61e4 0d3c
000002f0: f487 523d 6518 c6bd 335d 6ebe 845b abbd
00000300: 5360 9cbe 349f 9f3d 335b 7bbd ea2d 3b3e
00000310: 2d06 05be 965d c33b 7280 383e 898a a83d
00000320: b53f 39bd 53a2 9cbc 63b1 6c3e fc73 65be
00000330: a1f4 89bd 3b59 2d3e 8a2d a43d 2172 05bd
00000340: def3 10be a742 33be 58f1 86bb cd49 023e
00000350: b63c 733e 6d09 4fbe b8f9 e43b c68c 5f3e
00000360: 6323 b2bd 231d 73bc ae47 f13d a144 13bd
00000370: 323d 973d 34e6 c9bc 22a1 d6bd 7303 a2bd
00000380: 46b0 723e 5425 f23d 1721 c23e 6c14 04be
00000390: 0f49 4a3e fb4d a43d 554d f6bd 1465 983e
000003a0: 222d 7d3e 251a 3cbb fbb6 333d f381 3d3e
000003b0: 4ba0 ad3b 6fe8 163d 88d3 103e 9308 dc3d
000003c0: f8d6 993d 9786 723d 13ea fb3c 28d5 d83d
000003d0: 09ba 3abe 7824 0d3e cf95 063e aee1 bbbd
000003e0: 8f9c 1cbe c594 ee3d ea11 a2bd 780a 123e
000003f0: 7285 19be a7b7 23be 8ae6 01bc 5c2c c33d
-0.15375325 -0.10183449 -0.063973956 0.089928396 0.07916631 -0.07919332 0.14519748 -0.17677718
-0.19845937 -0.15403481 0.16295962 -0.09078214 0.26987535 -0.07118801 -0.13248646 -0.08292251
0.0011896897 -0.16767448 -0.09835948 -0.12946182 0.100499354 0.018895531 -0.2984301 -0.111463234
0.07593495 0.053327702 -0.1017671 -0.04011025 -0.12135535 -0.27602184 -0.07506367 -0.10832884
0.029393163 -0.07720519 0.19148214 0.06068848 0.24071506 0.0065175006 0.08832246 0.20249084
0.1099103 -0.100298926 0.3119544 0.096779 -0.049095772 -0.12940498 -0.10543078 -0.24634407
0.011288041 0.033894144 -0.11810777 -0.11687158 -0.13407455 0.24099593 0.02054027 -0.20220728
0.014430274 -0.15709987 0.035335857 0.061381593 0.2070189 -0.012022474 -0.017078355 -0.20033573
0.024730204 -0.08802822 -0.22860138 -0.08326434 0.09510616 -0.065804355 0.20739849 0.10200004
-0.039644815 0.06905078 0.03777861 0.03274546 -0.022676451 -0.02449227 -0.10995734 0.10240931
-0.13385668 -0.027525747 0.040402565 -0.27743518 -0.13514191 -0.15161078 -0.14349043 0.1384755
0.03561585 -0.12638971 -0.24836157 -0.0012918424 0.06699929 -0.11284649 0.19301657 -0.03655629
-0.18391648 -0.25962135 0.15189485 -0.042084824 -0.17339648 0.24017176 -0.216322 -0.046121914
0.22034815 0.078066155 0.094384275 -0.03456344 -0.062042363 -0.066953704 0.016354093 0.11524754
-0.056826577 -0.16585158 -0.17848694 -0.018527675 -0.0397871 -0.24981311 -0.023159318 -0.115993135
0.1005963 -0.19651084 0.013989797 -0.2740618 -0.14217773 0.0382928 0.27378044 0.19473583
0.10448761 -0.07164848 0.06357336 -0.06537413 -0.27071086 0.012330633 -0.056943323 -0.037160315
-0.11515406 0.0754351 -0.05306704 0.0074640913 -0.055829618 0.0158652 -0.3381671 -0.20025223
-0.14608693 -0.17424037 0.1060649 -0.1319911 -0.13566996 0.111323245 -0.1392147 -0.11595827
-0.3051257 -0.046561323 0.22759396 0.011319408 -0.09873173 0.011214489 -0.103477105 -0.02167182
0.03210904 -0.0031891693 0.2804509 0.07203631 -0.03720321 0.14622219 -0.002377216 -0.018195583
-0.23514712 -0.020630952 0.2427063 -0.09877553 0.16975017 -0.00983659 0.19420289 -0.029094677
-0.054146007 -0.1155071 0.17671315 -0.08508755 0.16584204 0.08704295 0.2039546 0.058224365
0.058367353 -0.13080332 -0.05956941 0.008660407 0.051399186 -0.09672622 -0.2327774 -0.083670646
-0.3054224 0.077940375 -0.06136627 0.18279234 -0.12990637 0.005962084 0.18017748 0.082295485
-0.04522677 -0.019120371 0.23114543 -0.22407526 -0.067361124 0.1692857 0.080164984 -0.032579545
-0.14155528 -0.17505895 -0.004118126 0.12723465 0.23753628 -0.2021844 0.0069877766 0.21831045
-0.08698156 -0.01483849 0.1178125 -0.03595412 0.07384719 -0.024645902 -0.104799524 -0.07910814
0.23700055 0.11823526 0.3791587 -0.12898415 0.19754432 0.08022686 -0.12026469 0.29764616
0.24724248 -0.0028702107 0.043875676 0.18506603 0.0052986494 0.03684276 0.14143193 0.10743823
0.07511705 0.059210386 0.030751264 0.10587531 -0.1823503 0.13783443 0.13143085 -0.09173904
-0.15294097 0.11649469 -0.07913573 0.14261806 -0.14992312 -0.15988027 -0.0079285 0.09529945

conv3.bias f4 [128]
00000000: 3bbd bdbe 68e3 803e 1be2 aabd e3d9 bebe
00000010: 25d0 63be 5f30 93bd 22fc ffbd cac7 88be
00000020: f189 dfbd 00c2 12be 1d62 b53c 68fe 66be
00000030: 1e60 99be 7b8a f6bb 70d6 7ebe 79e6 debd
00000040: 85af c9be d0f1 86be d32c 2abe d2b0 b3be
00000050: db44 ffbe c664 853e 205e ccbe 8216 acbe
00000060: e2b2 8dbe 3277 b1be f69d cdbe 5cb5 d8bd
00000070: e0bc 85be 4db1 16be b869 aebe 0fd5 8dbe
00000080: 173b b7be 855c 9ebe 74ef aabe 4e8d a2be
00000090: a721 74be 92e5 3fbe 0413 b7be 73db 0abd
000000a0: ba56 9ebe 12a6 92be 530a 29be ca3f c3be
000000b0: 96f3 8ebe 2339 a3be 200e debe fe85 60be
000000c0: 55f8 57be 67ef ebbe edc2 99be 97ee a6be
000000d0: 32f5 2ebe c253 1fbe 67e2 413c f188 b0be
000000e0: 81c9 86be f675 01be 051c 3abe f311 8abe
000000f0: 4e54 853c 526f cfbd 7a81 82be bd9b 40be
00000100: b589 afbe 42f2 83be c41f 16be 9bac 91be
00000110: 91c0 aebe 28ea 28be b327 b0be 5d32 1dbe
00000120: 4e30 91be 934e 89be c873 a9be d7b0 53be
00000130: 7457 90be 219c a6be 4b34 afbe 28c6 b0be
00000140: cda6 c83d 84db b9be d602 8fbe 0a08 8fbe
00000150: c849 a4be ed61 8cbe e14c 45be 7752 8dbe
00000160: 7d31 7ebe 8508 8fbe ad68 6fbd d62c 38be
00000170: 620e 28bd a310 dcbd a1d1 91be 2efe 8a3d
00000180: 728b 2dbe 3a6b 6ebe a9c1 59be 390d ccbc
00000190: fe0f 9dbe ca47 46be 275c 5cbe 39be 8dbe
000001a0: cda9 9b3d 7492 b3be 331a 9abe f94b a3be
000001b0: 96cd 56be 3708 d3bd 43f4 83bd 6ba9 acbe
000001c0: be82 6bbe 5f8e d1be ff5e a9be bb64 8ebe
000001d0: c14f 81bc 7976 65be 9604 e0be b708 2cbe
000001e0: 7818 59be 29af 1bbe c79f a8be 0476 5bbe
000001f0: c275 96bd 89af 29be ee73 4bbe ae5e 40be
-0.37058434 0.25173497 -0.083439074 -0.3727561 -0.2224737 -0.071869604 -0.124992624 -0.26714927
-0.10914982 -0.14331818 0.02214151 -0.22557986 -0.29956144 -0.0075238324 -0.24886489 -0.10883803
-0.39391723 -0.26356363 -0.16618662 -0.3509584 -0.4985722 0.26053447 -0.39915562 -0.33610922
-0.2767554 -0.3466125 -0.40159577 -0.105814666 -0.26120663 -0.14716072 -0.34065032 -0.27701613
-0.3578727 -0.30929962 -0.33385813 -0.31748432 -0.23840962 -0.18739918 -0.35756695 -0.03390069
-0.30925542 -0.28642327 -0.16507845 -0.38134605 -0.27920216 -0.3187953 -0.43370152 -0.21926114
-0.21090825 -0.46081087 -0.3003153 -0.32603905 -0.17085722 -0.15559295 0.011833764 -0.34479478
-0.2632561 -0.12642655 -0.18174751 -0.2696682 0.016275551 -0.101286545 -0.25489408 -0.1880941
-0.3428475 -0.25770766 -0.14660555 -0.28452 -0.34131292 -0.16495574 -0.34405288 -0.15351243
-0.28357166 -0.2681776 -0.33096147 -0.20672928 -0.2819172 -0.32540992 -0.34219584 -0.3452618
0.0979744 -0.3630029 -0.2793185 -0.2793582 -0.3208754 -0.2741846 -0.19267608 -0.27601978
-0.24823566 -0.27936187 -0.058449436 -0.17985854 -0.04102934 -0.10745361 -0.28480247 0.06786762
-0.16947725 -0.23283091 -0.21265282 -0.024908649 -0.30676264 -0.19363323 -0.21519528 -0.2768419
0.07600746 -0.35072672 -0.30098113 -0.318939 -0.20976862 -0.10304301 -0.064430736 -0.33723006
-0.22999093 -0.40928933 -0.3308029 -0.27811226 -0.0157851 -0.22408475 -0.437535 -0.168002
-0.2120074 -0.15203537 -0.329344 -0.21431738 -0.07346679 -0.16570868 -0.19868442 -0.18786117

act_conv1.weight f4 [4, 128, 1, 1]
00000000: 2950 993c 4c38 853e f3a0 f7bb 8688 68bd
00000010: 3649 2d3d e612 223c e001 58bf a2f4 96bd
00000020: a8e7 ce3b f69d 613d 5d06 2e3f e0fc e8bc
00000030: 406b 6abc 303f 353c 7174 aa3d 314b 45bd
00000040: ec9a 8f3c 5c83 cabc 0aac c3bd b0e2 763e
00000050: 8b1a 883e 5fa5 a6be a31c 963d d925 273c
00000060: c06d 0dbe 5d0f c83d 4d2d 203b b18c 8bbd
00000070: da2b 73bd a314 2dbd f33e 9a3b a2c5 823b
00000080: 1f28 de3c dc37 fb3d 0004 62bc 0baf fdbc
00000090: 42d5 853e 6cff dabc bd21 403c 8a88 d9bd
000000a0: d1a1 853d 5874 c9bc c484 1ebd 0a1c 4cbd
000000b0: 111f 823d cfd3 e63e 76a8 4dbb bab6 f0bc
000000c0: f005 f7bd 8050 c0be c4b6 443d 6653 f5bb
000000d0: cf00 c13c 5987 833b b146 c3bb 0498 c8bc
000000e0: fd79 babd e2a1 05be 14ca 2fbe 6b80 df3c
000000f0: d478 463e 158f d03c 8bc9 26bc 21da 93be
00000100: 501c a6bc 602f 7e3d 8884 2cbd 7d3c 3fbd
00000110: 997e d43c a081 ae3c 3d4d f83c e7c0 cfbd
00000120: 322e 623d 7dc3 0d3d f084 0a3d 7ec0 7f3c
00000130: 9a5f 19bd 2ad7 333e f1fc dcbd c8a5 51bd
00000140: 7f60 fe3d 7f50 c5bc d474 723d 8040 c8bd
00000150: 9520 1c3e 9e75 1b3d be24 a5be da47 41bc
00000160: 7854 e9bb 9181 483c 5383 3fbd 7170 edbe
00000170: b2c8 ac3d 968a 213c 126b d33c fe67 23be
00000180: e953 853c cf61 e9bd 6b2e 23bd 0c70 fa3c
00000190: c5fa e4bd 3655 0bbd fcfe 80bc 46e4 163d
000001a0: 773b bbbd f513 963d b5f1 61bd f262 f43d
000001b0: 9452 1bbc e396 2cbd 5ec2 adbc c5ce d6bc
000001c0: 4a98 40be 057c 0b3f aa35 863c cb6a f23c
000001d0: e910 b43d 3c0e 10bd 1f7a 61bd 3e00 07bb
000001e0: 4c0f 4bbd 97c8 87bc 02fb 493c 8831 043e
000001f0: 362a e0bc cbd0 263d 5521 033e d52f c8bc
00000200: f148 a6bb ebdb 233e 87d9 aabb c72d b4bb
00000210: be30 36bd 6734 33bd 7878 65be 302c 393c
00000220: f59d 073d a419 5e3c 51eb 93be cb87 ec3b
00000230: fb20 183d 385a 1dbd 50b3 29bb f61d 0a3d
00000240: 3784 e0bd 2c27 43bd 9215 743d a0cc 3a3f
00000250: 2126 143f 31e8 363e 798c 72bd 5865 db3c
00000260: 82c1 c8bc d361 0fbd 92e8 c5bc 0421 ea3c
00000270: c810 b2bb 6897 323d 166a 543d d5e1 90bc
00000280: f111 92bc d334 4fbc 1e0d 383b d5e4 ba3c
00000290: b9de 603d 5d01 123d 71e4 90bc 0710 7b3c
000002a0: 3100 b6bb 9ee6 3c3b 5a3f e1bc ed6e d6bd
000002b0: 65b4 65bd 2b25 3a3e 28b2 5f3d 237c 0e3c
000002c0: a04d 1b3c 0408 f03e d882 aa3b d778 bebc
000002d0: c72a 1bbd 8413 733d 6b74 11bd f4e2 983c
000002e0: 43a1 a23c 145b 6c3d f944 3e3e 27c4 cdbc
000002f0: ef3d d4bb 267a 733c 5d39 6fbd 5ac3 84be
00000300: 3043 8ebd ea3c ec3b e73a b03d f4a8 513d
00000310: 2b3b be3b 0de1 18bb d98e 40ba fd83 f1bc
00000320: 8a7c e7bb 1274 93bb bb18 58bd 5314 343d
00000330: 2a09 1bbd b0a8 5ebc 24e5 b83c 3acc 463d
00000340: 9a63 69bc 3f8c c93c 05fe 4fbc b61c 21bd
00000350: 6bcc cebc 6268 b5bc 6ca3 c43e 2bbb e3bc
00000360: 9b66 2d3d bd83 99bc a32f 703c 88ba 21bf
00000370: 9ccf b3bd bfb1 17ba fa9a 163d b7f9 3cbc
00000380: bce0 6fbc 8f9e a83d 2496 b9bb b38f b13c
00000390: dd31 0d3c adeb 3a3c db46 963c 30b0 8ebc
000003a0: f559 173d 66dd 013d 4a8b 56bb ee51 3f3b
000003b0: 34da 943c 480a ca3c 5e38 bebd 118d 17bc
000003c0: e81f f13d 835e e13d 1b39 05bd 5394 3a3d
000003d0: a47b dcbc 359a c2bc 096c 9abc aee5 593c
000003e0: d1c0 043d 4212 013d e0fa edbc f979 a03c
000003f0: f531 c8bc f83a 713d ac74 a83d 2f7e 863c
0.018714981 0.26019514 -0.0075570284 -0.056770824 0.042306148 0.009892201 -0.8437786 -0.07370879
0.0063142367 0.055082284 0.6797846 -0.028440893 -0.014307797 0.011062428 0.08322991 -0.04816741
0.017529927 -0.02472084 -0.09554298 0.24109912 0.2658275 -0.32548043 0.07329681 0.010201895
-0.13811398 0.09768555 0.0024441064 -0.06813944 -0.059367992 -0.04225601 0.004707211 0.003990845
0.02711874 0.12266514 -0.013794899 -0.030967256 0.26139265 -0.026733123 0.011726794 -0.10621746
0.06525005 -0.02459161 -0.038700834 -0.049831428 0.06353582 0.45083472 -0.0031380928 -0.029384006
-0.12061679 -0.37561417 0.04802586 -0.0074867485 0.023559956 0.0040139374 -0.005959355 -0.02448655
-0.09105299 -0.13050035 -0.1716693 0.027282914 0.1938203 0.025458852 -0.0101798875 -0.28877357
-0.020277172 0.0620569 -0.04211858 -0.046688545 0.025939273 0.021302044 0.030310268 -0.10144215
0.055219837 0.03461026 0.033818185 0.015609859 -0.03744469 0.17562547 -0.10790432 -0.051183492
0.12420749 -0.024086235 0.059193447 -0.097779274 0.15246804 0.037953965 -0.32254595 -0.011796916
-0.007120665 0.012237922 -0.0467561 -0.46374848 0.08436717 0.009859702 0.025807891 -0.15957639
0.016275363 -0.11395609 -0.03983919 0.030571006 -0.11180643 -0.03401681 -0.015746586 0.036838792
-0.091422014 0.07328025 -0.05516215 0.11932935 -0.009480137 -0.042136084 -0.021210846 -0.026221642
-0.18808094 0.54486114 0.01638301 0.029591938 0.08792288 -0.035169825 -0.055048104 -0.002059951
-0.049575135 -0.01657514 0.012327911 0.1290952 -0.027363878 0.040726464 0.12805684 -0.02443687
-0.0050746133 0.16001861 -0.0052139196 -0.005498621 -0.044480078 -0.043751147 -0.22409236 0.011302039
0.033109624 0.013555918 -0.2889047 0.007218336 0.037140828 -0.038416117 -0.0025894232 0.03371998
-0.10962718 -0.04764478 0.059590884 0.7296848 0.5787068 0.17862011 -0.059215996 0.026781723
-0.024506334 -0.0350054 -0.02415875 0.028580196 -0.0054341294 0.043601424 0.051858984 -0.01768581
-0.01783082 -0.012646872 0.002808399 0.022814194 0.054899905 0.03564583 -0.017687054 0.015323645
-0.005554222 0.0028823982 -0.027496029 -0.10470376 -0.05608024 0.18178241 0.054613262 0.008696589
0.009478956 0.46881115 0.005203586 -0.02325098 -0.037882593 0.059344783 -0.035511415 0.018662907
0.019852286 0.057704046 0.18580998 -0.025117947 -0.0064771096 0.014860665 -0.058404315 -0.2593029
-0.06946409 0.00720941 0.08604985 0.051186517 0.005805393 -0.00233275 -0.0007345505 -0.029481882
-0.0070644068 -0.0044999206 -0.05275796 0.043964695 -0.037850536 -0.013590023 0.0225702 0.04853461
-0.014244938 0.024603007 -0.01269484 -0.03933402 -0.025243958 -0.0221445 0.3840593 -0.02779921
0.04233418 -0.018739576 0.014659795 -0.6317525 -0.08779833 -0.0005786679 0.03676889 -0.011534146
-0.014640983 0.08233368 -0.00566365 0.021674966 0.008617845 0.011408729 0.018344333 -0.017417997
0.036951024 0.031705283 -0.0032736831 0.002919312 0.018170454 0.024663106 -0.09288095 -0.009249941
0.11773664 0.11004355 -0.032525163 0.04555161 -0.026914425 -0.023755172 -0.018850343 0.013299389
0.032410447 0.031511553 -0.02905029 0.019589411 -0.024437884 0.058894128 0.082253784 0.01641759

act_conv1.bias f4 [4]
00000000: 1f56 8cbd 1c7b b8bc 507e f43d 1117 7cbe
-0.06852364 -0.02251964 0.11938155 -0.24618174

act_fc1.weight f4 [81, 324]
00000000: 8aac 8bbe 5360 e6bd 3e1e e2bc 4042 7dbd
00000010: 8ff2 5fbc 6d00 4bbd 4eee 8dbc 7ae5 c93b
00000020: 6b6f c4bc f862 f9bd a27d e13e a64b dcbd
00000030: 2428 95bd a5ef 96bc e627 25bd d65b 74bd
00000040: 29f5 53bc 3466 84bd 80c1 60bc ec75 ebbd
00000050: 12ff a13e bef5 013d f452 443d 695d 6e3d
00000060: c01b a3bc a552 f7bc e27a 1d3c 189c 76bd
00000070: 4056 64bd 93c8 c5bb 457d 863d 788a 033d
00000080: 97fc 603d bc7a 9c3c 541a 97bd f3c2 0b3d
00000090: a916 6abd ed37 0abd 7df3 b339 30d1 0cbd
000000a0: dd9c a1bd bd83 52bd 3315 cf3b 33f1 89bd
000000b0: f50a 543c 6663 423c 0f5c 053c d116 ae3d
000000c0: d056 3bba db0c 283d 82d9 b4bd 9cd6 7a3d
000000d0: 26b8 34bd b0af 3dbd 5451 8d3c 993d 96bd
000000e0: cfb0 703c 9c04 f33c b35c 0abc 1a74 fb3c
000000f0: 9fcf 53b9 c296 aabd f123 ba3c 5e9e 82ba
00000100: c762 c6bd e4c3 f4bc 8566 30bd 4723 74bc
00000110: 3a2c cdbc 5cac c7bc 5457 18bd c690 15bb
00000120: 8b13 88bb f288 9f3a f675 e8bc 7e74 6fbd
00000130: 45a5 aebb 279b 99bb cac9 bbbb a4cf 37bd
00000140: 4602 c23c 3c96 0dbf e9a8 73bd 45c9 81bc
00000150: c264 d73d 9500 8cbd a481 6abd 818b 13ba
00000160: 97b4 5bbc ac2e 573a 58e3 4ebd 57a6 7e3e
00000170: f140 a93c e061 2dbc 61ce 883c 0fa1 b1bb
00000180: 26ee 1dbb 4201 053d 89f2 06bd 2e92 1bba
00000190: f508 01bc c06d d23d 19da ae3c 8bb6 b0bc
000001a0: bece 4ebd 8ada b23c 2e64 66ba 75eb 78bd
000001b0: efd5 023e dd55 043c cdbf 3b3c 49dd 5cbc
000001c0: b49b 90bc c028 2e3d 82f5 de3b 3ffa 01bc
000001d0: ea03 e13b 37c7 2abd 0dfb 2b3d baf5 2e3c
000001e0: 7276 bfbc d861 bebd 65ed e73c 22a9 9f3b
000001f0: c62c a23d dc31 c13c bf88 76bd 9ae9 aa3c
00000200: 6ff4 5cbd 2a16 5a3d fabb dd3c 8aaf ae3d
00000210: fa8f cbbc 478a 513c 7fdb 4fbd 06c1 f93c
00000220: 547d 213c 7a68 02bc bb27 aebc 266b 9bbb
00000230: 3e44 44bd e96b a4bc fffe f03b 9ed1 353c
00000240: b105 00bd 7304 483d 516e c5bc 38d9 023a
00000250: fc2b 523d f158 ffbc 729b 383c 8c2e 8a3b
00000260: 9ec2 74bc c928 11bd a0d3 893c 0bc6 33bd
00000270: 3d99 0fbc 3cbb 3ebd 1706 46bd 8d0a a83c
00000280: aff1 16bd 9683 cabb a368 06be dc4a bbbd
00000290: 6188 9abc 6f2d 7c3d fb8d 3dbc 3378 2abd
000002a0: ef88 b8bb 6fa4 16bb 0546 09bc e40e 2b3d
000002b0: 2a26 1fbe 42cd 44bc fb37 473b d9c3 7dbd
000002c0: 6a8a 7cbd 71c1 debc dc4b 32bd c71a f7bc
000002d0: 2de5 11bb b6aa d3bc 7dd5 4fbe a1e1 66bc
000002e0: 8c4b 8ebd a699 b8ba 1abb 17bc 2d89 5ebd
000002f0: 4c47 313c 3ee0 fcbc 2b92 bebd 1c8e f1bd
00000300: 1b61 2bbe a857 85bd a798 4bbd fafe c7bd
00000310: 8cb2 b1bc 672d 9c3d a263 873d b12c c0bd
00000320: 6f1a c8bd 42fd b6bb 2c46 dbbc fa2a 8cbd
00000330: 1eee c9bc b6ca 9cbd 0314 f53c 344d c93b
00000340: 7b3d dabd 201e a9bd 9e05 dabd 001a 39be
00000350: 46cf b4bd 7117 e9bd 7113 59bd 928d 8a3c
00000360: cf08 bb3c 6496 94bd 70cc 0ebd 01c6 84bd
00000370: dea9 ccbc 182d f3bc 33c8 64bd 3163 eabb
00000380: 8044 423d 76f4 20bb 130c b6bd 6e69 3fbd
00000390: f184 563a 420f 8cbd 79f1 2b3b d23a 903c
000003a0: 080f 243c 0c3f be3c 5cd2 2c3c 162d 7ebd
000003b0: 9b5d 543b 8881 0dbd ea4e 0d3d 09df 2e3b
000003c0: ae0a a3bc 5026 4d3c e9c9 b9bc 034b 273f
000003d0: 3ceb 37bd 3feb e63c 3f83 9f3d 0311 9dbc
000003e0: e862 b8bb 957c 233d 583a 213d 84fe b13c
000003f0: f6d0 563c 42c9 303e 4a17 82bd 8389 ed3c
-0.27280074 -0.11248841 -0.027602311 -0.06183076 -0.01366867 -0.049560953 -0.017325547 0.006161389
-0.02397891 -0.1217708 0.44041163 -0.10756616 -0.07283047 -0.018424818 -0.040321253 -0.059657894
-0.012936869 -0.06464806 -0.013718009 -0.11497101 0.31639916 0.0317285 0.047930673 0.05819455
-0.019910693 -0.030190775 0.009611817 -0.060207456 -0.055746317 -0.006035873 0.06566862 0.032114476
0.05492839 0.019101493 -0.073780686 0.034121465 -0.057150517 -0.03374474 0.00034322953 -0.034379184
-0.078912474 -0.051395167 0.006319666 -0.06735458 0.0129420655 0.011864519 0.008139624 0.08500446
-0.000714642 0.041027885 -0.08830549 0.061239824 -0.04412093 -0.046310127 0.017250694 -0.073359676
0.014690592 0.029665284 -0.008444953 0.03069501 -0.00020199873 -0.08329536 0.022722216 -0.000996541
-0.09686809 -0.029878564 -0.04306652 -0.014900989 -0.025045503 -0.02437418 -0.037192658 -0.0022821887
-0.0041527203 0.001217155 -0.02837656 -0.058460705 -0.0053297603 -0.004687685 -0.0057308422 -0.044875756
0.023682725 -0.55307364 -0.059487257 -0.015843043 0.10517265 -0.068360485 -0.05725254 -0.00056283927
-0.013409755 0.0008208554 -0.05050978 0.24868141 0.02066085 -0.010582417 0.016699972 -0.005420811
-0.0024098246 0.032471903 -0.032946143 -0.0005934563 -0.007875671 0.102748394 0.021344231 -0.021571418
-0.050490133 0.021832723 -0.00087887316 -0.060771424 0.12776922 0.008077112 0.011459303 -0.013480493
-0.01765237 0.04251933 0.006804169 -0.0079331985 0.0068669217 -0.041693892 0.041987468 0.010678703
-0.023371909 -0.09296006 0.02831144 0.004872457 0.07918696 0.023583345 -0.060189005 0.020863343
-0.053944048 0.053243794 0.027067173 0.08529575 -0.024848927 0.012789316 -0.050746437 0.030487549
0.009856541 -0.0079594795 -0.02125918 -0.0047429977 -0.047916643 -0.020070987 0.0073546167 0.01109734
-0.031255428 0.048832368 -0.024100455 0.00049914746 0.051311478 -0.03117034 0.01126753 0.0042169746
-0.0149389785 -0.035439286 0.016824543 -0.04389004 -0.008764562 -0.04656528 -0.04834565 0.020512844
-0.03685158 -0.006180237 -0.13125853 -0.09145138 -0.018863859 0.061566766 -0.011569495 -0.041618537
-0.005631558 -0.0022986194 -0.00837851 0.041762248 -0.15541902 -0.012011828 0.0030398357 -0.061954353
-0.06165544 -0.02719185 -0.043529376 -0.030164136 -0.0022261844 -0.025838237 -0.20296283 -0.01409188
-0.06948003 -0.0014083877 -0.009260917 -0.05433004 0.010820221 -0.030868646 -0.09305223 -0.11794683
-0.16736262 -0.0651086 -0.049706127 -0.0976543 -0.021691583 0.07625847 0.066108 -0.09383524
-0.09770667 -0.00558439 -0.026766859 -0.06844135 -0.024649676 -0.076558515 0.029916769 0.0061432365
-0.10656258 -0.08257699 -0.10645603 -0.18076324 -0.08828597 -0.11381424 -0.052997056 0.01691321
0.022831349 -0.07255247 -0.034862936 -0.06483079 -0.024983343 -0.029684588 -0.055854987 -0.007152938
0.047428608 -0.0024559773 -0.08889022 -0.046731405 0.0008183262 -0.06838848 0.0026236458 0.017606173
0.010013349 0.023223422 0.0105482 -0.062054716 0.0032404426 -0.03454736 0.034499086 0.0026683232
-0.019902553 0.012521341 -0.022679286 0.65348834 -0.04490207 0.028188346 0.07788705 -0.01917315
-0.005627025 0.039913733 0.03936228 0.021727808 0.013111344 0.17264274 -0.06352098 0.028996235

act_fc1.bias f4 [81]
00000000: b1b9 d2bd e284 abbd d1ce abbd e2e3 e0bd
00000010: a009 4fbe b354 02be 0251 dabd acd8 a6bd
00000020: e4bf 07be 81d3 8ebd 204d 04be 43bf d5bd
00000030: 1dcf c9bd 57d9 5fbd c5b5 fcbd 8175 12be
00000040: 5fa9 07be d63b a8bd 2674 eebd f2f1 95bd
00000050: b823 06be 581e 443d ed99 bd3d 8df3 263d
00000060: 78b4 bdbd 082a ebbd c683 ffbd f28c ddbd
00000070: 669a b5bd c0f2 223e abe6 893e adc8 a73e
00000080: 476a 783e 19e3 f73d 4c42 9fbd 2e7c 1abe
00000090: 2656 4abe c819 183d 8b7f 503e 6bf6 a23e
000000a0: 94e5 3e3e 1237 9c3e efe3 593e cb6a 7c3c
000000b0: 398d 4ebe 419e ebbd 5697 bfbd 40ed 203e
000000c0: 544c 863e c51b 953e c32f 813e 89d2 063e
000000d0: fe19 76bd 5b44 cbbd e37b cebd db82 0abe
000000e0: 16b0 cabd f518 b23d 3aef 843d 121e 693d
000000f0: 1024 12be 83b7 aebd e939 f0bd 774a b1bd
00000100: 0fbd 18be e02f fdbd 64d9 bbbd e560 6cbd
00000110: b0d6 bebd d9c8 f0bd 9d03 a2bd 4dd4 61bd
00000120: 5ca8 f0bd 1b5c 9fbd be22 bbbd ede0 07be
00000130: 450a 5bbe b4e8 06be 6e63 d4bd 3658 7cbd
00000140: ad76 bbbd
-0.10289324 -0.08374955 -0.083890565 -0.10980965 -0.20218515 -0.12727623 -0.10659982 -0.08146796
-0.13256794 -0.06973935 -0.12920046 -0.10436871 -0.09853957 -0.05465063 -0.12339357 -0.14302637
-0.13248204 -0.08214538 -0.11643247 -0.07321538 -0.13099563 0.0478805 0.09257875 0.040759612
-0.09262937 -0.11482626 -0.12476306 -0.10817899 -0.0886734 0.15912914 0.26933798 0.3277029
0.24259292 0.12103862 -0.07776317 -0.15086433 -0.19759426 0.037133962 0.20361154 0.31828627
0.18642265 0.30510765 0.21278356 0.015406321 -0.2017106 -0.11504794 -0.09355037 0.15715504
0.2623011 0.2912275 0.25231752 0.1316625 -0.06008338 -0.09925147 -0.10082223 -0.1352648
-0.09896867 0.086961664 0.06490941 0.056913443 -0.14271569 -0.08531096 -0.117297955 -0.08656781
-0.1491587 -0.12362647 -0.09172323 -0.057709593 -0.09318292 -0.11757059 -0.079108454 -0.055134106
-0.11750862 -0.077812396 -0.09137486 -0.13269396 -0.21390636 -0.13174707 -0.10370527 -0.061607562
-0.09153495

val_conv1.weight f4 [2, 128, 1, 1]
00000000: 52a3 b33e 5e15 2f3c c356 99be 81b4 1fbf
00000010: aa0d 8ebe 9483 13bd 56b0 df3e 579f 3e3e
00000020: 6f02 24bf 3d9c b0be 8951 7c3d b577 9cbd
00000030: 6d38 913e a0c5 1ebf b541 f43c e0b8 16bf
00000040: 85ea 723e 7adc 523c aef5 b53e ef94 babd
00000050: 5cb9 cc3e 79f9 273d 74b1 983e acc3 a13e
00000060: ac0d 1e3e 5cd8 01be 6fba f1be b8de 593e
00000070: 0172 df3d ca45 79be d53c 1cbf 11ed 0a3f
00000080: ddda 10bf aff8 e63e a4cf 1bbf 143c 05bf
00000090: 6778 76be 8f8e 41bf f014 c53e b67e 06bf
000000a0: 1639 afbe 9dc5 aa3d 024c e9be 8ae5 c73e
000000b0: 1572 3cbd 75aa cf3e cc05 27bf fe69 073f
000000c0: 027b efbc 2b8c 55bd f440 ab3e cb1c df3c
000000d0: 902c 46be deff 15ba a3aa c33c 3a67 d93e
000000e0: 0639 c93d 91c4 273d c820 f1be 8039 4b3e
000000f0: 65f6 313e 2343 2c3e f462 3d3e e930 dfbd
00000100: 6af3 00bf 2366 3fbf 868d ac3e 357f 20bf
00000110: c9bd 013f ddbf 1cbf 69bf 20bf 6bf3 c53e
00000120: 23ae f23d 611e 593e e330 24bf b0a0 26bf
00000130: f12d b73e 6e20 0b3e ec7a 91bd 4bbb 8cbe
00000140: dcc4 02be 4304 983e 4710 1cbf 14a9 32bf
00000150: be49 f23d 6390 b7be ef05 95bd 4375 f6be
00000160: 2768 a53e 4e4d e63e 73f8 4d3e f715 11be
00000170: 4d31 223e f0f2 4bbf 93f2 d53e 3644 f73c
00000180: ceb2 f6be f2c2 01be 06c2 8e3e 84fd 983d
00000190: a6bc 00bf 7e1c b33d 4e15 393e ea68 17bf
000001a0: 10fc 6c3d 6e33 b73e bec8 a73d 6a85 7b3d
000001b0: e668 8e3e 20e9 043e 1330 6bbf dbce ca3e
000001c0: c777 c03d dd76 763e 4cbc 31bf 3609 9a3e
000001d0: f89e 50be 9337 2dbe e0cf 20bf 6f83 243e
000001e0: 3fa9 423e de6d 773e aa42 11be 5666 cc3c
000001f0: cdb7 17bf 454f 013e 00a2 a73e 235a 1e3e
00000200: 8975 d03c 4607 8a3b c74b eebe 6667 eb3c
00000210: 033c 843e 1d1b 93be 0233 0abf 4f17 fdbe
00000220: a52f 7b3d ae67 84be f2f3 a63d c094 01bf
00000230: 069e a33e d143 02be 918b 13bf cd46 aabe
00000240: c7f1 6e3c d06f e0be f225 8f3d f382 aebc
00000250: 2a92 14bf 47db ca3d 4693 debe fd11 a9be
00000260: b57a 023f 90ad 1ebf 954a 413e 64c4 433e
00000270: 1565 0cbf e6f8 163e e96d eb3d cc07 0dbd
00000280: 19b0 bfbd 9e4d d7be 5e70 5c3e fddf 7a3e
00000290: ff7b fe3d f5c5 acbd b583 873e f49b 1abb
000002a0: 785f 563e 1b2d 17bf fbb7 c9be abf0 c4be
000002b0: 9c65 15bf 4832 ab3c 9ce8 54be e7d2 d93e
000002c0: 7765 8f3e 0e61 4f3e 2a4b 423e acd2 5bbf
000002d0: d4ab f7be 1423 0ebf 03c7 10bf c710 f5bb
000002e0: e773 b33e 039e 733e a1fb 1e3e 7b3d c83e
000002f0: d131 0ebe 6970 00bf bc14 893e b2b2 1f3e
00000300: d81f ab3e 6d22 b13d 5972 9c3d bf89 7f3c
00000310: 2ed9 81be 1a3e 143d 1747 aa3d 8832 f23e
00000320: c4fc e5be 1716 e83e 0fc0 623e 61e3 70bd
00000330: dccd e6bd bae5 1b3e 0f82 893e 3d31 17bf
00000340: 7799 e53d 6303 b9be 35a4 893d f3ee e7bc
00000350: e26f 383e 18bc f83d bce2 d13d 4592 4a3e
00000360: e082 8d3e 16aa 573e 098a 103c 3eb4 90bd
00000370: 6d8d 313e 5773 0cbd e739 dabe 4ddb a8bb
00000380: 125f 1b3e b648 7abe 10bc a33e 0cf5 34bf
00000390: 7d1a 00bf 9e3c e03e 8939 1bbf d149 f43c
000003a0: 302f 723e c707 14bf b780 dbbe 7fc4 d5be
000003b0: a18c b83e 4a06 b43d 2d8a 123e 75db 54be
000003c0: f295 04bf 0d90 5a3e af90 1ebd ed7a b63e
000003d0: 3e87 523e 3423 8c3e a1e3 c1bc 84fe edbe
000003e0: eade 8b3e 7913 09bf 435b 1bbf 1774 69be
000003f0: 721a 2e3e 0d3f eabe 09ba 823d 934c 813e
0.3508554 0.010686247 -0.29949006 -0.623848 -0.277448 -0.036014155 0.4368922 0.18615471
-0.64066213 -0.344942 0.061601195 -0.0764002 0.28363362 -0.620203 0.029816488 -0.58875847
0.23722275 0.0128699485 0.35539 -0.09110438 0.39985168 0.0410094 0.29822886 0.31594598
0.15434903 -0.12680191 -0.4721255 0.21276367 0.109104164 -0.24343029 -0.6103032 0.54267985
-0.5658396 0.45111606 -0.6086371 -0.52044797 -0.24069367 -0.7560815 0.38492537 -0.52537096
-0.3422324 0.08338473 -0.45565802 0.39042312 -0.046007235 0.40559736 -0.6524322 0.52896106
-0.02923346 -0.052135628 0.33447993 0.02723541 -0.19352937 -0.0005722026 0.023885077 0.42461568
0.098253295 0.040958945 -0.47095323 0.19846153 0.17379148 0.16822486 0.18494779 -0.10898001
-0.5037142 -0.74765223 0.33701724 -0.626941 0.50680214 -0.6123026 -0.6279207 0.38662276
0.1184962 0.21202995 -0.64137095 -0.6508894 0.35777238 0.1358659 -0.071035236 -0.27486643
-0.12770408 0.2969075 -0.6096234 -0.6978924 0.118304715 -0.35852346 -0.07276522 -0.4813634
0.32306024 0.44980854 0.20114307 -0.14168535 0.1583912 -0.7966757 0.41786632 0.030183893
-0.48183292 -0.12672022 0.27882403 0.07470229 -0.50287855 0.08745669 0.18074533 -0.5914446
0.057857573 0.35781425 0.081925854 0.06140653 0.27814406 0.12979555 -0.9187023 0.39610943
0.09397846 0.2406878 -0.69427943 0.30085152 -0.20373142 -0.16915731 -0.6281719 0.16065763
0.19009875 0.24163005 -0.14185587 0.024951141 -0.5926483 0.12627895 0.32740784 0.15464072
0.02544667 0.004212293 -0.4654219 0.028735828 0.25827035 -0.28731623 -0.5398408 -0.49431846
0.061324734 -0.2586035 0.081519976 -0.506176 0.319565 -0.12721182 -0.57634836 -0.33257142
0.014584011 -0.43835306 0.06989659 -0.021302676 -0.5803553 0.09905105 -0.43471736 -0.33021536
0.50968486 -0.61983585 0.18876107 0.19117886 -0.5484174 0.14743385 0.11495573 -0.034431264
-0.0935976 -0.42051405 0.2152724 0.24499507 0.12425994 -0.08436195 0.26467672 -0.002359149
0.20934856 -0.590532 -0.39398178 -0.38464865 -0.5835817 0.020898 -0.20791858 0.42543718
0.280071 0.20251867 0.18973985 -0.85868335 -0.48373282 -0.55522275 -0.5655367 -0.0074788067
0.35049364 0.23790745 0.15525676 0.39109406 -0.13886191 -0.50171524 0.26773632 0.1559551
0.33422732 0.08649144 0.076389976 0.015596806 -0.25361007 0.036192037 0.083143406 0.47304177
-0.44919407 0.45329353 0.22143577 -0.058810595 -0.11269733 0.15224352 0.2685704 -0.59059507
0.11210912 -0.36135396 0.06720773 -0.028312182 0.1801143 0.12145251 0.10248324 0.1978236
0.27638912 0.21060976 0.008821973 -0.070656285 0.17339106 -0.034289684 -0.426223 -0.005153096
0.15172985 -0.244418 0.31979418 -0.7068641 -0.5004042 0.43796247 -0.60634667 0.029820355
0.23650813 -0.5782437 -0.4287164 -0.41751477 0.3604479 0.08790262 0.14310522 -0.20786841
-0.517913 0.21344014 -0.0387122 0.3564066 0.20559403 0.27370608 -0.023668112 -0.46483243
0.27318507 -0.5354534 -0.6068613 -0.22798191 0.17002276 -0.4575123 0.0638314 0.25253734

val_conv1.bias f4 [2]
00000000: 4d33 e83d 2c11 033e
0.1133791 0.1279952
