Chapter10/mtcnn_onnx/p_net.onnx (onnx, 27653 bytes, 9 tensors)

classification.0.weight f4 [1, 32, 1, 1]
000000 c7 33 ad 3f c1 af ed be 55 f1 33 bf fd 8d 15 bf
       1.3531426 -0.46423152 -0.7029012 -0.5841978
000010 70 82 68 3f 7c 67 f8 be cb 0e 24 bf 2f 60 c3 3e
       0.9082403 -0.48516452 -0.6408507 0.3815932
000020 eb a2 d4 3e 4a f1 19 bf 96 2a 5f 3f 90 f2 16 bf
       0.41530547 -0.601338 0.87174356 -0.5896387
000030 39 5a 8d 3f a1 8d 9f 3f 78 de 43 3f dd be 0a 3f
       1.1043159 1.2465097 0.76511335 0.54197484
000040 1a 7d 2a bf 04 8c 48 bf 74 c8 74 3f 57 8a 0d bf
       -0.6659714 -0.78338647 0.9561837 -0.55289215
000050 a7 35 59 bf 3c 85 ef 3e 64 0b 91 3f 65 4f 04 bf
       -0.8484749 0.46781337 1.1331601 -0.51683646
000060 6a d4 6c 3f e7 a5 cc 3e 96 34 c5 3e 39 f5 ff be
       0.9251162 0.39970323 0.38516682 -0.49991778
000070 79 93 14 bf ce ea 80 bf 25 09 52 bf 42 a4 b0 3f
       -0.58037525 -1.0071657 -0.82045203 1.3800128

conv1.0.bias f4 [10]
000000 80 09 7a bd 37 0f 9c bd d5 ae ba bc a0 0f 30 be
       -0.061044216 -0.076200895 -0.022788445 -0.1719346
000010 97 81 56 3e 75 91 d2 bd 94 29 b1 bb 97 b2 f7 bd
       0.20947872 -0.1028165 -0.005406568 -0.1209461
000020 7f d3 c6 bc 8b 5d 2f bd
       -0.024270771 -0.04281382

conv1.0.weight f4 [10, 3, 3, 3]
000000 42 59 05 bd 7d fb 98 be a8 aa ab be 91 89 c2 3e
       -0.032555826 -0.2987937 -0.33528638 0.3799558
000010 a2 c0 43 3e e4 5d 8b 3e b1 cd dd bd d5 24 81 bd
       0.19116452 0.2722007 -0.10830248 -0.06305853
000020 79 04 5b 3c 6e 1b e0 bd 03 df a0 be 5b a2 5e be
       0.013367766 -0.10942732 -0.31420144 -0.21741621
000030 d3 7f 27 3e 07 26 d6 3e a8 d4 41 3d cc 0a 59 bd
       0.16357355 0.41825888 0.047321945 -0.052988812
000040 09 0b 86 3d 67 c4 e0 3c 10 f8 8a be 62 e9 7e be
       0.065450735 0.027437402 -0.27142382 -0.24893716
000050 46 92 20 be ff 74 b3 3e 7f b3 ac 3e be 1a 2a 3e
       -0.15680799 0.35050198 0.33730695 0.16611764
000060 85 0c 44 be 08 a8 fe 3c da 15 49 bd b7 f6 18 3e
       -0.19145401 0.031085983 -0.049093105 0.14937864
000070 eb ee d4 3e 7f b3 19 3e 21 5d eb 3c 85 fa 76 be
       0.4158853 0.15009879 0.02873093 -0.24119003
000080 57 2d 89 3e 1d fd 9d 3e c7 ca bb 3d db b2 92 3c
       0.26792404 0.30857173 0.09169536 0.01790755
000090 a8 bd 33 bd e0 21 88 be 89 bf 6c be b8 ec ca be
       -0.043882042 -0.26588345 -0.2311994 -0.39633727
0000a0 c8 09 ca be 6e a7 01 be ee 84 6d 3d cf c5 a1 bc
       -0.39460588 -0.12661526 0.0579881 -0.019747643
0000b0 3b 11 9d bc 3c 47 2f 3d 20 dc ac bd 43 8a 0f 3e
       -0.019173255 0.042792544 -0.08440423 0.14017586
0000c0 44 7a 77 be 75 cc 0d 3d 0f 0e 88 bd e7 bb b8 3d
       -0.24167734 0.034618814 -0.066433065 0.090202145
0000d0 9f de 82 3e ff 9f 3b 3e 83 0a 29 be cc 1f b1 bd
       0.2556047 0.18322752 -0.16507916 -0.08648643
0000e0 6a 87 2a be 79 8d d9 b9 e8 95 8a bd 4f 65 45 3d
       -0.16653219 -0.0004149487 -0.067668736 0.04819232
0000f0 6e 39 94 bd c3 e4 6b be fd 83 df bc ec 17 28 3e
       -0.07237516 -0.23036484 -0.027284617 0.16415375
000100 07 34 86 3d 28 c0 bf 39 7f da bc 3d 87 3f 7c 3e
       0.06552892 0.00036573526 0.09221362 0.24633609
000110 d7 ff 13 3e d9 69 54 be 58 6c bd be aa b6 fc bc
       0.14453064 -0.20743503 -0.36996722 -0.03084882
000120 a2 2b 84 3e 21 b9 a1 3e 44 bf 44 3e 93 af 94 3e
       0.2581454 0.31586555 0.19213587 0.29040202
000130 7e a5 a7 3e d5 93 60 3e bf d2 19 be 1e 6c 09 be
       0.32743448 0.21931393 -0.150218 -0.1342015
000140 a1 91 ed bc e4 4a 6a 3e fa 9d ce 3d 0a 63 28 3e
       -0.029000105 0.22880131 0.100887254 0.1644403
000150 bf 34 fd 3d 4b 63 94 3e c8 5a c1 be 86 96 cc bd
       0.12363576 0.28982005 -0.37764573 -0.099896476
000160 f4 9e b1 be 11 39 86 3d 7c 61 6c 3d 0e 85 bd bc
       -0.34691584 0.06553853 0.057710156 -0.023134734
000170 7e 88 ab bd 72 82 9e 3e e1 30 89 3e 9a 3d b5 be
       -0.08375643 0.30958897 0.26795104 -0.3539856
000180 5d 7a 67 be 4d c8 8a be 95 a4 78 3d fc c4 cf bd
       -0.22605272 -0.27105942 0.060703833 -0.10144994
000190 7c 6b 91 be 80 d4 16 be 5e 81 3d 3e fc 5b d7 3e
       -0.28402317 -0.147295 0.18506381 0.42062366
0001a0 3b e3 24 be d8 26 02 be 8d 0d 19 be 22 5c 17 3e
       -0.16102307 -0.1271013 -0.14946575 0.1478124
0001b0 20 58 66 bd 4f 2e 43 be b3 d1 b8 be 1f 31 4c be
       -0.056236386 -0.19060634 -0.36097488 -0.19940613
0001c0 de e7 31 3c 2b d9 b7 be 5e b9 29 3e 1f da 0b 3c
       0.010858504 -0.35907874 0.16574618 0.008535891
0001d0 9f 76 9b be f0 41 3f 3b 8a a7 a5 3e 01 57 e6 3e
       -0.30363938 0.002918359 0.32354385 0.44988254
0001e0 1f 86 a3 bd ac ac 01 3f a5 b4 9d 3e 83 3e 9e 3e
       -0.07984566 0.506541 0.30801883 0.30907068
0001f0 56 22 42 3d 95 78 ad 3e 50 78 53 bd e0 fe 5a be
       0.047396027 0.3388106 -0.05162841 -0.2138629
000200 3a 2d 12 3e b6 d2 0c be ee fa 13 bd c2 49 ee 3d
       0.14275065 -0.13752255 -0.036127977 0.11635162
000210 07 58 8e bd 6a 01 72 bd 89 75 92 3d bb ec e2 3e
       -0.06950384 -0.05908338 0.07151324 0.44321236
000220 78 ef 09 be 15 96 66 be 2f 42 51 3e 07 fa b8 3e
       -0.13470256 -0.22518189 0.20435403 0.36128256
000230 07 a3 84 be be 7e e1 3d fd fe 95 3e 04 76 41 be
       -0.2590563 0.11010502 0.29296103 -0.18892676
000240 5a 6e 8b 3e b1 0b a9 bd e6 f7 12 bf 64 d3 8d 3e
       0.2723263 -0.08254183 -0.57409513 0.2770034
000250 75 dd 84 3d 4d 33 a8 be a7 ab 18 bd 48 ef 21 3d
       0.06487552 -0.3285164 -0.037273075 0.039534837
000260 16 10 58 be 47 dc 55 3e 75 09 11 be e4 0e 0c be
       -0.21099886 0.2088481 -0.14163764 -0.13677555
000270 8e bd 5c 3e 10 85 ef 3c da 6a 64 be 69 a3 66 3d
       0.21556684 0.029238254 -0.22306386 0.056308184
000280 21 92 e3 3d 18 9d 61 3d a1 1a 2c be 8f eb cb be
       0.11111856 0.055081457 -0.16807033 -0.39828154
000290 cc cb d4 bd 29 39 55 be 07 cc 41 bc 21 f6 df bc
       -0.10390434 -0.20822586 -0.011828429 -0.027339043
0002a0 d1 cf 88 3d 31 50 af 3e e8 ee 7b 3e 33 2d a4 3d
       0.06680263 0.3424087 0.24602854 0.080164336
0002b0 d2 f3 e3 bc 0b 02 46 be 62 3e 09 3e cc 3f fe 3d
       -0.027826224 -0.19336717 0.13402703 0.12414512
0002c0 5e 08 66 be 9e 83 11 3d 6c f7 dd 3e 78 17 f8 3e
       -0.2246413 0.03552591 0.4335283 0.48455405
0002d0 b0 1d 36 be 77 07 ba bd f2 4f 90 be f3 5d 51 bd
       -0.17784762 -0.09083455 -0.28185993 -0.051114988
0002e0 4f 37 10 bd d2 0e 84 be 6e c1 81 3d 05 64 e4 bc
       -0.035208996 -0.25792557 0.06335722 -0.027879724
0002f0 38 de a7 3e 08 98 fe be 05 90 13 be 50 9f c6 3e
       0.32786727 -0.49725366 -0.14410408 0.3879342
000300 4f 11 6f be a5 ad b2 be c4 02 ce 3d b7 5c e0 bd
       -0.23346446 -0.34898105 0.10059121 -0.10955184
000310 e0 2f 74 be 0f d0 14 3c f2 79 a5 bc 7a 9e 96 3d
       -0.23846388 0.009082808 -0.02019975 0.07354446
000320 08 eb 51 3e bc 9e ad 3d 8f a3 a4 be 88 7d 8c bd
       0.20499814 0.08477542 -0.32156035 -0.06859881
000330 67 f8 9d 3e 1d 1f 83 be 10 19 59 bd cd 1e 7d bd
       0.30853578 -0.25609675 -0.053002417 -0.061796952
000340 20 fb db 3c fb 76 f7 3e c0 90 39 3d 61 43 8f bd
       0.026853144 0.48332962 0.04530406 -0.069952734
000350 68 28 c8 bd c1 c6 d7 3d dd 0e 93 3d a4 f8 87 be
       -0.09773332 0.10535956 0.07180569 -0.26556885
000360 51 45 76 3e ce 79 bc 3d 4e 50 4e 3e 27 94 56 3e
       0.2404988 0.0920292 0.20147821 0.20954953
000370 01 05 32 3e e0 b7 05 be 77 12 e0 bd 01 a8 be be
       0.17384721 -0.13058424 -0.10941022 -0.37237552
000380 cf e9 a2 be 95 a0 9c 3e 5f 3a df 3e b0 5d 06 3e
       -0.31819007 0.30591264 0.4359922 0.13121676
000390 25 74 ee 3d ce df 0d bd 71 6b a2 be 9b 42 50 be
       0.116432466 -0.034637265 -0.31722596 -0.20337908
0003a0 02 2a 65 be 29 cb 60 be b4 27 20 bc 1d 2f 4a 3e
       -0.22379306 -0.219525 -0.009775091 0.19744535
0003b0 3f 8c 21 3e 38 f8 b8 3e 4b c2 88 bd fc 3b 2b be
       0.15776156 0.36126876 -0.066776834 -0.16722101
0003c0 32 84 be bc 34 73 96 be 47 67 b9 bd a5 4e 14 3e
       -0.023256395 -0.29384768 -0.09052902 0.14483126
0003d0 27 bb e8 be 38 c6 b8 3c 06 77 2d bd 97 4b 4d be
       -0.45455286 0.022555456 -0.042349838 -0.20048366
0003e0 81 20 d9 3e 96 c0 bf bd 16 89 bd 3b fb 1d e1 3d
       0.4240761 -0.09362905 0.005784164 0.109920464
0003f0 d2 df 4b 3e 0c fd c8 be d0 be f7 3b 57 04 94 bd
       0.199096 -0.3925556 0.0075605884 -0.0722739

conv1.3.bias f4 [16]
000000 88 5f 8e 3c 8f 29 32 3e 57 53 7b 3e 1f f3 ba 3d
       0.017379537 0.17398666 0.2454351 0.09128403
000010 66 50 41 3b df 94 44 3d 9d d1 19 3e 4c ae 68 bc
       0.0029497384 0.047993537 0.15021367 -0.014201712
000020 c8 79 95 3d 74 35 32 3e 0c f0 c4 3b 03 fe 42 3d
       0.072986186 0.17403203 0.006010061 0.047605526
000030 d6 71 fb 3d 8c 28 4e 3e a6 5e be 3d d3 bc 83 3d
       0.12277572 0.20132655 0.092953965 0.064325

conv1.3.weight f4 [16, 10, 3, 3]
000000 70 52 15 3f 18 bb fb 3d 3b 50 55 3e a3 49 c7 3e
       0.58328915 0.12291545 0.20831387 0.38923368
000010 12 fa 62 bd 5d fc 2b 3d 6b ef 48 3e a2 17 7a be
       -0.055414267 0.04198872 0.1962258 -0.24423078
000020 97 53 2b be 96 19 80 3e 41 89 d4 be 9e fb a1 be
       -0.16731106 0.2501952 -0.41510966 -0.3163728
000030 46 4d 55 3e 27 d5 ef be 20 e6 f9 be cf 4f 4a be
       0.20830259 -0.4684231 -0.48808384 -0.19757007
000040 be e8 f4 bd 93 b6 98 be d3 3f d3 3d 36 8b 24 3e
       -0.119584545 -0.29826793 0.10314908 0.1606873
000050 3e 36 ec 3d c7 9c 70 3e 54 68 99 3e 6f 47 88 3e
       0.115337834 0.23497306 0.2996241 0.26617
000060 2a f2 84 3d 8c e4 03 3f ba 82 1a 3d d4 78 29 3e
       0.06491502 0.5152061 0.037722327 0.16549999
000070 84 76 1b 3c 3c 48 5e 3d e6 af 8c 3d df f0 c1 be
       0.009488706 0.054268107 0.068694875 -0.37879083
000080 df 46 74 be b8 d6 ec bd c0 97 02 bf 10 76 a6 be
       -0.2385516 -0.11564392 -0.510128 -0.3251195
000090 0f db 68 be 18 9e 61 bd e3 28 28 bc ce 52 54 3e
       -0.22739814 -0.05508241 -0.010263654 0.20734712
0000a0 90 66 0c 3e 83 f2 01 3e 9c b2 ac 3e 3b c0 3a 3e
       0.13711 0.12690167 0.33730018 0.18237393
0000b0 1a cf 50 3e fa a1 2e bd 0c 49 f2 3d 07 3e 7d 3e
       0.20391503 -0.04263494 0.11830339 0.24730693
0000c0 b3 22 69 bd 22 fc 7a bd f9 ee 57 3e 7a 0c 18 bc
       -0.056917857 -0.06127561 0.21087255 -0.009280318
0000d0 69 56 09 be 38 62 38 3e 67 38 97 3d 20 ed c6 3d
       -0.13411869 0.18006217 0.07383805 0.09713197
0000e0 10 eb 0c bc 08 17 9f bd 5e 87 a0 bd 4e 3d 39 be
       -0.008600965 -0.07768065 -0.07838319 -0.18089792
0000f0 26 c7 06 be bc 66 0b bd 01 9d 82 be 50 9e af bd
       -0.13161907 -0.034033522 -0.2551041 -0.085751176
000100 25 22 78 3e e9 da 04 3f d5 39 0e 3e bb fb d3 3e
       0.24231775 0.5189653 0.13889249 0.41402993
000110 a9 94 3c 3e b2 2d 11 be bc 89 8c 3e ce 2f a7 3d
       0.18416084 -0.14177588 0.27448833 0.08163415
000120 a3 33 62 3d ef d1 32 3e ed 4f 7c bd 50 c8 e9 bd
       0.055225026 0.17462896 -0.06159966 -0.1141516
000130 61 32 6f be 37 88 ca 3d e4 2a 7b 3d fa 0d 73 be
       -0.23359062 0.09889262 0.0613202 -0.237358
000140 c4 c8 78 bd bc a4 3e be a1 47 8f be 0e 1d d8 bd
       -0.06073834 -0.18617529 -0.27984336 -0.10552417
000150 7b 05 a5 3d 13 40 b5 bc 22 8c 85 3c 1c ce 2f 3e
       0.08057686 -0.02212528 0.016302172 0.17168468
000160 1f 11 31 3e ea a8 4e 3e 6b fe 78 3c bb 07 f3 bd
       0.17291687 0.20181623 0.015197377 -0.11866709
000170 db 3a 4a 3e 9d 3b a2 bd a3 ef 45 3e 5b 7d e0 bc
       0.19749014 -0.079215266 0.19329695 -0.027403524
000180 41 e0 8d 3c 2b 3e 2a 3e fb 90 5c 3d da e2 55 bb
       0.017318847 0.16625278 0.0538492 -0.0032636435
000190 3f 03 94 bd 24 6e d6 3c 09 41 b8 3d 12 c7 0c bd
       -0.07227182 0.026175566 0.089967795 -0.034369536
0001a0 4f c9 0f 3c f2 e1 f1 bc 09 3a 18 be 92 04 3a be
       0.008776023 -0.029526684 -0.14865889 -0.18165806
0001b0 bf d4 a1 be b8 a7 79 3e 15 e4 90 3e c1 97 e7 be
       -0.31607625 0.24380386 0.28299013 -0.45232967
0001c0 3e 81 aa be 80 5b 43 3d b4 68 e0 bd ee 23 bd bd
       -0.3330173 0.047694683 -0.109574705 -0.09235369
0001d0 45 e0 d9 bd fc 2a a0 be 1f a2 15 bc 4d df 17 be
       -0.10638479 -0.31282794 -0.009132891 -0.14831276
0001e0 2e 1a ed bb 27 cc 2a be f9 43 2b be 03 7d 75 be
       -0.007235787 -0.1667944 -0.16725148 -0.2397347
0001f0 03 4b a8 be 15 d5 ec bd cb 95 d5 be 3e 2c e0 3d
       -0.3286973 -0.1156408 -0.41715845 0.109459385
000200 a2 25 1c 3e 17 04 35 bd 23 fe 13 be e0 3d 04 3e
       0.15248731 -0.044193354 -0.14452414 0.12914228
000210 9e 48 d2 3d 61 b8 cd bc cc e7 eb bb 71 22 27 3e
       0.10267757 -0.025112333 -0.007199263 0.16321732
000220 9c 86 d1 3d 09 a0 7c 3e de ce 42 3c c4 c6 03 bd
       0.10230753 0.24670424 0.011890141 -0.03217198
000230 f4 14 93 3d e8 fa bd 3b 0f 50 19 be 27 6a 0f 3e
       0.07181731 0.0057977326 -0.14971946 0.14005338
000240 1f 95 a8 bd d5 6a a1 bd a1 d2 ae 3d a7 02 b5 bd
       -0.082315676 -0.07881705 0.08536268 -0.088383965
000250 9f 75 8e 3e f4 f5 d9 3c 44 e4 c6 bd 53 ed fa 3d
       0.27824113 0.026606537 -0.09711507 0.12252297
000260 0c 4a 89 bc 22 da 97 be cb a6 49 3d e4 0c 82 3d
       -0.016758941 -0.2965861 0.04923133 0.06350115
000270 cd 33 7c bb 29 87 ca 3d 89 aa 22 3e c2 ca 10 3d
       -0.0038483024 0.09889061 0.15885366 0.035349615
000280 4d 5d d2 3d c9 b5 c3 3c 93 9b 33 bd 18 13 de 3d
       0.10271702 0.023890393 -0.04384954 0.108434856
000290 f5 40 28 be 33 d3 2e 3e 83 78 57 be 61 a7 99 be
       -0.16431029 0.17072754 -0.21042065 -0.30010512
0002a0 41 b5 95 3d 52 d4 fa be a8 c9 a0 be 8f 71 1b bf
       0.07309962 -0.48990113 -0.31403852 -0.6072015
0002b0 0d 00 21 bf 76 01 64 bc 07 0a 73 be d0 0a c2 be
       -0.628907 -0.013916364 -0.23734294 -0.37898874
0002c0 10 af 5d bd 4d 51 a8 be 63 72 20 bf 26 c8 80 bd
       -0.05412203 -0.32874528 -0.6267454 -0.06288175
0002d0 3b 3f 78 be 1e 1b 02 3d d3 0a d9 be 63 ae 73 be
       -0.2424287 0.031764142 -0.4239107 -0.23796992
0002e0 61 68 68 3e f6 6c 73 bd 83 a7 87 3d 27 53 88 3e
       0.22696067 -0.059430085 0.06623747 0.2662594
0002f0 73 2e 66 bd a3 fe a1 be de 78 de 3d d9 5f c7 3b
       -0.05619664 -0.31639585 0.10862897 0.006084424
000300 a7 3c ee be a7 cb 1b 3e 33 88 3b bd e1 07 d5 bd
       -0.4653065 0.15214406 -0.045784187 -0.104018934
000310 6e e3 aa bd 8d 4d 8e 3c 3e f2 a2 be 74 b2 19 be
       -0.0834416 0.017370963 -0.3182544 -0.1500948
000320 f5 d0 ac be 6c 23 75 bd d7 44 66 bc e1 ef a7 3d
       -0.33753172 -0.059848234 -0.014054499 0.0820005
000330 1e 8e 7a 3e be 73 1f 3e 68 da 6e 3c de c0 27 be
       0.24468276 0.15571496 0.014578439 -0.16382167
000340 4c 54 04 3e b6 64 93 3e c5 96 87 bd ed e6 41 3d
       0.12922782 0.28787774 -0.06620554 0.04733937
000350 62 ce be 3e 00 8f c9 3c ff 71 65 bc 85 5b 06 bd
       0.37266833 0.02460432 -0.01400423 -0.032802124
000360 ed bc 8f 3e 77 bc 58 be 03 c1 71 be 67 cb a0 bd
       0.28073826 -0.21165644 -0.23608784 -0.07851296
000370 7d 3b c3 3c 46 9a ce 3d ec 08 3f 3e 58 13 1f bd
       0.023832077 0.10088019 0.18655747 -0.038836807
000380 1c 40 14 3e c0 b4 91 3e 39 3a b3 3d fe 71 7e be
       0.14477581 0.28458214 0.087513395 -0.24848172
000390 08 62 f6 bc 3d e7 16 bd 1e 33 68 bd a3 d1 c0 3c
       -0.030076042 -0.03684162 -0.056689374 0.023537463
0003a0 41 95 99 bd 7b 62 29 3c 8c ab 31 be d6 db 61 be
       -0.07499171 0.010338421 -0.17350596 -0.22056517
0003b0 6c ce a0 be 92 cc 96 bc a7 4c d9 bd d0 e2 16 be
       -0.31407487 -0.018408094 -0.106103234 -0.1473496
0003c0 81 6c 60 3e b1 54 08 3d 1f 87 f5 3d 21 4b 43 3d
       0.21916391 0.033283893 0.11988663 0.04767907
0003d0 86 f5 97 be 8c 9e cd be 24 dc 04 3d 68 ca 5c be
       -0.29679507 -0.40160024 0.032436505 -0.21561587
0003e0 37 f7 05 be 4c b3 a7 3e 59 97 97 3d 5b 49 b3 3c
       -0.13082586 0.3275398 0.07401914 0.021885565
0003f0 fb b5 3b be e2 d7 66 3e bd 55 4e 3e f1 b1 dd be
       -0.18331139 0.2254329 0.20149894 -0.4329982

conv1.5.bias f4 [32]
000000 fb 89 05 3e bf 7b d2 3e 44 f6 19 be 93 94 b6 3d
       0.13040917 0.41110036 -0.15035349 0.08915057
000010 60 22 cc bd 46 aa 45 3e 8d 72 5c bd 2f 66 98 3d
       -0.09967494 0.19303235 -0.05382018 0.07441365
000020 47 e3 ff 3d 73 10 39 3e f8 e6 bf bc c8 53 0e 3e
       0.124945216 0.18072681 -0.023425564 0.13899148
000030 7f 9d 2a 3e 11 01 b9 bc f8 5b be 3d 06 99 22 bd
       0.16661642 -0.022583516 0.092948854 -0.039696716
000040 5d 8d 8e 3e 64 e8 c1 3e 9e f9 29 bd 15 d3 f8 3e
       0.27842227 0.37872612 -0.04149782 0.48598543
000050 42 4d cb 3d 91 c3 29 3e 07 7b 5e ba 35 51 a6 3d
       0.09926845 0.16578509 -0.00084869604 0.08120958
000060 08 02 80 3c 27 c2 f8 3d ec 29 b0 3d fd 30 3b 3e
       0.015625969 0.121464066 0.08601746 0.18280406
000070 7a b5 28 bc cb 40 5b 3e 65 1c e1 3e f1 43 43 3b
       -0.010297174 0.21411435 0.43966976 0.0029795135

conv1.5.weight f4 [32, 16, 3, 3]
000000 43 12 2b 3d f1 d2 1f 3d d6 79 e5 3d 81 17 6b bd
       0.041765463 0.03901953 0.11204879 -0.057395462
000010 41 2b 92 3d db 83 84 3d 23 3c 81 bd 02 94 7a be
       0.07137156 0.06470462 -0.06310298 -0.24470523
000020 0f 50 6c be 7d 55 98 3e f4 78 83 bd 52 9a dd 3e
       -0.23077415 0.29752722 -0.06419554 0.432818
000030 ea 7d 06 be 4b a5 ec 3d 55 42 27 3f 3f e4 46 bf
       -0.1313397 0.11554965 0.6533559 -0.77692026
000040 35 3d 56 be f9 91 aa be ba 68 9d bd 73 c3 a4 be
       -0.20921786 -0.33314493 -0.07685991 -0.32180366
000050 33 aa 5f be 35 16 21 bd e9 e4 99 be c8 81 89 be
       -0.2184227 -0.03932782 -0.30057457 -0.26856828
000060 2e a7 12 be cf e6 c2 be cf 01 05 be 70 d7 ce 3e
       -0.14321586 -0.38066718 -0.12988971 0.4039874
000070 d7 81 99 3e 44 25 0d 3f 05 7b a0 bd 92 af 71 bd
       0.29981872 0.5513499 -0.07835964 -0.059005328
000080 3f db 77 be 7f cc 3f bf be 94 dd be fc 5f fe be
       -0.2420473 -0.7492141 -0.43277544 -0.49682605
000090 07 06 d3 3e 82 41 32 3f b0 f2 24 3f 72 87 27 3e
       0.41215536 0.69631207 0.6443281 0.16360262
0000a0 6b 45 b2 be 23 08 96 be b4 aa 58 be b3 ee 36 bf
       -0.34818587 -0.29303083 -0.21158868 -0.71457976
0000b0 ad 72 14 bf 6f e4 27 be 02 3f 42 bd be 62 36 3a
       -0.5798748 -0.16395734 -0.04742337 0.0006957463
0000c0 c5 17 a9 3d e2 7b 49 3e 64 e4 c0 bd a2 51 b2 3d
       0.08256487 0.19676164 -0.09418562 0.087069765
0000d0 ed 2d b4 bc ac 43 29 3d ca b3 fb be 4d c0 5c be
       -0.021994555 0.041324303 -0.49160606 -0.21557732
0000e0 6e 58 83 be 8c c3 a4 3e d3 b6 cf 3e fd 16 ab 3e
       -0.25653404 0.3218044 0.4056917 0.33415976
0000f0 da 6f 26 3f be ee a8 3e 7e 68 2a 3e 86 b3 0b 3f
       0.6501442 0.32994646 0.16641423 0.54570806
000100 75 13 3f 3f 27 9f cf 3e ba 13 61 be 05 34 d9 bc
       0.74639064 0.4055111 -0.21980181 -0.026514063
000110 a8 53 2b 3c 65 54 1d bd bb d1 66 be 7b 08 32 bd
       0.010456957 -0.038410563 -0.22540943 -0.04346512
000120 73 5d 58 bc f3 4c 03 bd 7f a7 d1 bd f1 a7 00 bf
       -0.013205874 -0.032055806 -0.102370255 -0.5025626
000130 e4 11 9b be d3 43 0f bc d7 da 81 3e d6 8e aa 3d
       -0.30287087 -0.008744198 0.25362274 0.08328025
000140 fe 37 6c 3e dc 63 2f 3f e2 6a e9 3e ea 32 a5 3c
       0.23068234 0.6851175 0.45589358 0.02016588
000150 44 bf de be da 11 03 be 62 28 7d bd ae 64 76 be
       -0.435053 -0.12799779 -0.06180609 -0.24061844
000160 77 32 ab be 20 c2 eb be 0b 48 ee 3e 12 15 cc 3d
       -0.3343694 -0.46046543 0.4653934 0.09964956
000170 65 de e3 3d 02 af 6a be 29 b5 cc 3c 85 62 09 be
       0.11126403 -0.22918323 0.024988728 -0.13416488
000180 d6 3b 14 be 67 88 73 be 14 fe b9 be e1 dd 40 3e
       -0.1447595 -0.23782502 -0.3632666 0.1883464
000190 a0 42 0f 3e 14 4c 60 3e 0d 94 0b be 08 5d 29 bd
       0.13990259 0.21904022 -0.13630696 -0.041348487
0001a0 7a 4b ac be 15 6f 41 be e2 21 ac be ca 50 2a be
       -0.33651334 -0.1889003 -0.336196 -0.16632381
0001b0 61 07 c0 bc 9d 73 1d 3e 87 50 83 3e c1 5a 34 bc
       -0.023441019 0.15376134 0.25647375 -0.011007966
0001c0 bc 8a 83 3e ad 19 96 3e 3a 42 c5 be b6 21 6a be
       0.25691783 0.29316464 -0.3852709 -0.22864422
0001d0 a6 70 83 bd 3e c7 4b 3e 49 eb d4 3b ef fe a9 bd
       -0.0641797 0.19900224 0.0064977747 -0.08300578
0001e0 8f 3a 4c bd e3 0b 42 3e 6d ea d5 3c 6e 5c 38 3e
       -0.049860533 0.18949847 0.02611276 0.18004009
0001f0 61 9b a8 3e b6 9a 8a 3d 13 99 85 3f 53 57 8e 3e
       0.32931045 0.0676779 1.043734 0.27800998
000200 9e a6 9b 3e 57 13 80 be 4a 67 a7 ba db 23 0d be
       0.30400556 -0.25014755 -0.0012771871 -0.13783209
000210 7f 42 b6 be 9c 3d df be 68 ec a2 be bb 7d ee bd
       -0.35597607 -0.43601692 -0.3182099 -0.11645075
000220 09 50 a8 be f9 31 d9 bd 68 28 69 bd 76 1c c1 bd
       -0.32873562 -0.10605235 -0.0569233 -0.094292566
000230 70 d0 87 bc c9 cb 54 bd 9c c6 3b 3e 32 fc 69 3d
       -0.016578883 -0.051952157 0.18337482 0.057125278
000240 cb 07 3a 3b c4 fb c2 bb 0e 6b 69 3c b2 a5 ad bd
       0.0028385993 -0.005950423 0.014246715 -0.084788695
000250 4c 8b 99 3c 6e 70 cd 3d 6e bc bc bd 1a 78 32 3d
       0.01874318 0.1003121 -0.092156276 0.04357157
000260 89 eb e1 bd 8d ee d6 bc 12 3c 4c be e0 e2 08 be
       -0.11031253 -0.026236797 -0.1994479 -0.13367796
000270 c2 02 42 3e 45 a2 19 3e 4c c6 89 3e f9 74 9b be
       0.18946365 0.15003307 0.269091 -0.3036268
000280 3e 55 d7 3b 12 5e 1f bc 7d 18 fa bd dc a1 da 3d
       0.006571441 -0.009727018 -0.12211702 0.106754035
000290 77 3b bf 3d 69 f2 17 3e 52 d3 1e 3e 35 17 49 3e
       0.09337514 0.14838566 0.155103 0.19637759
0002a0 1b d4 7f 3c 95 1e c4 3c 3a 91 4a 3d ab 33 d8 3e
       0.015614535 0.023940364 0.049454905 0.4222692
0002b0 24 fa bd 3e ab 15 c2 3e 9a 13 20 be cf c1 8f bb
       0.37104905 0.37907156 -0.15632477 -0.0043871175
0002c0 fc 09 15 be e3 e9 26 3e ff d5 e9 3d a9 c1 e6 3d
       -0.1455459 0.16300158 0.1141777 0.112674065
0002d0 3b d1 95 3d 03 37 7a 3e 74 da 1f 3f 1c 38 8e 3d
       0.07315298 0.24435048 0.6244271 0.06944296
0002e0 1b fb d0 bd ed 89 ae bd c8 fb 76 3e 59 a3 88 3e
       -0.102041446 -0.08522401 0.24119484 0.26687124
0002f0 23 27 3a 3e 68 71 27 3b 83 ca ab bd 3d f2 57 bc
       0.18178992 0.0025549773 -0.083882354 -0.013180313
000300 b9 64 f8 bd d8 d8 df bc f5 c9 d7 bd 28 1d 69 3d
       -0.12128586 -0.027325079 -0.10536567 0.05691257
000310 e6 08 a5 3c 76 c4 aa 3d c0 2a cb be fa e7 d2 be
       0.020145845 0.08338253 -0.39681053 -0.4119261
000320 7b 88 98 bd 20 98 59 be f5 e4 1f be 87 17 d9 bd
       -0.074479066 -0.21249437 -0.15614684 -0.106001906
000330 52 25 43 3e 7f e8 7b 3e 6e 0b 99 3c bd 53 fc 3e
       0.19057205 0.24600409 0.018682208 0.49282637
000340 a9 80 03 3f 51 7a 56 3e a0 4d b3 be 56 29 15 be
       0.51368195 0.20945098 -0.3502016 -0.1456655
000350 cf e1 65 3e c2 71 b2 bd f1 34 48 3b 60 7a f2 3d
       0.2244942 -0.08713104 0.0030549134 0.118397474
000360 d0 df 8b 3d 0d 48 b5 3d e1 c7 87 3d cf ae 8a be
       0.06829798 0.08851633 0.06629921 -0.27086493
000370 90 e5 84 be a7 70 77 be 66 0a 89 bc 7e 64 bc 3d
       -0.25956392 -0.24164067 -0.016728591 0.09198855
000380 d6 c7 1e 3e d4 50 2a 3d f0 db 95 3e 32 48 11 be
       0.15505919 0.04158099 0.29269361 -0.14187697
000390 73 01 5e bd 36 58 56 be 23 bc 3f be 43 c2 3c bc
       -0.0542006 -0.20932087 -0.18724112 -0.011520925
0003a0 55 81 ab bd e6 1a 1c 3e b9 e4 84 3e bb ac 9f 3e
       -0.083742775 0.15244636 0.25955752 0.3118647
0003b0 20 81 1b 3e 0a e2 3e 3d 11 30 64 bd c6 85 d0 bd
       0.15185976 0.046602286 -0.055709902 -0.10181765
0003c0 a5 4f b6 3d ec 5a 3d 3e ac 6c cb 3d 86 c6 32 3e
       0.0890191 0.18491715 0.09932837 0.17458543
0003d0 36 b2 c6 3e 64 60 2d 3e 60 03 ab 3e 9a 82 32 3e
       0.3880784 0.16931301 0.33401012 0.17432633
0003e0 4b dd 02 3d 9f 54 6e bd 2e e8 3b be 18 90 1c bd
       0.031949323 -0.05818617 -0.18350288 -0.038223356
0003f0 55 f3 39 3e 5a ae c6 3d 79 29 d2 3b 02 6a bd bc
       0.1815923 0.09701224 0.0064136353 -0.023121838

regression.bias f4 [4]
000000 80 12 54 3d 75 8d 6e bd 96 e7 f3 bd 0a 13 b4 3d
       0.051775455 -0.058240373 -0.11909406 0.08792694

regression.weight f4 [4, 32, 1, 1]
000000 58 c2 16 3d e2 cb 8d bd 82 c9 bf bb a4 70 d9 ba
       0.036806434 -0.06923653 -0.005852879 -0.0016589356
000010 6e 44 ba ba 2f dd 25 bc df 02 ba 3c bc 63 0c 3d
       -0.0014211067 -0.010123535 0.022706447 0.0342748
000020 63 ae 17 be d7 e4 89 bc 35 a1 a1 3c 56 cd 9a 3a
       -0.14812617 -0.016832752 0.01973019 0.0011810462
000030 c9 0a 03 bd 9b 3c 98 3c 25 58 fe 3c 03 4d fd 3c
       -0.031992707 0.018583586 0.03104789 0.030920511
000040 06 03 45 3d 63 41 2a bd 35 cf b0 bb 15 d0 b6 bd
       0.048098586 -0.041566264 -0.0053957948 -0.08926407
000050 ae a8 3f 3c af 21 27 3e 40 9f 29 3c 35 a2 cb 3c
       0.011697931 0.16321443 0.01035291 0.02485762
000060 71 57 9c bb 5d 23 98 bd d6 0c f4 3b 90 40 20 bd
       -0.004771166 -0.0742862 0.007447819 -0.03912407
000070 bc d3 46 3c a2 80 99 bb cd 27 a2 3b 55 2c 01 3c
       0.012135442 -0.0046845237 0.0049485923 0.007884105
000080 6e f9 35 3e 0f 65 f9 bd 17 2c ab 3b 0f f7 21 bc
       0.17770931 -0.121774785 0.005223762 -0.0098855635
000090 19 cf 6e 3d 56 6f ad bc 50 25 16 b9 f0 1d 53 bd
       0.058302972 -0.021171253 -0.00014319015 -0.051542222
0000a0 e5 54 ad bd 43 da 59 3c 10 ac f6 3c 28 07 08 3d
       -0.08463458 0.013296667 0.030111343 0.03320995
0000b0 ab 96 75 bc 21 07 94 3b a9 7e 00 bd 46 41 9d 3d
       -0.014989535 0.0045174514 -0.031370793 0.076784655
0000c0 e3 50 fb 3c f2 83 1f bd cd 68 6c 3a bc d7 7f be
       0.030678218 -0.038944192 0.0009018302 -0.2498464
0000d0 94 0f 8d 3a 14 cf d2 3c 57 6f 3f 3c dd b5 22 3d
       0.0010762089 0.025733508 0.01168426 0.03972422
0000e0 77 c5 11 3b f3 3c 29 bc cf 2a 7f 3d 67 df 41 bd
       0.0022242942 -0.010329473 0.062296685 -0.047332194
0000f0 7e 67 eb 3b c5 ab 1e bc b9 d9 c3 bd 95 18 1d 3c
       0.007183968 -0.009684508 -0.09563012 0.00958838
000100 4c 3e bc 3a 70 da 8f 3d e8 62 43 bb d1 90 8b 3c
       0.0014361828 0.070240855 -0.0029813591 0.017036827
000110 5e 02 8a bd 96 c3 4f 3d 78 d7 ca bc 0f d0 0e 3e
       -0.06738733 0.050723635 -0.024760947 0.13946556
000120 51 71 16 bd ce fe 20 bc 06 93 6f bc 81 5e d8 3a
       -0.03672916 -0.009826375 -0.014622455 0.0016507657
000130 9c 1f bc 3b cd 83 01 bd f1 f7 54 3d 2f 36 51 bd
       0.005741073 -0.031619836 0.051994268 -0.051077064
000140 5a ec 6f 3b 3c 54 06 3d 24 03 72 bc c7 84 e1 39
       0.0036609382 0.032795176 -0.014771257 0.0004301427
000150 87 7c e3 3b e9 73 d4 3c 55 cd 3f bc 83 04 d8 bc
       0.006942335 0.025934177 -0.01170667 -0.026369339
000160 30 d6 c1 ba 81 59 a6 bd 1b 30 08 3d 6a 62 58 3c
       -0.0014788564 -0.0812254 0.033249002 0.0132070575
000170 98 15 83 bc 39 e4 cb 3b 54 ea 8d 3d 8d bf 6e bb
       -0.016001508 0.0062222746 0.0692946 -0.003643009
000180 39 4b 02 3e b8 89 96 3d 20 8c 08 3c 01 ef 5c 3c
       0.12724008 0.073504865 0.00833419 0.013484717
000190 f7 8e 08 bd f9 6c 82 3d 1d de 83 bd b9 0e bd 3d
       -0.033339467 0.06368441 -0.06438849 0.09231324
0001a0 bd 0e 98 3d 8b b3 a1 3c 00 e7 85 bc e6 ed 0a 3d
       0.07424686 0.019738933 -0.016345501 0.033918284
0001b0 7c e7 16 3d 90 06 83 bd 05 92 83 39 bc fb 18 bd
       0.036841854 -0.06397736 0.0002509506 -0.037349448
0001c0 1b c8 00 bd 9f 2d 82 3d b5 10 4e bc 88 4a fe bd
       -0.031440835 0.06356358 -0.012577225 -0.124165595
0001d0 59 b8 9b bb be 7a 23 be e0 33 8e bc 91 b2 f9 bc
       -0.0047522006 -0.15964791 -0.01735872 -0.030480655
0001e0 b2 c0 c8 3b 5f ee c8 bc a7 fd c5 3d 0c b1 c6 3c
       0.0061264867 -0.024527727 0.09667521 0.024254344
0001f0 a7 b1 0a bd 54 db e3 3b 7f ba ee bb ac 07 be bb
       -0.03386083 0.006953636 -0.0072854157 -0.0057992544
