Chapter10/mtcnn_onnx/r_net.onnx (onnx, 401052 bytes, 11 tensors)

classification.0.weight f4 [1, 128]
00000000: 070a c33e 197f 793e de19 943e 656b 54be
00000010: d931 fd3d 40a5 2bbe b37e 193e 3284 523f
00000020: 9e05 f7bd dad5 4b3e ea31 03be 2aa0 20be
00000030: f108 19be a981 a5be 28df 443e 3961 353f
00000040: a31f d53d 23a8 5cbe a786 f53d 842b 243f
00000050: 2723 1d3e 4c0b 04be 63b8 39be 17c8 c03e
00000060: 4395 343e cab0 973e 26a2 193e 576f 523e
00000070: 4d51 6bbe 03db 283f ab49 31be 22ee 283e
00000080: 2a6c cebd 8b8e 553e b017 88bd 7aeb 4bbe
00000090: 09e6 d6bd a872 183e 001e 143e c2c2 a8bd
000000a0: 1e73 04be 16ae 29be 677c cf3e 7c45 9dbe
000000b0: f1e8 e0bd f827 303e 2b37 31be d17a 25be
000000c0: 8d98 013e 6a88 91bd b2a2 113e 717e 28be
000000d0: 6e95 1fbe 66dc fd3e 9195 1cbe 8312 4c3d
000000e0: 6ef3 41be 0df4 4bbe a803 203f f8c0 8ebe
000000f0: 5a20 acbd 2bb9 903e 7216 06be 1d7b 28be
00000100: d61d 343f 51b2 bdbd 6540 b3be f00a cc3e
00000110: 443d d23d e3f7 31be fc99 0e3e 0eb7 083f
00000120: 898e 37be a39a e4bd 210c 2bbe bf1b a0be
00000130: dc78 3bbe 569e 0fbe ce4a 22be 70d1 ffbd
00000140: ce57 113f fbb2 debd 4d60 8b3e cbf8 13be
00000150: 2da7 5fbe ca2d f43e 1749 13be e8ed 04be
00000160: 8deb 48be cddb 11be 724a 9c3e b913 19be
00000170: bcec 7b3e 1fa4 743e fdf4 77be bbf8 8d3e
00000180: ce30 35be 8f8e 5ebe e315 623d d49f da3e
00000190: f495 7e3e 1ce2 43be da62 b23c 0418 29be
000001a0: 5e69 2ebe 52e6 85be 82a5 633f f148 3abe
000001b0: 3808 40be 6761 b4be 2f09 64bd 7e5d 773e
000001c0: 098e 47be b57e 3c3f 694d 303e eab7 18be
000001d0: d7d1 323e d121 1e3e c4c9 9dbd 626b a2bd
000001e0: f8c3 dd3e 11eb 0a3e 471f f6bd 7686 603e
000001f0: a79d 30be 7297 43be c089 523e 2a90 13be
0.38093588 0.2436489 0.28925985 -0.20744093 0.12363023 -0.16762257 0.14989738 0.82232964
-0.12061618 0.19905797 -0.1281201 -0.15686098 -0.14944817 -0.32325485 0.19225752 0.70851475
0.10406425 -0.21548514 0.119885735 0.641289 0.15345441 -0.12894934 -0.18136744 0.37652656
0.17635064 0.29627067 0.15003261 0.20550285 -0.22980233 0.65959185 -0.17313258 0.1649709
-0.100792244 0.20855157 -0.06645143 -0.19914046 -0.104930945 0.14887488 0.14464569 -0.08240272
-0.12934539 -0.16570315 0.405246 -0.30717075 -0.1098193 0.17202747 -0.17306201 -0.16160132
0.1265585 -0.07106097 0.1422222 -0.16454484 -0.15584347 0.49582213 -0.1529143 0.04982234
-0.18940517 -0.19917317 0.6250558 -0.27881598 -0.08404608 0.28266272 -0.130945 -0.16453214
0.70358026 -0.09262527 -0.35010067 0.39852095 0.10265592 -0.17379718 0.13925928 0.5340432
-0.17925467 -0.11162307 -0.16703846 -0.3127117 -0.18307823 -0.14025244 -0.15848848 -0.12491119
0.56774604 -0.108739816 0.2722191 -0.14450376 -0.21841116 0.47691184 -0.1438335 -0.12981379
-0.19621105 -0.14244004 0.30525547 -0.1494893 0.24602026 0.23890732 -0.2421455 0.2772883
-0.17694399 -0.2173407 0.055196654 0.42700064 0.2486189 -0.19129223 0.021775652 -0.16513067
-0.17032382 -0.26152283 0.8892442 -0.18191887 -0.18753135 -0.35230562 -0.05567282 0.24156758
-0.19487776 0.7363084 0.1721703 -0.14913908 0.1746286 0.15442587 -0.07704499 -0.07930638
0.43313575 0.13566233 -0.120176844 0.21926293 -0.1724764 -0.1910074 0.2056036 -0.14410463

convolution.0.bias f4 [28]
00000000: dedf 2ebd 44dd c9bd ef25 0bbd a864 52be
00000010: 9fda 71be df3c e7bd e0a3 28bd c31b 1fbe
00000020: c5b7 8a3c 1b13 1fbd fb4c 87bd d605 8e3d
00000030: 4b82 29bd c51b fabd 0a7d 933d 94b9 0dbc
00000040: 712c f9bc d904 fbbb 1ec1 29bd e850 69bd
00000050: 65a8 f43d 385e a13b 021f 573d a330 1ebe
00000060: 5a78 1abe 2363 06be aee0 10bd ddfe c0bb
-0.042693965 -0.09856656 -0.033971723 -0.2054621 -0.23618554 -0.11290907 -0.04117191 -0.15537934
0.016933331 -0.03883658 -0.0660648 0.06934707 -0.041384023 -0.12212328 0.07201584 -0.008650202
-0.0304167 -0.00766049 -0.041443937 -0.056961924 0.11946181 0.004924562 0.052519806 -0.15448241
-0.15084973 -0.13123755 -0.03537052 -0.005889757

convolution.0.weight f4 [28, 3, 3, 3]
00000000: c120 8fbe 2c41 80be d203 88bb 15a7 e1bd
00000010: 9fc1 533e 8ded 613d 3aae 923d 97b6 0c3e
00000020: 86f2 4e3e e789 97be e357 00bc 8cb9 5cbe
00000030: aaf2 0dbd 9048 54bc 6eb2 e13d 92fc 003e
00000040: c30d 883e 9112 ae3d 42a5 86be b1b4 31be
00000050: 0a63 123d 66ef a63d c0b8 c1bd aaa1 813d
00000060: bfd6 083e 6690 d43d 5020 223d f3b6 013d
00000070: ca37 253d 3d84 acbd 5e04 8cbe 34d8 913e
00000080: 7c23 07bd 6d1f a0bd 31a0 813e 6912 f0bd
00000090: 546b dcbd be61 033e ad6f ec3c b52b 42be
000000a0: 71f8 a73e baec 4fbe fde8 943d ffaa 3e3e
000000b0: 2df2 79be 3fe7 9ebd 2c16 d33d 3995 8fbc
000000c0: de3b 86bd eeda fe3d a3e4 79be 0b8c f5bc
000000d0: 7745 513e 4db5 2bbe b51e 9e3d b219 953c
000000e0: 4e58 9ebe d08c 013e ed10 c63d 2c37 4bbe
000000f0: 6c50 8a3d c11f 0f3e 42f0 febb e58d 863e
00000100: e2ce 77be 1568 6fbe 4883 653e 1354 7d3d
00000110: beca 88be 3e3c 173e e6be 533e e22b a9bc
00000120: 697e 883d 0722 2cbe 1823 8dbd 38f4 e3ba
00000130: be1b 8dbd 19d4 943d 8d36 dd3d 7fda 5c3d
00000140: 1fcf 19be 8516 ccbd d896 4bbe f175 3f3d
00000150: e5d6 a4bd 1878 90be a2cd 0abe 4155 1abe
00000160: 58be 4abe 1a31 c03d ba70 5d3e 7321 ef3d
00000170: e28c 9a3e 194b 9dbd 9540 20be 57fe a0bd
00000180: 02c8 383e 2297 94bd 23bb 833c 1900 3abd
00000190: 9fe1 67be 63ec a4bd cdeb 963d 6147 59bd
000001a0: da58 4e3c e765 623c c034 483d 6446 42bd
000001b0: c9bb bc3d a947 913d f3f5 883d 7940 8b3c
000001c0: cc91 193e 1d31 f13d b47b 1d3e d3ef 013c
000001d0: 3c2d 4b3d 90b5 d23c 883f 8abe 9571 f9bd
000001e0: 8bbf c4bd 46ad eebd 1c87 f7bd 091e b1bd
000001f0: 647c b6bd b097 febd c5db 713e c17f 00be
00000200: bdc1 eb3c eafb 08be 9a68 5abd 9785 0c3e
00000210: 7e07 56be 1068 403e ecc8 7dbd fac2 9e3d
00000220: d8a9 9e3c 1b31 273e b61d 62bd aa73 4a3e
00000230: ee08 a53d 8d28 c8bd a2da b0bd 36e1 cabd
00000240: 024a acbc fae2 7f3e 5a96 0d3e 43be 85bd
00000250: 8364 773d d1eb 333e d9c6 65be d453 abbe
00000260: 5620 44bc 5bac 1d3e 16b7 e23c 19f8 2abd
00000270: 0b76 7f3d bd75 d23d 244d 373e 2a15 86be
00000280: 771b 05be 197b e2bd f992 2bbc 2cbc 453c
00000290: dfde e13d 5766 f33d 929d bd3e 60a5 ff3d
000002a0: ab95 23bd a3a0 9dbe e43c bfbe 4367 f7bd
000002b0: c4ec 77bb e21f 94bd 1b34 4a3e dffe a93e
000002c0: f331 513e 3667 e5bd 972c 75be acc6 81be
000002d0: 0735 33be e48c f4bd 407d 3cbc a27b b13d
000002e0: fe60 5d3e 6010 163e 0626 fd3d 730a febc
000002f0: af5e 4bbe f33a 42be a12e 50be d067 a5bd
00000300: d6e6 1b3e 2b95 eb3d df53 28be d9d4 e7bc
00000310: 6411 8d3c 3f72 8dbd 0ef6 32be c42a 383e
00000320: 45ab 0d3e 1954 b63d a238 cebd 7c48 b83d
00000330: 877d c0bd d52c b13d f91f 803d c7e2 06be
00000340: cb1e 203d e3be d8bd 8cb5 353e bea1 423d
00000350: f65a 7b3d 4636 42bd e0ac aebc db6d c53d
00000360: b5c0 bf3c 23d7 60be a798 5ebd d5c5 0dbe
00000370: 0386 d3bd 8812 863d e217 38be 87f7 c3bd
00000380: 79e2 40bc b863 8f3d 9750 4c3e 0063 db3d
00000390: 7006 233e 13b7 cd3d 9926 5e3e 694c 713e
000003a0: 1864 943e b56d d03d 52f7 ddbd 8850 14be
000003b0: ce55 763d 83aa 5f3d 0c45 99be 220e 17be
000003c0: fb5b e8bc a396 263d 77b7 62be 0d23 b73d
000003d0: 636d 653e cf53 85be 7821 15be 50fb 38bd
000003e0: 64b1 f23d 7a9a 32bd 9d60 1f3e 125d 8d3d
000003f0: b3ee c5bd d303 1b3e be42 c8bc f633 81bd
-0.27954677 -0.25049722 -0.004150846 -0.110181965 0.2067933 0.055158187 0.07162137 0.13741527
0.20209703 -0.295974 -0.007833454 -0.21555156 -0.03465525 -0.012956753 0.11020361 0.12596348
0.26573 0.08499635 -0.26297957 -0.17354085 0.035738982 0.081511304 -0.094590664 0.06329663
0.13363169 0.10379104 0.039581597 0.031668615 0.040336408 -0.0842366 -0.27347082 0.28485262
-0.032992825 -0.07818494 0.2531753 -0.117222615 -0.10762659 0.12830254 0.028861845 -0.18961985
0.32806733 -0.20305148 0.072710015 0.18619917 -0.24408789 -0.077589504 0.10306963 -0.01752721
-0.065543875 0.12444101 -0.24403624 -0.029974004 0.20436655 -0.1676838 0.07720701 0.018200729
-0.30926746 0.12651372 0.09671197 -0.19845265 0.067536205 0.13976957 -0.007780106 0.26280132
-0.24200013 -0.23379548 0.22413361 0.061847758 -0.2671718 0.14769074 0.2067829 -0.020650808
0.06664736 -0.16809855 -0.06891459 -0.0017391508 -0.06890057 0.07267017 0.1080142 0.05391931
-0.15020417 -0.09965233 -0.19881761 0.046743337 -0.080488004 -0.28216624 -0.13555005 -0.15071584
-0.19799173 0.093843654 0.21625033 0.11676302 0.3018561 -0.07680339 -0.15649636 -0.078610115
0.18045047 -0.07255389 0.016080445 -0.04541025 -0.22644661 -0.080529 0.07369194 -0.053046588
0.012594426 0.013818241 0.04887843 -0.04743041 0.09215505 0.07093746 0.06687536 0.016998516
0.14997023 0.11776946 0.1537922 0.007930714 0.049603686 0.025721341 -0.27001595 -0.12179867
-0.096068464 -0.11654143 -0.12086317 -0.08648307 -0.089104444 -0.12431276 0.23618992 -0.12548734
0.028778905 -0.13377348 -0.053322412 0.13722835 -0.20901296 0.18789697 -0.061959192 0.077520326
0.019368097 0.16327326 -0.055204116 0.19770685 0.08058344 -0.097733594 -0.08635451 -0.09906237
-0.021031383 0.24988928 0.13826886 -0.0653043 0.06039859 0.17570426 -0.22439136 -0.33462393
-0.0119706 0.1539778 0.027675193 -0.04174051 0.062368434 0.10276363 0.1790052 -0.26188022
-0.12998758 -0.11058635 -0.010472053 0.012068789 0.110288374 0.11884754 0.3703428 0.12482715
-0.039937656 -0.3078662 -0.37351143 -0.120802425 -0.0037830332 -0.07232644 0.19746439 0.33202264
0.2042921 -0.112013265 -0.23942791 -0.25346887 -0.17500697 -0.11940935 -0.011504471 0.08666159
0.21619031 0.14654684 0.12360768 -0.031010842 -0.19860338 -0.189678 -0.20330288 -0.08076441
0.15224776 0.11503061 -0.16438244 -0.028299736 0.017220207 -0.06906556 -0.17476675 0.17985064
0.13834865 0.08902759 -0.100693956 0.089982 -0.093989424 0.08651129 0.06256098 -0.13172446
0.039091866 -0.10583284 0.17745036 0.04751753 0.061366044 -0.04741504 -0.021322668 0.09640094
0.02340732 -0.21957068 -0.0543448 -0.13844998 -0.10328295 0.06546503 -0.1797786 -0.095686965
-0.011772745 0.07001442 0.19952618 0.10712242 0.15920424 0.10044684 0.21694411 0.23564304
0.28982615 0.10177175 -0.10838188 -0.14483845 0.060140423 0.054605972 -0.2993549 -0.14751485
-0.028364172 0.040671002 -0.22140299 0.08942232 0.22405009 -0.26040503 -0.14563549 -0.045161545
0.11850241 -0.04360435 0.15564199 0.069025174 -0.09664669 0.15138178 -0.024445888 -0.06308739

convolution.3.bias f4 [48]
00000000: 931c 8abd 5a64 20bd 3697 58bc 7bec a4bc
00000010: 8dda 84bb 3d26 50bd a7c9 79bd 3d54 f73b
00000020: 8ccf a4bd a1b2 c8bd 08e5 1cbb 11cb 81bb
00000030: a879 73bd 1a44 56bd dd5d 8bbc 33c4 89bd
00000040: 1def 973c 6f86 f3bd 0e7f b5bc 4822 31bc
00000050: c050 493d 2060 2ebd 4fbc e0bb 168e eabc
00000060: 2144 ab3d 7b69 b0bd 8349 05bc 5123 313d
00000070: ad51 bbbd 76b7 05bd 7378 35bd 48ea 13bd
00000080: 42e8 0b3d 6c4e d1bc 1fb5 4ebd 6212 143b
00000090: 062d e5bc 9344 aa3b 8778 2fbd 98d9 00bc
000000a0: f10e 95bc 85f2 1bbe 916d fbbc 3110 feba
000000b0: 9a54 5cbd 3703 333d 655b 9d3d 4138 2d3d
-0.06743731 -0.039158203 -0.013219645 -0.020132294 -0.0040543736 -0.050817717 -0.060983326 0.007547884
-0.08047399 -0.09799696 -0.0023940224 -0.003960975 -0.059442192 -0.05231104 -0.017012531 -0.06726875
0.018546635 -0.118908755 -0.022155311 -0.010811396 0.049149275 -0.04257214 -0.0068583856 -0.028632205
0.08362604 -0.08613869 -0.008135202 0.04324657 -0.09146438 -0.032645665 -0.044304322 -0.0361121
0.034157045 -0.02555009 -0.0504657 0.0022593965 -0.02797557 0.005196163 -0.042839553 -0.007864378
-0.018195601 -0.15229233 -0.030691894 -0.0019383488 -0.05379162 0.043704238 0.07683448 0.042289976

convolution.3.weight f4 [48, 28, 3, 3]
00000000: 6b9b 183e 4513 6c3e 8a54 423e 9839 dd3d
00000010: 8308 3a3e ced6 cf3c 3b09 943d 8e2c 283e
00000020: 5fa6 543d db71 d0bd 96e8 cfbd 0da3 19be
00000030: 74e7 3b3d e90f 413c ff7b d0bc 9dde 2abc
00000040: cd8d 0dbd 7782 923d 04b4 a1bd d8e3 5dbe
00000050: c5af 0abe 7eba a0bd e9ee 83be aaba 29be
00000060: 9f9d 113d 4f2c dfbd 7b04 e6bd 8347 c23d
00000070: 5f20 8c3d 5eba 583c 6edf be3d d091 09bd
00000080: 1e23 04bc f67f af3c 44bc d8bd f5bc 19bd
00000090: 1ef2 82bd 1e47 303d 8a8f 24bb 2921 cf3d
000000a0: b5bc 2a3e a9df b63d 5a60 133e 09e9 9b3d
000000b0: 2dc6 633c a0cf 69bd 34d0 b4bd a121 bbbd
000000c0: abc4 5ebe 8842 06be 4546 963b 0810 bebe
000000d0: de1e 0bbe 14a4 9abd 4f44 be3d 0017 903d
000000e0: d53b 8e3c 8ccd a33d f1e5 1cbb c08a 49bd
000000f0: 6eb2 0f3c 8339 13bd b375 8ebc 4092 fe3d
00000100: 246d 3e3d 275b 973a 9551 0f3e 5a83 2c3c
00000110: fb58 92bd 319c 4b3c cbca 823d 3058 0fbc
00000120: e538 b33d 3117 f23d fa1d c73c 375a 6ebd
00000130: 58c0 8cbd ae41 85bd 8704 fdbc 749d 91bc
00000140: df4b 143c a6c8 8ebd 712f 2fbe 484b e3bd
00000150: 75e9 abbc c050 9cbd 8682 893d 06e1 383d
00000160: e86a 003d 37f0 a8bc 34b3 c13d 18e0 183d
00000170: 32a2 563d 17bc acbc 7f03 dc3b fb9d f6bd
00000180: 54db 95bd 646f 96bd 857e fcbc f2e0 3d3c
00000190: fff9 ad3c 2b41 5d3c 6b63 6c3a 759b d13d
000001a0: d819 cc3d e119 01bc 4511 adbc dce1 4c3b
000001b0: 033b f13d f4fe 173e b2e1 9c3d aab3 143e
000001c0: 726d 673d 112d 1a3d 39be 9dbd 3db6 debd
000001d0: a054 dabd 7881 aebd 56ff c3bd e8ce 1abd
000001e0: c12e e5bd cd66 efbd a57b debd d03a fcbd
000001f0: 0d33 19be e25b ffbd 6f1f 7fb9 ba56 c3bc
00000200: 58ab 6cbd fa02 a0bc 6f1d cc3d d8bf d4bc
00000210: da4c 093d 9bd0 4abd 06a0 f4bd 719c 1d3e
00000220: b1ec 383d 6634 8dbb 1297 083e 1a02 fc3d
00000230: 7d7a bf3c 90e1 1c3e 99e9 173e cc53 eb3c
00000240: cc04 c03c 7749 8c3c 77e5 313e c840 9c3c
00000250: 3d80 133c c184 6e3d 49bc 82bd 052b ce3c
00000260: 2eb0 2bbd b659 693e 093a 1c3e e6d1 39bc
00000270: 4bdd 2f3d 30d9 bf3d 241f 3dbd b55b 143d
00000280: 0b2a 123d 073a eebd 1da1 223d f9f0 b6bd
00000290: 517c 48be 8095 803d 5b2f 953d 9287 3cbe
000002a0: cc87 873d 183c 233e 51a1 21be 2101 4bbe
000002b0: a5c2 9bbe accf 01be e126 8bbe fd0a 81be
000002c0: f4ca 38be c87b 65be e37f 56be 81a2 12be
000002d0: cb48 5b3d d177 c13d a272 043d 13af 50bd
000002e0: 4c11 ffbc 0374 aabd 7465 683c 5a8b 98bd
000002f0: 64fb 25be 9f3e a53d 0304 3b3d f48c bfbc
00000300: df62 913c a0f0 4abc 1ff1 fcbd 77b1 893c
00000310: 65f6 663d 13fa d53c 5651 0ebe 47c0 32bc
00000320: 8f4e 80bc 65ee fdbd 194c 7fbd 7088 b3bd
00000330: 5b0a fabd b903 10be b4cc f8bd 1287 dbbd
00000340: 500d 5ebd c065 ac3c b52e 0bbe bce4 26be
00000350: ed1b 51bc 1079 253d 289c 15bd bf57 27bd
00000360: 591b ad3d fdfd 803d d5f7 123e fe8c eb3d
00000370: 3eb1 b9bc d122 c2bc 41a1 1fbc 0429 a7bd
00000380: 55b1 96bc 7475 a8bd 38fb b1bd b0c2 f0bd
00000390: b2e1 28bd ef8e b93b 931d 343e ee17 dc3c
000003a0: 1fe2 75bd da96 063e 391f c8bd 0fa0 b93c
000003b0: bdca 153e 2e4e b5bd 4ef1 9b3a bf05 e4bd
000003c0: 8add 11be 54cf 84bd a500 76bd eb2f 343e
000003d0: e1e0 f93d b8da 4d3d 8b90 b43d 8df3 813d
000003e0: 8c72 09bd aca4 09bd 58c9 2f3d 7ec8 4d3c
000003f0: d31a dabd 0877 063e e544 0b3e 62e0 0fbe
0.14903037 0.23054226 0.18977562 0.10802001 0.1816731 0.025370982 0.07228323 0.16423246
0.051916476 -0.10177966 -0.10151784 -0.15003605 0.045875028 0.011783578 -0.025449751 -0.010429052
-0.03455906 0.071537904 -0.078956634 -0.21668947 -0.13543613 -0.078480706 -0.2576821 -0.16575113
0.03555071 -0.10897123 -0.11231323 0.09486296 0.06842112 0.013228027 0.093199596 -0.033586323
-0.008065013 0.021423321 -0.10582784 -0.03753372 -0.063938364 0.043036573 -0.002510997 0.10113747
0.16673549 0.089293785 0.14392224 0.07612807 0.013902229 -0.057082772 -0.08828774 -0.091372736
-0.2175471 -0.13111317 0.0045860135 -0.37121606 -0.13585994 -0.07550827 0.092903726 0.07035637
0.017362515 0.07998189 -0.0023940767 -0.049204588 0.008770568 -0.03594352 -0.017390108 0.12430239
0.046490803 0.0011547551 0.13995965 0.0105293635 -0.07145878 0.012427376 0.06386336 -0.008749053
0.08751086 0.1182083 0.024306286 -0.058191504 -0.06872624 -0.06506668 -0.030885948 -0.017775275
0.009051292 -0.069718644 -0.17107941 -0.11098343 -0.020985344 -0.07632589 0.067143485 0.045136474
0.031351954 -0.020622356 0.094580084 0.037323087 0.052400775 -0.021085782 0.006714284 -0.12041851
-0.07317224 -0.07345465 -0.030822048 0.011589276 0.021237371 0.013504307 0.00090175 0.10234729
0.09965867 -0.007879705 -0.021126399 0.0031262552 0.11778834 0.1484335 0.076602355 0.14521661
0.05650086 0.037640635 -0.07702298 -0.10874603 -0.10660672 -0.08520788 -0.09570186 -0.037794977
-0.11190558 -0.116895296 -0.10863427 -0.12315905 -0.1496088 -0.12468697 -0.00024330405 -0.023845065
-0.057780594 -0.01953267 0.099665515 -0.025970384 0.033520557 -0.049515348 -0.119445845 0.15391709
0.0451476 -0.004309225 0.13338879 0.12305088 0.023373837 0.1532042 0.14835204 0.02872648
0.023439787 0.017124875 0.1737269 0.019073859 0.009002742 0.058232073 -0.06383569 0.025166998
-0.041916065 0.22788128 0.15256514 -0.011341548 0.04293565 0.09367597 -0.046172276 0.03622027
0.035684627 -0.116321616 0.03970443 -0.08932681 -0.19578673 0.06278515 0.07284423 -0.18411091
0.06617698 0.15940893 -0.15784194 -0.1982465 -0.3042194 -0.12676877 -0.271781 -0.25203696
-0.1804617 -0.224105 -0.20947222 -0.14319803 0.053536218 0.09446681 0.032335885 -0.050948214
-0.031136177 -0.08322909 0.014184345 -0.07448454 -0.16209179 0.08068585 0.045658123 -0.023382641
0.01774734 -0.012386471 -0.12350678 0.016808255 0.056387324 0.026120221 -0.13898215 -0.0109101
-0.01566246 -0.12398986 -0.06232843 -0.08766258 -0.122090064 -0.1406392 -0.12148419 -0.10719122
-0.054211915 0.021044612 -0.13592036 -0.16298193 -0.012763006 0.040398657 -0.036525875 -0.040855166
0.08452482 0.062984444 0.14352353 0.115015015 -0.022667523 -0.023698242 -0.009743036 -0.0816212
-0.018395105 -0.082255274 -0.08690494 -0.11755884 -0.041230865 0.005662791 0.17589407 0.02686688
-0.0600301 0.13143483 -0.0977158 0.02265933 0.1462812 -0.08852802 0.0011897476 -0.111339085
-0.14244667 -0.06484857 -0.06005921 0.17596404 0.12201095 0.050257415 0.08816632 0.06345282
-0.033556506 -0.03360431 0.042916626 0.012560008 -0.106496476 0.13131344 0.136005 -0.14050439

convolution.6.bias f4 [64]
00000000: 8ccc 28bc 8a4a af3d 144b a1bd f8d9 74bc
00000010: eeb9 563e 3e44 5bbd 2299 a13d a2e9 503d
00000020: 5dde 0cbd 2330 ad3d cf6e 313d f7bc 2d3d
00000030: c087 2bbc d327 8b3d 91ca cabd 30ef 543e
00000040: 6a73 e33d 4266 e1bd a219 cebd ca8b 48bd
00000050: f181 aebd d55d d23d b2a1 5cbd 882f bf3d
00000060: d71b 883d a1f4 dfbb d2ab 083e 9cc2 b1bd
00000070: 1d8a 213e 94f9 f83c fc4b 8e3d 13fe b1bd
00000080: ebba 51bd 9663 93bd d1a2 29bd dd18 943d
00000090: 3ed8 b9bd 39a7 d73c 4dfa 063d 5def 053e
000000a0: 5dc3 8ebd dedb 233d c7cf 363e 5a60 9d3d
000000b0: b376 b7bd f6e1 67bc 0fd7 1b3e 8cf4 373d
000000c0: 5507 013e a3d1 1d3d 37fc ff3d 659d a0bd
000000d0: b28a 6abc 860d 16be c13e efbd 2cc8 b43d
000000e0: bdef bfbd be50 d53d 2ba8 2abe a8ca f5bd
000000f0: 367d 013d 70e4 7a3d a519 f13d 58dc 6a3d
-0.010302674 0.08559139 -0.07875648 -0.014944546 0.20969364 -0.053531878 0.07890536 0.05100406
-0.03439175 0.08456447 0.043318566 0.04241654 -0.010469377 0.06794705 -0.09901918 0.20794368
0.11105998 -0.11005832 -0.10063483 -0.04896144 -0.08520878 0.10271803 -0.053865142 0.09335238
0.06645935 -0.006834582 0.13346794 -0.08679697 0.15775342 0.030392446 0.069480866 -0.08691039
-0.05120365 -0.07196729 -0.04141504 0.07231305 -0.09074448 0.026324855 0.03295355 0.13079591
-0.06970856 0.040004604 0.17852698 0.07684393 -0.08958187 -0.014152994 0.15218757 0.044910952
0.12600453 0.038530003 0.12499278 -0.078425206 -0.014315294 -0.14653596 -0.11681891 0.08827242
-0.09371898 0.10415791 -0.16665713 -0.12001544 0.03161355 0.06125301 0.117724694 0.057339042

convolution.6.weight f4 [64, 48, 2, 2]
00000000: f990 75bd 8a82 fe3c ba74 4ebc 08b7 213e
00000010: 6788 9c3d 9c81 d1bc 21fe ec3c 0ce3 453b
00000020: 48dc 443d b65b 0d3e e817 6dbe 5efa 18be
00000030: 82b8 c3bd fd4e 5c3c 75a3 48bd efa5 b7bd
00000040: c2f6 3a3d a61e ca3d 106f a83e bbab 563e
00000050: 93ee 94bd bbba 6f3d 118b 05bd cd17 b13c
00000060: 4595 00bd 0d79 a83d 0b15 9f3c 13d0 a2bd
00000070: 322e ae3d 6fd1 babb 6265 c03d 8218 f63d
00000080: a0c5 6c3d d774 193d 5de4 9cbd c1cf b7bd
00000090: 6172 00be f6f4 e6bc cba1 6dbe 9ace bbbd
000000a0: 5de5 023e fef3 b9bb cd6a a2bd facc 923d
000000b0: 71c9 d83d 4164 9f3d 6fc4 2a3c 26e1 0d3d
000000c0: 4209 56bd b74f db3c 4a37 bebd 40ae db3b
000000d0: 7b1a ce39 a791 713d 98f2 12be 18f0 55bd
000000e0: 5f14 79bc 6013 6bbc 3c12 debc 05ed c5bb
000000f0: 271c 6bbb 389a 603c 2406 e3bc d23d 9bbd
00000100: cd36 073e 53d6 7fbd 3175 1ebe cefa eebd
00000110: 09a4 98bc e784 873d 315f c2bd 6017 91bc
00000120: 4f42 0c3c 3791 f53b b277 bcbd efcc 75bd
00000130: 5aa0 67bd e277 ca3b f29e 81be 0e04 44be
00000140: d2c9 a83d 906a 65bc 93ec 233e 6b87 1c3e
00000150: a780 723b 1fa1 123d 5509 a4bc 094d b63b
00000160: b02a 843d 29ef a3bd 28ff d3bd ea85 fdbd
00000170: 7698 d0bb 7680 adbd e5b6 21bd 78a6 04be
00000180: 8c27 683d 09e2 9a3d f669 4e3d 8d0b 253e
00000190: 284a 513d 4778 873d 16fe 5a3a 786a 4cbb
000001a0: 0bcc 093d 7800 ae3d a809 adbd 79c9 cfbc
000001b0: fe8f 163c fc66 90bd 976c 6a3e c27f 3f3e
000001c0: 7a3d 0b3d 7362 8a3d abd1 fabd d6fa 03be
000001d0: e96a 4d3d ad83 db3d f7b5 4f3d 9f9a 31bd
000001e0: d34d 85bc cdf8 bd3d 56b2 c23d 6fdf c9bd
000001f0: 324a 113d 8931 073d d526 40be 3a57 0ebd
00000200: 7bbc 143e c638 363d 30fd 073d d227 7c3c
00000210: 71bf 74bd 20b0 4a3c 29f9 a03c e264 763d
00000220: f9ed 213d a46b 61bb a596 993d 43a3 313d
00000230: 6177 a03c 4850 aa3c 8f46 a23c c8e9 1c3d
00000240: 00f0 fa3d a5ab 2a3e e71c 05bc bf5f 9f3c
00000250: 488a 593d 033a 4f3d 0fae 51bc 2d79 bd3b
00000260: 9c6d cf3b 0b87 af3c 8fc5 643d a76d aa3c
00000270: f677 c03d fd73 9a3b c26d efbc 3086 93bc
00000280: fd49 853d d166 bf3d 99f3 35bd e68d e6bb
00000290: 83d3 94bb 3d5e aa3d 1d8f 22bd 23f8 aabd
000002a0: 4ade b63c 813b 9d3d 95e7 8cbd 005f 42bc
000002b0: 836a c2bc ef90 72bd a70e 89bd f276 aabd
000002c0: 8eed 8b3d 4f09 ffbb 3db0 5abe 6d7f 5bbd
000002d0: d553 cc3d aa3d ba3d 45eb 583e 9b15 253e
000002e0: 8e0e d7bb e0c3 14bd 4598 013e 186d 5a3e
000002f0: f552 293d b8bb 3dbd 49af a939 6875 533e
00000300: 3c18 af3e cbac f93d c051 0f3e 581a e8bc
00000310: c1b9 5bbe a609 e9bd cfdb 86be d87c 003e
00000320: 015f 11bc 4e36 ce3d f4fa d53c 1a20 9f3d
00000330: 0fb3 da3d 7dbf 1cbc 1e28 d93d 1c3b 3abe
00000340: c565 8b3d 71f7 aa3d a06c 573d c616 7e3d
00000350: d70b 94bd 5078 a53d a288 1b3e cb08 28bd
00000360: 9ecb 203c 7494 673d d44f cebd 89ad 52bd
00000370: c36e 3ebe 433c a7bd eb55 3ebd ac54 b03d
00000380: cf0d 37bd c271 9e3d 8289 4bbd 1903 b03b
00000390: 3ee8 8ebe 5938 ec3d 4612 09be 08d7 233e
000003a0: 367f b23d 200f 82bd 204f d13d fc48 3fbd
000003b0: 3a53 ddbd 7e68 9d3d e0e9 7dbe ed5f eabd
000003c0: d39b b6bd 3e3e 47bd 94be 0cbe 2c4b 113c
000003d0: bc0d 84bd a211 04bc ce76 a43d bcf3 c53c
000003e0: 9eda 2f3d 20a8 04bc fd30 ac3c b50c 03bc
000003f0: b0d9 3cbe 49cf adbd 1b17 09be 7bf0 e4bd
-0.05995271 0.031068105 -0.012601072 0.15792477 0.07643204 -0.025574498 0.028929772 0.0030195145
0.04806164 0.13804516 -0.23153651 -0.14939258 -0.095566764 0.013446567 -0.04898401 -0.08967196
0.045645483 0.09869127 0.32897234 0.20963947 -0.07272067 0.05852769 -0.032603327 0.021617794
-0.031392355 0.082262136 0.019419214 -0.07949843 0.08504905 -0.005701236 0.09394337 0.12016393
0.057805657 0.037464943 -0.07660744 -0.08975173 -0.12543632 -0.028192978 -0.2320625 -0.091702655
0.12782808 -0.005674838 -0.07930527 0.071680024 0.10585297 0.07782794 0.01042281 0.034638546
-0.052254923 0.02677141 -0.09287889 0.006704122 0.0003931111 0.058976796 -0.14350355 -0.052230924
-0.015202611 -0.014347881 -0.027108304 -0.006040218 -0.0035874934 0.013708644 -0.027712889 -0.07580151
0.13204499 -0.062460255 -0.15474392 -0.11668931 -0.018632906 0.06617146 -0.094908126 -0.017711341
0.008560731 0.0074941176 -0.092025176 -0.060009893 -0.056549408 0.006178842 -0.25316578 -0.19142172
0.08241619 -0.014002457 0.16008215 0.15286033 0.0037002952 0.03579819 -0.020023981 0.0055633825
0.064534545 -0.080046006 -0.103514016 -0.12379058 -0.006365831 -0.084717676 -0.039481062 -0.12954128
0.05667834 0.07562644 0.05039402 0.16117688 0.05109611 0.06614738 0.0008353902 -0.003119139
0.033641856 0.08496183 -0.084491074 -0.025364624 0.009189604 -0.07050893 0.22892986 0.1870108
0.033994175 0.06757059 -0.12247022 -0.12888655 0.050150786 0.107184745 0.050710645 -0.04336035
-0.016272461 0.092759706 0.09506671 -0.0985707 0.03547115 0.033006225 -0.18764813 -0.034751154
0.14525025 0.044487737 0.033200443 0.015390353 -0.059752885 0.012371093 0.019650059 0.060154803
0.03953359 -0.0034396434 0.07499436 0.04336859 0.019588174 0.020790234 0.019809036 0.03830889
0.122528076 0.1666704 -0.008124567 0.019454835 0.05311039 0.050592434 -0.012797846 0.0057822675
0.006330205 0.021426698 0.05585247 0.02080424 0.09397881 0.004713534 -0.029227141 -0.018008322
0.06508253 0.093457825 -0.044421766 -0.0070359586 -0.0045418157 0.08318756 -0.039687265 -0.083481096
0.022322793 0.07677365 -0.06880108 -0.01186347 -0.02373243 -0.05922025 -0.06692248 -0.08323468
0.06832419 -0.007783092 -0.21356292 -0.05358832 0.09976927 0.09093793 0.21183498 0.16121523
-0.0065630144 -0.036319613 0.12655742 0.21330678 0.04133888 -0.0463216 0.0003236479 0.20650256
0.34198177 0.12191161 0.13996029 -0.028332874 -0.21457578 -0.113787934 -0.26339576 0.12547624
-0.008872748 0.100689515 0.02612064 0.07769795 0.10678684 -0.009567139 0.10603355 -0.18186611
0.068065204 0.08347977 0.052593827 0.062033437 -0.07228821 0.080795884 0.1518884 -0.04102401
0.009814171 0.05653806 -0.1007382 -0.051435027 -0.1859694 -0.08165791 -0.046468657 0.086099
-0.044690903 0.07736541 -0.049691685 0.005371463 -0.27911562 0.11534185 -0.13385877 0.15999997
0.0871567 -0.06350541 0.1022017 -0.046700463 -0.1080689 0.07685946 -0.24796247 -0.11444078
-0.0891644 -0.048643343 -0.13744575 0.00886802 -0.06447932 -0.008060845 0.08030473 0.024164073
0.0429331 -0.008096725 0.021019453 -0.007998635 -0.18442416 -0.08486802 -0.1338772 -0.111786805

full_connect.0.bias f4 [128]
00000000: d533 6cbd cf8f 7cbd 0073 083d 1332 4a3d
00000010: aa4f 603d 0f84 b73d 247c ac3c f017 b33d
00000020: a6ee 083e 830f 753d 00dc 9dbc 9d1c 2f3d
00000030: 90d1 6f3c f2fa 623d 7566 6e3d ccdd 9ebc
00000040: 7d9f f8bc 481f 613d f045 f33d 497b 033c
00000050: e95c b73d 38ec b03c e817 e43d 8d22 c33c
00000060: 9462 133d 2592 bd3c dcaf 5abd b47a a73c
00000070: f8cf 2dbd 2bb8 4ebd 6616 7d3d e0af 983c
00000080: 93dd a53e 0300 2e3d 6d97 3a3e 4a80 573d
00000090: 69af 033d eae8 cb3d d4dd 7c3d 85bb 473e
000000a0: 063d b73d 9ffb b43d 80da d43d 2bff 673d
000000b0: e085 db3d 7e0c 593d 227b b43d 1560 003e
000000c0: e49a 913d fc8a 0f3e d9b5 9e3d 4b0a 9e3d
000000d0: 8cef b13c dac0 0c3c 84ac ef3c 4377 1d3d
000000e0: 8244 8a3c 803e 2d3d 6576 8a3d a6ba 623d
000000f0: 1692 243e ec74 89bb c660 eabc 95ce 2c3d
00000100: f489 073d 7643 423e b34f 513d b5d3 a73d
00000110: b8aa 89bd 5c2d d53c c915 a13c f6df 883d
00000120: 129f d93d c34e d63c 54aa 2b3d ab96 ef3c
00000130: fcdd 413c ce2e b23d d702 243d 8f2b a13d
00000140: 5be7 9a3d c718 873c 529e ad3d b6f3 ae3d
00000150: 9e24 493c 9fb0 28bc b6a6 573d a260 463d
00000160: a017 bbbc 6b85 5d3d cf70 023b e9c2 113d
00000170: 2013 0abc 49d5 cc3d c5c6 ae3d 0539 1abd
00000180: 04f4 383d 7193 483d 775e 9d3d 571a 0a3d
00000190: 912a f93b 745f ce3d 78ae f53d c9df 383d
000001a0: 3454 003d f018 f83d bc07 fa3d c212 ce3c
000001b0: 6c87 583e 31a7 fc3d 901d e93d 9de4 e6bc
000001c0: 332c bb3d f1c3 b53d 31ee 25bd 9989 aa3d
000001d0: 561c 83bc 5928 a83c b538 933e 4d0a 883e
000001e0: 3211 1e3d 0979 f83d bf6c 773d 4724 8c3c
000001f0: b5fb 6e3d 3179 2c3c 5148 2abd d0f6 a13e
-0.05766662 -0.061660584 0.033312798 0.04936416 0.054763474 0.08960735 0.021055289 0.087448
0.13372287 0.059829246 -0.019269943 0.042751897 0.014637366 0.0554151 0.05820318 -0.01939287
-0.030349487 0.054961473 0.11878574 0.008024999 0.08953268 0.021597013 0.11137372 0.023820186
0.035982683 0.023140976 -0.05339037 0.020444252 -0.042434663 -0.050468605 0.06178894 0.018638551
0.3239561 0.04248048 0.18221827 0.05261258 0.032149706 0.09956534 0.06173499 0.19505127
0.08947186 0.088370554 0.10393238 0.05663983 0.10718894 0.05299043 0.08812548 0.12536652
0.07109621 0.14017862 0.077495284 0.07716807 0.02172067 0.008590901 0.029257067 0.038443815
0.01687837 0.042295933 0.06760863 0.055353783 0.16071352 -0.0041948464 -0.028610598 0.0421892
0.033090547 0.18971047 0.051101398 0.08194677 -0.06722015 0.026022606 0.019663708 0.06683342
0.106260434 0.026160603 0.041910484 0.029246649 0.01183271 0.087003335 0.04004177 0.07869636
0.07563659 0.016491307 0.08477463 0.08542578 0.012276797 -0.010296016 0.052649222 0.048432
-0.022838414 0.054082315 0.0019903665 0.03558627 -0.008427411 0.100016184 0.08534006 -0.037652034
0.045154586 0.048968736 0.07684033 0.033716526 0.0076039513 0.100768 0.11996168 0.045135293
0.031330302 0.121141315 0.122085065 0.025155429 0.2114541 0.12336577 0.11382592 -0.028185183
0.0913929 0.088752635 -0.04051036 0.08327026 -0.016004723 0.020527052 0.28754202 0.2657036
0.038590617 0.121324606 0.060406443 0.017107142 0.058345515 0.010526941 -0.041572873 0.31633615

full_connect.0.weight f4 [128, 576]
00000000: e1ee 49bc 7e72 7cbd ec10 133d 2d3e ba3c
00000010: feb3 493d 5067 943d 9927 b6bd 733a 553d
00000020: 51d5 0c3e 8122 99bd e094 0fbe 8e1f 59bc
00000030: 00b1 0ebe 9c5b 11be 1b33 b7bc 6fe8 d53d
00000040: 0a26 013e 9f85 143e 2156 ed3d 4ff5 cb3c
00000050: ea68 933d caeb 763d d23b 853d 37f2 453d
00000060: 8a52 383d 1eb6 a53c 1544 8dbd 20fd 333d
00000070: 19ce 213c 9479 773d 915d ab3c ead3 833d
00000080: 25ef 90bd 9d67 98bc 7d60 e73c a19c bcbc
00000090: 7598 843c 89d4 c23d b5ee 213d 2c40 2bbe
000000a0: 7b99 893d 5d4c 6b3d f12c c1be 0529 63bd
000000b0: facf b5bd 3218 1ebe e76c 2fbc 1e9f d8bd
000000c0: 1ee6 853c 920a 943d b3ff 613c c980 213d
000000d0: b3f6 433d a384 d3bc 3d10 5bbe b944 1dbe
000000e0: 1cdf 11be c321 b0bd f9bb 00bd d0c6 24bd
000000f0: a459 e93d de85 d33d 68cb 2a3d 1093 3cbd
00000100: dc69 723d 5272 ad3d 9cab 9abd afa8 dc3d
00000110: f114 27bc f714 8a3c 485a 7b3d cab7 45bc
00000120: b5fb ee3b 101f 7abb 10ea 0c3e 2e49 b6bc
00000130: 6fcc 9c3d a55c cf3d 579d ce3d e0da 003e
00000140: 41be 803e fc0c ba3d d518 6b3d f7f0 e03d
00000150: c41e d7ba a2fc 383d ee7f d43d 1667 8f3b
00000160: 3658 0e3c d2e7 fc3b 099e 023d 3e9a c93d
00000170: 6d26 bebd baee 643e 3a79 dcbc 2f9e 4dbe
00000180: eefb f2bd 5a1e 08bd 58cc 0bbe b22e 4bbd
00000190: 7dcf 84bd 8dc1 a9bc 941c 073e e55a 9f3d
000001a0: b19b 7c3d c106 8a3d b3e5 c73d 619f 373e
000001b0: 82b1 11be 655d 29be 57b1 b73c 9928 77bd
000001c0: f5e8 dabd 1689 a03c 0496 c6bc 0d3e 953c
000001d0: 4aca 003e 0205 20be fcf9 f9bd a9cc 923d
000001e0: 80a5 d5bd 7333 9c3d 3756 ec3d e87a c33d
000001f0: d559 193e 3e3a 993d a485 5cbd 859a 88bd
00000200: 7d45 f33c 2c5b bfbd da7a 2dbd 12f4 653d
00000210: 2c3f a6bc aea1 dbbd 6fde 913c a545 77be
00000220: 7c87 663d f054 25bd e6ce 00be efa2 e53c
00000230: ea7a 6abd a9df 783d bd2d a73d ee86 be3c
00000240: a135 f03c 6c53 2fbd bd25 cabd a0f9 ccba
00000250: 8291 3dbd a4e0 ca3c 2557 34b9 71d3 6ebc
00000260: de2a a13d 2d06 2d3b c6f2 d6ba 3fc5 0ebd
00000270: 0132 13bc d8cd a0bb e6d5 ebbc 3dfc 993d
00000280: 870f e43c b072 63bd fd73 133c 510e 70bd
00000290: 1a1e b33c 4a83 1bbe 4a80 12bd cc0f 3ebb
000002a0: 1ebf 9fbc 794a 193d 8a85 21bd 744c cc3c
000002b0: bd28 8cbc 8c83 79bd b0c5 eebb 9849 4e3d
000002c0: 5c45 a73c 7483 99bd fd8a 653d dc26 10bd
000002d0: 6049 03bd 3526 febb 0244 1abd 0069 8b3d
000002e0: 3b2a 1bbc cf4d 91bc 004c 223d 4446 42bd
000002f0: dfaf a1bb 6152 38be 7322 d7bd fe93 97be
00000300: b139 363d 9c67 e0bc ae44 14be f4f2 1d3e
00000310: 87c6 ea3d a32c 29bd 0987 e5bd f643 d8bd
00000320: dc8d 54bd f85b 4a3d 27e2 35bd c175 b43c
00000330: cf7f c43d cd46 5a3d de23 1cbd f950 873d
00000340: 0141 b8bc 0ba0 1ebd 3391 e339 0a39 86bb
00000350: 2686 0dbe ecb3 06bc 2a9f cc3c 1e4e 02bd
00000360: b7bc c4bd 4621 b0bc ec90 84bd 9093 5e3c
00000370: d8a2 043a 703a e4bb eb14 363e 2f5e 383e
00000380: 8152 793d 9fd0 8f3c f345 033e eb88 2c3a
00000390: 935b 2b3e 1ffd 3dbe 7a0f 43be bca4 3c3c
000003a0: 9908 5abc 599e 053d e994 40bd a8c6 73bd
000003b0: b9ce eabc eb2c e93c c649 5d3b be8a 0fbd
000003c0: cab8 603d c6b0 3c3d 2095 6bbc e3ca d03c
000003d0: 7f7f c1bc 8093 773d 86ba 93bd 3964 0abc
000003e0: 8062 efbc e578 9f3c 489f 823d a570 833b
000003f0: b6cd 29bd 6b8d 17bd 224f 5b3c 526f e03d
-0.01232502 -0.061632626 0.03590481 0.022734726 0.04924392 0.07246268 -0.088942714 0.052057695
0.13753249 -0.07477284 -0.14021635 -0.013252152 -0.13934708 -0.14195102 -0.022363236 0.10444724
0.12612167 0.14504097 0.115886934 0.024897246 0.07197745 0.06028346 0.065055504 0.048326697
0.04500059 0.020228442 -0.06897751 0.04394257 0.009875798 0.06041868 0.02091864 0.06436904
-0.07076863 -0.018604094 0.028244251 -0.023023905 0.016185978 0.09513194 0.03953429 -0.16723698
0.06718727 0.057445873 -0.377296 -0.05545904 -0.08877559 -0.15438917 -0.010707117 -0.10577224
0.01634508 0.072285786 0.013793874 0.03942946 0.047842693 -0.025820082 -0.21392913 -0.15358247
-0.14245266 -0.086001895 -0.031429265 -0.040228665 0.11394051 0.103282675 0.04169789 -0.046038687
0.059182987 0.084690705 -0.07552263 0.10774361 -0.010197864 0.0168557 0.061365396 -0.0120677445
0.0072931894 -0.0038165487 0.13761163 -0.022251692 0.0765618 0.101250924 0.10088604 0.12583494
0.25145152 0.09084508 0.05739673 0.109834604 -0.0016412367 0.045162804 0.10375963 0.0043763025
0.008688023 0.007718065 0.031888995 0.098438725 -0.09284673 0.22356692 -0.026913274 -0.20079874
-0.11864458 -0.03323207 -0.1365217 -0.04960508 -0.06484888 -0.020722175 0.13194495 0.07781009
0.061671916 0.067395695 0.097606085 0.17931892 -0.1422787 -0.16539533 0.02242343 -0.06034145
-0.10688964 0.019596618 -0.024241455 0.018218065 0.12577167 -0.1562691 -0.12205884 0.07167942
-0.10431957 0.07627001 0.11539882 0.09544927 0.14975674 0.07481812 -0.053838387 -0.06670097
0.02969622 -0.093435615 -0.04235349 0.056140967 -0.020293795 -0.10724197 0.01780626 -0.24147661
0.05628155 -0.040364206 -0.12578925 0.028031794 -0.057246126 0.060760174 0.08163021 0.023257699
0.029322447 -0.042804167 -0.09870479 -0.0015638359 -0.046281345 0.02476532 -0.00017198602 -0.014576779
0.078695044 0.0026401386 -0.0016399256 -0.034856077 -0.00898409 -0.004907351 -0.028788518 0.07518814
0.027839435 -0.055529296 0.008999822 -0.058607403 0.02186494 -0.15186802 -0.035766877 -0.0029001115
-0.019500311 0.03742454 -0.039433993 0.0249388 -0.01710927 -0.06091647 -0.00728675 0.050363153
0.020418815 -0.07495776 0.056040753 -0.03519331 -0.032052398 -0.0077560195 -0.037662514 0.068071365
-0.009470518 -0.017737297 0.03962326 -0.04743029 -0.0049342955 -0.18000175 -0.105046175 -0.29605097
0.044488613 -0.027393155 -0.14479324 0.1542471 0.11463647 -0.041302335 -0.112073965 -0.105598375
-0.0518931 0.049404114 -0.04440513 0.022028806 0.0959469 0.053290177 -0.038120143 0.06607241
-0.022491934 -0.038726848 0.00043404996 -0.004096155 -0.13820705 -0.008221608 0.02497824 -0.03181278
-0.09606307 -0.021500241 -0.06472954 0.013584986 0.0005059666 -0.006964974 0.17781417 0.18004678
0.060869697 0.017555533 0.12819652 0.00065816817 0.16734152 -0.1855359 -0.19048873 0.011513885
-0.013307714 0.032621715 -0.04701701 -0.059515625 -0.028663026 0.028463801 0.0033765896 -0.035044424
0.05486373 0.04606702 -0.014378816 0.025487369 -0.023620365 0.0604434 -0.07213311 -0.0084467465
-0.029221773 0.019466827 0.06378037 0.004011231 -0.041455947 -0.0370001 0.013385566 0.10958733

regression.bias f4 [4]
00000000: 0ca6 883d 2f1b 1cbd 6395 7abd 1fb7 9a3c
0.06672296 -0.03811186 -0.061177623 0.018886147

regression.weight f4 [4, 128]
00000000: bb5e 87bb 72ca 9bbc 7296 9b39 48b6 e0b8
00000010: 7d9c 40bd d563 86bc d025 af3a b015 943c
00000020: f58f cebc 6786 d23c 3311 553c 769d 0a3c
00000030: e762 01bb 45ef 28bd cf7e 7dbd b37a f63b
00000040: 82cd a83b c2e2 6fbc ff1a 23bd 1d05 fd3a
00000050: 74b2 8a3d 0b1f cb3c ba66 c23c 7705 883c
00000060: 2a19 37bd f138 e1bb ec0d 95bc dbbf b0bc
00000070: c2d2 a33c 3047 283c 2a73 3dbc 9e49 21bc
00000080: bddf 26bc 5588 223d ecbb 0a3d 145e 513c
00000090: b37f 3abc 7150 3a3d 156f 0d3d f323 10bd
000000a0: d0d4 a53b 045a 0bbc 23ab 53bc 0e57 603d
000000b0: 4884 90ba 9a00 f43c d8ab 863b 9681 d43c
000000c0: 737a 5dbd 8ec5 fc3b b279 9bbc 807d 2e3a
000000d0: 8612 6cbc 9aa5 523c c8d4 533c 849c 08bc
000000e0: 9a7f 03bc e563 7c3c f680 e23b 9c19 c1bc
000000f0: d458 42bd 5676 6abc bba2 763c 3567 adbb
00000100: 534e aab9 88dc 0fbd 3e2e ee3b c86f 573c
00000110: 4d9c 28bd 9119 a4bb f326 bd3c 0e52 313c
00000120: 7256 3ebc 3a83 d1b7 3993 303c 5341 b2bb
00000130: d89b 86bc 5cb2 89bb b45a f0bc bad1 f1bc
00000140: 698c fdbc d47e d43b 64f4 5d3b 8a18 0f3c
00000150: bbd7 6b3a cdfd 07bd 5c3a 753c 8f0b 4bbc
00000160: 3ae5 133c fd66 6aba 5d03 0e3c aacc 4c39
00000170: 13d7 d13c 8f5f 333d fdfa 0d3a a751 973c
00000180: a005 753c f6b3 86bb 9a51 4d3d 3407 b83c
00000190: 0373 2a3b 3015 18bd 0824 57bd 3d61 cbbc
000001a0: 6c98 d43b d009 8e3b 5912 eb3b 173b 07bd
000001b0: 7aab b1bd cde1 e43b 547d 1e3d 9c20 89bc
000001c0: 31e3 1bbc 9154 c53c cf64 6abc 77ff c7bc
000001d0: fd36 6bbb d5a9 11bd 86ab e43c e073 c4bd
000001e0: 17b3 3abd 29ef 0d3d 6ee6 5439 6d69 a7bc
000001f0: 8dc8 bc3c 0709 62bc 4e60 94bc e2a2 d73d
00000200: 5260 0a3d 5128 043d d24a 003d 5782 973c
00000210: 9902 4cbc 2fc1 cc3b a3e6 abbc 3638 6c3c
00000220: 6112 f0bc 5d5e 1abc 06d9 2b3d 8582 26bc
00000230: 5336 85bb c7ac c2bc 1fe4 a63c 874e 503c
00000240: 0018 00bc c468 7abc a24e 5bbd a711 a03b
00000250: c67d 50bd fc96 3f3c 5624 a63c 6166 aabc
00000260: 0ee0 26bd abde 7fbc ffb4 b03c c316 283c
00000270: e9e2 c83c 8ecb 143c 76cc 69bc 4327 b73c
00000280: aaed 1cbe 26e9 87bc 7835 263d 3715 ccbc
00000290: 4088 b7bb af4b 22bd 4a5d d9bc 594f 68bd
000002a0: 1462 1fbd a731 3d3c db28 b53c 9bb0 383d
000002b0: 68f0 9bbc 0fb4 e4bc 7c37 22bc d6cc cfbc
000002c0: 45d5 ed3a c220 5e3a 3c2f 30bd 2966 6cbb
000002d0: c851 243b 4369 3d3c 6948 8a3c 1113 6bbd
000002e0: f6f9 2c3d b8ed 8abb 09f0 5fba 9703 d3bc
000002f0: 5337 1abe 43a3 25bd 270c b33c 0c18 cbbb
00000300: 24be e63b de21 f9bc 1384 813c d599 4a3d
00000310: 7860 953d bea6 513c 81f7 21bc 3187 a23c
00000320: fd84 f5bc b007 923b 3290 bdba 1ad8 f73c
00000330: ef8e b63c ff5c 9bbb 9db2 7a3b 353c a8bd
00000340: abe4 9ebc 8c1a 303c a872 21bd abf1 02bc
00000350: 4085 d63c c873 7dbc a0fa d5ba 86ec 27bb
00000360: 2943 503c b629 153b cad4 f2bb 22a7 c53c
00000370: 5d00 dd3c ebc7 40bb b7de 59bb 334e 0e3d
00000380: 80ef d93c 8c4d a43a 9e53 06bd cd92 1b3d
00000390: 04d1 8d3b fd7b 49bd 6157 c0bd 3cc7 c7bb
000003a0: 84eb 1fbd 352d 2b3b 7153 bf3a 4468 39bb
000003b0: 50e1 0dbd e445 e43b ff62 253d 00c9 87bc
000003c0: 118d 4dbd 3ad7 0abc 9e2a 623d 0ff2 f3bc
000003d0: a386 ff3c 45d4 393d e5fa 3b3e 216a 3e3d
000003e0: 151d d9bc b8cf 53bd a874 4f3c 2299 69bc
000003f0: 6cb7 2f3b a85c eabc 2731 66bc 03ea 72bc
-0.004131166 -0.019017432 0.00029675994 -0.00010715105 -0.04702424 -0.016405025 0.001336271 0.018076748
-0.025215128 0.025698854 0.013004589 0.008460393 -0.0019742788 -0.04124381 -0.061888512 0.007521951
0.0051514516 -0.014641466 -0.039820667 0.0019303892 0.067723185 0.024795076 0.023730624 0.016604168
-0.044701733 -0.006873243 -0.018195115 -0.021575859 0.019997958 0.010270879 -0.011563102 -0.009844212
-0.010185179 0.039680798 0.033870623 0.012778778 -0.011382985 0.04548687 0.034529764 -0.035190534
0.0050607696 -0.008505348 -0.01291922 0.05477052 -0.0011025751 0.029785443 0.004109841 0.025940698
-0.054071855 0.00771398 -0.018978927 0.0006656274 -0.014408713 0.012856865 0.012929149 -0.0083380975
-0.008026028 0.015404676 0.006912346 -0.023571782 -0.047447994 -0.01431044 0.015053446 -0.0052918443
-0.00032483283 -0.035122424 0.007268696 0.013149209 -0.041164685 -0.0050079306 0.023089861 0.010822786
-0.01161729 -2.4975849e-05 0.010777288 -0.005439916 -0.016431734 -0.0042021703 -0.029340126 -0.02951895
-0.030950742 0.0064848457 0.0033867592 0.008733878 0.0008996685 -0.033201028 0.014967527 -0.0123928925
0.00902682 -0.0008941738 0.008667794 0.000195312 0.02561525 0.043792304 0.00054161233 0.018471552
0.014954954 -0.0041108085 0.05012665 0.022464372 0.0026008494 -0.03712958 -0.052524596 -0.02482664
0.0064878967 0.004334666 0.007173818 -0.033015337 -0.08675285 0.0069849254 0.03869374 -0.016739182
-0.009514616 0.024088176 -0.014306261 -0.024413807 -0.003589093 -0.035562355 0.02791382 -0.09592414
-0.04558095 0.03465191 0.00020303737 -0.020436013 0.023044849 -0.013796098 -0.018112328 0.10529114
0.033783264 0.03226501 0.031321354 0.018494768 -0.012451791 0.006248615 -0.020984 0.014417699
-0.029305639 -0.009421912 0.041955017 -0.010162954 -0.004065314 -0.023764027 0.020372448 0.012714035
-0.007818222 -0.015283767 -0.053541787 0.004884917 -0.050901197 0.011693712 0.020280998 -0.020800771
-0.04074102 -0.015617053 0.02157068 0.010259333 0.024522262 0.009081734 -0.014269939 0.022357589
-0.15325037 -0.016590666 0.040578336 -0.02491246 -0.005600959 -0.03962296 -0.026533742 -0.056716297
-0.038911894 0.011547483 0.022114208 0.0450903 -0.019035533 -0.02791789 -0.009900924 -0.025366228
0.0018145224 0.0008473509 -0.043013796 -0.0036071634 0.002507316 0.011560741 0.016880231 -0.05739123
0.04223057 -0.004239764 -0.0008542543 -0.025758548 -0.15060167 -0.0404389 0.02185638 -0.006197935
0.0070417095 -0.030411657 0.015810048 0.049463112 0.072937906 0.012796102 -0.00988567 0.019839855
-0.02997064 0.004456483 -0.0014462529 0.030254412 0.022284953 -0.0047413106 0.0038253434 -0.082146086
-0.019396147 0.010748517 -0.039415985 -0.007992188 0.026186585 -0.015469499 -0.0016325302 -0.0025623157
0.012711325 0.0022760457 -0.0074106203 0.024127547 0.026977712 -0.0029416035 -0.003324432 0.034742545
0.02660346 0.0012535318 -0.032794587 0.037981797 0.004327895 -0.04919051 -0.09391666 -0.0060967486
-0.039042965 0.0026119475 0.0014597011 -0.0028290907 -0.034638703 0.0069663394 0.040377613 -0.016575336
-0.05018336 -0.008474166 0.055216424 -0.029778508 0.03119213 0.04536845 0.18357427 0.04648793
-0.026503125 -0.051711768 0.01266209 -0.014257701 0.0026812209 -0.028608635 -0.014049805 -0.014826301
