project1/MTCNNCUDA/pnet2.pth (torch_old, 28441 bytes, 9 tensors)

conv1.0.weight f4 [10, 3, 3, 3]
00000000: 7112 ef3d d83b c53d d1ef e6bd 5f0d a73d
00000010: bb19 b2bd af19 843d 2437 80bd 7b44 e53d
00000020: f7da 64bd 27e0 243c 9f3f 17be 9d98 973e
00000030: 6a2c 0b3e 4994 933e b119 55bd 8907 923d
00000040: e044 a23e 7542 7f3e 420c 133c e1ae 93bd
00000050: 6db9 e03d 3bb0 37be 2b35 87bc b0bf e2bd
00000060: 7da9 a1bd 625e 29be e4d8 9239 ea47 893e
00000070: 7075 893e e7e5 c0be 61d8 a73e 6104 1dbe
00000080: 769e 8abe da71 873e 4932 80be 5886 90bd
00000090: a348 a63e d354 323e f936 d4be e50a 3e3e
000000a0: 81e4 0ebe c0d4 49be 1c8f b23c abb2 b1bd
000000b0: 3a0c b7bd 086a 5c3e fa3a 1fbd 25f8 e4bd
000000c0: d50a a13e a96d 65bc 9d7a 8dbe 9ded 563d
000000d0: bc17 fbbd 8f9e 103e ca7a 12be 0f36 21be
000000e0: d2ab c7bb 28ae 6abe 2303 a0be d57e e3bd
000000f0: c6ad 6d3e ebd5 843e c2e2 b43e ecab 673e
00000100: 5505 eabd eda2 fcbd 6af1 b5be 2b1c a3be
00000110: 58a4 b4bc 0bc7 843d b6e7 c03e 0eab da3e
00000120: 5275 7ebd ee66 bfba 0a46 80bd 6904 0dbe
00000130: aae8 b3be 24ae e7bd 5444 113d 7a35 d73e
00000140: fe8a 443e dea1 84be 7c48 de3d e48f 643d
00000150: 771a 28be 9171 993c b9fb 3b3e bc94 b9bd
00000160: b077 48be 4607 723e 3b83 5ebe 670c 9bbd
00000170: 300d b63e ea7d dabe 9838 173d f8de 833e
00000180: 002c 53be 0ecd 81be 3a6c ae3e b29a 6dbd
00000190: 77ea 5d3e f01d 343d 3cf7 78be 0482 ba3c
000001a0: 3af5 7f3e 5c07 51be 88eb 2a3d 46e8 023e
000001b0: 6a9b cebd dca5 4cbe 54ea 1b3d 20fc b23d
000001c0: 83c8 4f3e 3132 fe3b d849 2bbe df32 47be
000001d0: 1f9f 6fbe c5af 9e3e 462f 953e 860d 953d
000001e0: 26d7 dc3e 9501 d03e cc37 b63e fb6a aabd
000001f0: b5d0 e5bd 8054 a73d fda4 1fbe 2d33 873d
00000200: 7c47 86bd 9a2f d93d 18f5 4bbd 4b67 a53e
00000210: f14a b6be 509a 84bd bd3a 933c 3eb1 b9be
00000220: a46c 803e 5860 f2bd bb1a 02be 15c8 ef3d
00000230: 92b7 5cbe d0c3 71bd cc56 9e3d dd79 0fbe
00000240: 3bdb 17be a848 003f bafd f7bd f0c1 3bbd
00000250: 7c61 b13e 6058 283e c2b6 fb3d 8841 bb3e
00000260: 8d9c d03d ebfe 94be d4a6 653e fa6c 80be
00000270: 46ee e9bd 278e 743e 61c7 b1be d8f3 09be
00000280: e650 963d 6eef 73be 29f1 1cbc 715f 03bf
00000290: 7657 71be a422 9f3e e1fa 1dbd 7e4d 7fbe
000002a0: af97 2a3e 8cdb bd3e 67a1 d93d b3ed 8abd
000002b0: 3ad2 7dbe 5b59 a3be a182 c33e b936 1a3e
000002c0: 15a5 41be 958f 583e 4a66 8d3e 4ced af3d
000002d0: 809c b5bd eafe 80be eb6a 34be 5267 103e
000002e0: 34d5 883b d63d 08be 20a8 2c3e 9195 503e
000002f0: bcf4 0abd 61a9 8abe fe02 a4be ae41 53be
00000300: 2339 10be c3d4 ddbe d963 1fbe 0339 c2be
00000310: df7d 8ebe cad1 21be 74ce 553e 01a4 a83e
00000320: 3397 f13c 1996 863e c222 1a3e bb5b c13e
00000330: 5182 823e 78a7 933e 4880 ddb8 bb2e be3c
00000340: 5d75 143e 37fb ec3d 7def 8f3d 4b9f 863d
00000350: eb73 1cbc 518b ed3d 19e6 203e 1c1b c83d
00000360: d71c 78be 0cb6 cabd 2ac0 743d a380 893e
00000370: 78c3 06be 07b5 25be 503e 70bd 8f8b f63c
00000380: 222f 27be 03a9 33be 22d7 943e 14af cc3e
00000390: e6b2 d33d dc47 88bd 03ae fe3d c5bb c93d
000003a0: 14b5 7d3d bae5 41bd 8090 5cbe a90c 3bbe
000003b0: 5647 d93c 552b 583d e3dc 53be d910 a5be
000003c0: 8eb1 3cbe 2abf b8bd 0d5a 8e3c 9d41 aa3e
000003d0: a39d 453e f264 803e 0597 66be ca90 1bbe
000003e0: 6247 0dbe 27a9 2d3b cd98 75be 89a3 e43c
000003f0: a85a cf3e de59 bb3e fb29 1b3e 0d1e a9be
0.11673439 0.09630555 -0.1127621 0.08156847 -0.08696314 0.06450211 -0.06260517 0.11194702
-0.055872884 0.010063208 -0.14770363 0.29608622 0.13591161 0.2882407 -0.052026454 0.071303435
0.31693172 0.24927695 0.00897509 -0.0721109 0.10972867 -0.1793832 -0.016504845 -0.11071718
-0.078936554 -0.1653991 0.00028008886 0.2681268 0.2684741 -0.37675402 0.32782272 -0.15333702
-0.2707402 0.2645405 -0.25038365 -0.07056874 0.32477292 0.1741517 -0.4144819 0.18558843
-0.13954355 -0.19710064 0.021796755 -0.08676656 -0.08937879 0.21524823 -0.038874604 -0.11180142
0.31453577 -0.014003196 -0.2763261 0.0524727 -0.12260386 0.14122985 -0.14304653 -0.15743278
-0.0060934806 -0.22917998 -0.31252393 -0.11108176 0.2321082 0.25944456 0.35329252 0.22624177
-0.11426798 -0.12335763 -0.35535747 -0.31857428 -0.022051021 0.06483277 0.3767678 0.4270863
-0.062123604 -0.0014602819 -0.06263359 -0.13771214 -0.35138446 -0.113125116 0.035465553 0.42032987
0.19193646 -0.25904745 0.10853669 0.055801287 -0.16416346 0.01873091 0.18357743 -0.09061572
-0.19576907 0.23635587 -0.21729748 -0.07570725 0.35556936 -0.4267419 0.036919206 0.2575605
-0.20622253 -0.25351757 0.34066945 -0.058008857 0.21671472 0.043973863 -0.24313062 0.022767074
0.2499589 -0.20412964 0.041728526 0.12783918 -0.10088237 -0.19985145 0.03806527 0.08739495
0.20291333 0.007757448 -0.16727388 -0.19453 -0.23400544 0.30993477 0.2913763 0.0727797
0.43132895 0.40626207 0.35589445 -0.08321186 -0.11221448 0.08170414 -0.15590282 0.06601558
-0.06556603 0.106047824 -0.049794286 0.3230537 -0.3560405 -0.06474745 0.017972345 -0.36268038
0.25082886 -0.11834782 -0.1270551 0.117080845 -0.21554402 -0.059024632 0.07731399 -0.14011331
-0.14829724 0.50110865 -0.121089414 -0.04583925 0.34644687 0.16439962 0.12290718 0.36573434
0.1018611 -0.29100737 0.22426921 -0.25083143 -0.114224 0.23882352 -0.34722427 -0.13471925
0.07339649 -0.23821804 -0.009578981 -0.5131751 -0.2356852 0.31081116 -0.038569335 -0.24931905
0.16659425 0.37081563 0.10626488 -0.06783619 -0.24787226 -0.3190411 0.381856 0.15059938
-0.1891063 0.21148522 0.27617103 0.08590183 -0.08867741 -0.25194484 -0.17618911 0.14101914
0.0041758064 -0.13304839 0.1686101 0.20369555 -0.033924803 -0.2708235 -0.32033533 -0.20630524
-0.14084296 -0.43326387 -0.15565433 -0.3793412 -0.27830407 -0.15802684 0.20879537 0.32937625
0.029491043 0.2628639 0.15052322 0.37765297 0.2549005 0.28838706 -0.000105619954 0.023215642
0.14497896 0.11571353 0.07028101 0.065733515 -0.009549121 0.11598838 0.15712775 0.09770796
-0.24229752 -0.09898004 0.059753574 0.26855955 -0.13160503 -0.16182338 -0.058653176 0.030095844
-0.16326573 -0.17544942 0.29070383 0.39977324 0.103368565 -0.06654331 0.12435534 0.09850267
0.061940268 -0.047338225 -0.21539497 -0.18266548 0.026523273 0.0527757 -0.2068973 -0.32239416
-0.18427107 -0.09020837 0.017376924 0.33253184 0.19298415 0.25077015 -0.22518547 -0.15191951
-0.13796762 0.0026498528 -0.2398407 0.02791001 0.40498853 0.36592 0.15152733 -0.3303074

conv1.0.bias f4 [10]
00000000: 301a f43d cc17 f1bc 51c2 00bd 8f1c b2bb
00000010: b5b3 823d bfe3 adbd 9f1c 28bd d95a 9e3e
00000020: 8a86 5e3c 0fb4 0abd
0.11919057 -0.029430293 -0.031435315 -0.0054355334 0.06381933 -0.08490705 -0.04104292 0.30928686
0.013581881 -0.033863124

conv1.3.weight f4 [16, 10, 3, 3]
00000000: b184 04be 84eb 8f3d 4513 13bd 3594 a43d
00000010: 6749 57bb 55e1 c0bc 2d35 a53c bf20 063d
00000020: 1ccb 7dbe cabb df3d e4ad b03c 3b52 18be
00000030: 23a8 5fbd 6c0b 863d d9ea 82be 4e94 f0bc
00000040: 7c61 05be 07d9 9bbe f25a 633e a8c4 5abe
00000050: d522 953e 9521 75bd e065 82be ba38 2c3e
00000060: f414 e8be 214f be3d 6210 59bd 4c7d de3d
00000070: 95c0 2a3e e411 73be faaa 323d 5bc9 e3bc
00000080: 50bd ce3d 4145 2e3e a211 6c3d c193 fabd
00000090: 6299 43be 91a0 133c 691c e03c dd4e 2f3e
000000a0: 020a 1c3e 46ee dcbc 0a16 c23d cedb ccbd
000000b0: aab2 07be 0412 abbc 593f 1e3e bc44 bdbe
000000c0: 87d4 a13b 07ec 5d3e 38e0 8e3d eafa 2b3d
000000d0: cd0a a6be 0f31 a8be 9f2f aebd a474 dbbd
000000e0: e93c 90bd 1994 643e 62dd 1abe 14e6 e03e
000000f0: 7254 263d 964f 99bd e3ec b1bd 7f4d 413e
00000100: 1558 10bd 885d eabe 52f4 c63d c047 8b3d
00000110: 5cce 6bbe 0fa4 b23e 92de 1bbe e15c ddbe
00000120: 72b7 133e 7d61 4dbe 1681 5ebe 353b 4dbd
00000130: 87e5 40be a0c2 06bd 51c8 6b3d 38a1 193e
00000140: 9372 76bd 1e3c 6fbb 8f79 9abb 9220 a73e
00000150: 3789 86be 2c74 533c 7f93 eabd ec8b 72bc
00000160: 2399 233d 1cd8 45bd 6216 0c3e ecd1 133e
00000170: d142 d53c e426 b43d e95b 87bd e3c6 67bc
00000180: 6f92 38bd df43 c6bb 33ae 753d dc43 1a3c
00000190: ac42 1c3e 4a02 b4bd 0e27 9a3e 92dd 1e3d
000001a0: 7672 a9bd 1f5b 03be 50cd 80be 3eae 05be
000001b0: 8bd1 703d 86a6 c33d e56b fa3d 4cec ce3d
000001c0: a6f1 50be 7b3a 0abc 0d40 1fbd 4600 fc3d
000001d0: 7aaf 343b db1b eebb b692 a1bd 7284 18be
000001e0: 7b90 873d 5237 b0bd aa84 ec3d 0636 8dbd
000001f0: c247 2dbe 0738 b5bd e03f 563e e8f7 673e
00000200: 6bca 0d3e 58cb 40bc f711 233e f0d8 e53d
00000210: 6212 b73c 59a0 2dbe 846d 0ebe 0317 723e
00000220: be84 653e 76a6 153e 929e 3b3e f843 433e
00000230: 5c2b 253e 3820 5c3d a9c8 0f3b 0cb0 243e
00000240: 3024 32be ce68 03be 35f3 453e 86da 4fbd
00000250: 3bb2 adbd 2c3d d53d 6ec6 f0ba dff4 6c3d
00000260: 771b 443c 87e4 9f3e 3794 b13e ba9e 063e
00000270: df02 ce3e c537 9c3e a1bc 0e3e 50cb 053e
00000280: cd76 163d 8402 4ebe 1f5f 253d a3e3 b3bd
00000290: 6026 1a3e db18 673e e3bd 953d 5885 d23b
000002a0: 9c15 85bb 5c65 cfbd e551 ccbd 78a2 053e
000002b0: dabe a4bd 0f75 20bd 877e 833d 8cb7 613e
000002c0: 1ccc 7e3e 5830 19be 1f4e c9bd b267 11be
000002d0: e654 2a3e bd80 d33d 281d 093e 134c fd3d
000002e0: d190 483e efee e33d 8885 dabc 00ca e6bd
000002f0: 2c79 873d 747d 1dbe 10a8 65be 9955 f4bd
00000300: 567e c0bc c09f 59bd f91b ce3d d01e 9a3d
00000310: 8b64 9b3d 0ecb 0bbe ce7f 80be 9cbc 0dbe
00000320: 3c05 52bd cde7 e4be d037 6cbf 3932 80be
00000330: 3fc7 aabe d49d 34bf 7e04 32be 9f9d 60bc
00000340: 8324 11be c89b be3d 4b22 743e 2079 023e
00000350: 0c43 b0bd d24f 9f3c b55c 083e 0088 dd3d
00000360: ba30 32bd e12e 8dbe fa10 ccbd 018f da3d
00000370: bc93 2d3d 8ff4 3b3b 0883 98bd 880f a93d
00000380: a59c 4b3d 275c 50be d7ca a1bd 7247 0ebe
00000390: 2d12 143e fadf 9bbc 6ffe 0a3c 853a 043d
000003a0: 03b5 2a3d dd6d 0e3d 489a cd3d 5b57 443e
000003b0: eca2 78bd 3283 a23c 70bd 0c3d 6631 a93e
000003c0: bfaa bdbb 4867 0cbd dc5f b03d 0e54 babd
000003d0: 0953 8abe 8b70 d8bd 7109 0e3d c9cd 44bd
000003e0: fd04 653e 9be1 123e a043 153d 2cba 5d3e
000003f0: 5d13 0bbd 4f5a b3bd b51b 1c3d 3470 923c
-0.12941243 0.07027343 -0.03590705 0.08036081 -0.0032850148 -0.023544947 0.020166958 0.032746073
-0.24784511 0.1092449 0.021567293 -0.14875118 -0.054603707 0.06545147 -0.255698 -0.029367592
-0.13025469 -0.30439016 0.22202662 -0.21364081 0.29128137 -0.05984648 -0.2546835 0.16818514
-0.45328486 0.092924364 -0.05299414 0.10863742 0.16675027 -0.23737293 0.043620087 -0.027805975
0.10094702 0.17018606 0.057634003 -0.12235213 -0.1910148 0.00901045 0.027357297 0.17119928
0.15238193 -0.026969086 0.0947686 -0.10002862 -0.13251749 -0.020882614 0.15453853 -0.36966503
0.0049386653 0.21672069 0.0697636 0.041987337 -0.32430115 -0.3284993 -0.08505177 -0.10715607
-0.07042868 0.2232212 -0.15123513 0.43925536 0.040607877 -0.07485883 -0.08687761 0.18877219
-0.03524025 -0.45774484 0.09714569 0.068007946 -0.23027939 0.34890792 -0.15221623 -0.43234923
0.14425448 -0.2005672 -0.2172893 -0.050105292 -0.18837558 -0.032900453 0.057564083 0.15002906
-0.06016786 -0.0036504338 -0.004714198 0.32642037 -0.26276562 0.0129061155 -0.11453914 -0.014803868
0.039940964 -0.0483018 0.13680413 0.14435548 0.026032837 0.0879648 -0.06609327 -0.014146539
-0.045061525 -0.0060505713 0.059980582 0.009415593 0.15259808 -0.08789499 0.3010792 0.038785525
-0.08273785 -0.12827729 -0.2515664 -0.1305475 0.058793586 0.09553246 0.122276105 0.10103664
-0.20404682 -0.008436794 -0.038879443 0.1230474 0.0027570412 -0.007266504 -0.07889311 -0.14894274
0.06619354 -0.086043015 0.11548741 -0.0689507 -0.16921905 -0.08848577 0.20922804 0.22653162
0.13846748 -0.011767231 0.15924822 0.11223018 0.022347633 -0.16955699 -0.13908964 0.23641591
0.22413918 0.14614281 0.18322209 0.19068897 0.16129822 0.053741664 0.002193967 0.16082782
-0.17396617 -0.12832949 0.19331057 -0.05074551 -0.084812604 0.10412058 -0.0018369684 0.057850715
0.011969439 0.3122904 0.3468339 0.13146487 0.40236565 0.305113 0.13939144 0.13065839
0.03673439 -0.20118147 0.040373918 -0.08783653 0.15053701 0.22568075 0.07311609 0.006424587
-0.004061414 -0.10126755 -0.09976558 0.13050258 -0.080442145 -0.039174136 0.064206176 0.22042674
0.24882549 -0.14959848 -0.098293535 -0.14199713 0.16633949 0.10327289 0.13390028 0.12368026
0.19586493 0.11129557 -0.026675 -0.11268997 0.066149086 -0.15379888 -0.22427392 -0.11930389
-0.023497742 -0.053130865 0.10063929 0.07525408 0.075875364 -0.13651678 -0.25097507 -0.1384148
-0.051274523 -0.447081 -0.92272663 -0.25038317 -0.33355138 -0.70553327 -0.17384526 -0.013709455
-0.14174084 0.09307057 0.23841207 0.12741518 -0.08606538 0.019447241 0.13316615 0.108169556
-0.0435035 -0.27574828 -0.099641755 0.10671807 0.04237722 0.0028679704 -0.07446867 0.082549155
0.049709935 -0.20347653 -0.07900017 -0.13894442 0.14460059 -0.019027699 0.008483513 0.03228237
0.041676532 0.034772743 0.100391924 0.19173948 -0.06070225 0.01983795 0.03436035 0.330455
-0.005788177 -0.034278184 0.08612034 -0.090980634 -0.27016476 -0.10568341 0.034676973 -0.048047815
0.22365184 0.14343874 0.036441445 0.2165305 -0.033954013 -0.08757459 0.03811236 0.017875768

conv1.3.bias f4 [16]
00000000: 43c8 9f3e d4d8 dabc 1e1d 823d d74e c93e
00000010: 9ed6 e63d ea63 ae3d b386 d8bc 3edb 16bd
00000020: 99bd 793d 1808 3c3d bff0 343d 5f29 ae3d
00000030: 25d5 a5bd 8dc4 2c3e 9d0b 303d 313d 943d
0.31207475 -0.02671472 0.0635321 0.39317963 0.11271404 0.08515151 -0.026431417 -0.03683018
0.06097183 0.045906156 0.044174906 0.08503985 -0.08097295 0.16871853 0.042979825 0.07238234

conv1.5.weight f4 [32, 16, 3, 3]
00000000: 2d9b 253e 7d36 2b3e 7600 48bd 18fd 75bc
00000010: 32ff a83d d827 cb3d 735f 1a3e 9b01 433e
00000020: d9ad 12be 5157 e13d e5bf 67be 5139 d93b
00000030: 235e 16be 1524 aebd 474d 0ebd 93ce 55be
00000040: 08ca 55be 89d6 b9bd 22eb e6be 8354 a9be
00000050: 1e58 88be 3c51 02be 0c1c 58bd 08d0 f9bd
00000060: 1242 e7bd bab0 8dbe f2f9 1cbe 4738 203e
00000070: bd92 e13b 7b0f a83e da9d bcbc ce66 113c
00000080: 4444 1d3e 132b b73d eb85 a53d ae45 383c
00000090: 2307 a83e a7d7 ccbd 274f b1bd f61a bfbc
000000a0: 17a4 a6bd bc2c 32be a46e daba 23d2 49be
000000b0: aad7 2dbe de2c 99bd 77da 493e b9ae 743e
000000c0: 1515 6ebd 5243 b23d 5621 c43d a1c7 e7bd
000000d0: 886b 2bbe 8ce4 f33d 55c2 623e db7e 893c
000000e0: 33e4 043d 56ab 28bd 16ae 183e 7de8 873d
000000f0: 85ba eb3d d178 083e 4399 eabc cefa 8ebe
00000100: b100 61be 5609 90be bfc6 0abe a8f9 01be
00000110: 1289 a4be 4af9 e8bd 1d3b 5abe 3601 a6be
00000120: fdec 9d3d 69b8 debd 2fd5 65be 90d1 3bbd
00000130: ab0f 49be d70e 55be f572 a2bd 9ed8 13be
00000140: 85d6 c5bc 8659 c83d 65f2 2e3e 8d4f 883e
00000150: 6f4c 413e 7149 413e da12 483e f689 4a3e
00000160: 3fdc 193e e654 6a3e b0ab 55bc 5509 dcbd
00000170: 5eac 5d3d 27cc 9cbd b73b a53b c87c 673e
00000180: c244 423e 7bbe 363d 2906 573e 05ce a1be
00000190: 12c2 29be baee 6abe 9e4f adbe 6c65 5abe
000001a0: fd04 a3bc 6ba4 7fbe 784a b4bd ed9a 82ba
000001b0: 2d43 d2bc 3baa b5bd c402 58be 13d6 383d
000001c0: 2690 9abe b5b0 27be e5c6 833c 489a 89be
000001d0: 0308 46be 3905 d1bd e0ad 87be b5b7 c6bd
000001e0: a9ca c73d 761b 88bd a1df b33c 0a7a afbe
000001f0: 87be 5dbe 3dd3 c0be 1d23 72be 5c48 a6be
00000200: 97bb 2ebe 1d70 d7bb 750f 45be bef2 0ebe
00000210: 028c 85be 2501 3dbe deb6 6e3d 60fa 32be
00000220: b175 56be 5025 3dbe 86ba 68bd dda3 40be
00000230: 5795 35bd 29ca 87be e9db e0bd f887 313c
00000240: 5a23 a33c 6403 8f3e 469d 103e 35d3 a33d
00000250: a5d5 1a3e 42bb fe3c 80ed b2bd 79bb c53a
00000260: 2ad0 af3d a5c5 53bd ebf9 073e 9eef 87bd
00000270: d0dd a43d c501 debc 01ed 91bb a3ee 213c
00000280: f5a5 20be bfe2 5fbd 28d6 973e b40a 1c3e
00000290: d301 4a3e 07ee 9f3d 7082 f53d b777 9d3d
000002a0: 421e 95bd 0d95 003e 04e0 353e abbc 1cbe
000002b0: 8bb8 a23d f4dd 53be 1b41 d6bb ad9a ae3d
000002c0: 407a a53c 3e54 793d 0acf 553d 5968 093e
000002d0: c27d 09bd 2cc9 ea3c 37cd 4c3e 092d 533d
000002e0: 3447 b3bc 9d74 563e 1b90 553d c4b4 fd3d
000002f0: 479f 853d 9229 24bd f5c7 c9be 5670 acbd
00000300: 0cbd 17bd 734b 5fbe b30a 7abb c877 e33d
00000310: c570 1abe 54db 5abd e3f6 ddbd 919a 1b3d
00000320: 8e46 45bc a914 d3bc 5a9e d0bd 07bd 83be
00000330: 812d 3cbe 90b7 47be 5c4d d3be 1e0c 4f3e
00000340: 53f8 233e 84e7 853e f7d9 23be 3989 29be
00000350: 174c 9c3e 8373 4a3e e390 863e 51a1 8d3e
00000360: 5d20 b43e eed6 463e 75c9 7d3e 5ee8 b33e
00000370: 14fd 883e ebb8 363e 1f9c 213e c7c2 603e
00000380: c46e c0bc e3e1 d7bd eaf4 11bd 09bb 16be
00000390: 9aaf 93be 884f 7abe 3866 b9bb ff52 90be
000003a0: 056f f8bd e502 943d b006 833e 6cc5 583e
000003b0: 5517 3d3e 6314 463e d129 193e b5eb 183d
000003c0: 79fb 8d3d 04e6 f73d 7b19 c9bd 0203 cb3e
000003d0: ff73 463e 5b85 af3e 6157 223e 6cff d03e
000003e0: 103a a63e 5f2f 923e 2eaa a33e 3d06 9c3e
000003f0: 4cfd 533e d6c1 563e e517 2c3e 99f7 473e
0.16172476 0.16720004 -0.048828565 -0.0150139555 0.082518 0.09919709 0.15075473 0.19043581
-0.1432413 0.110029824 -0.22631796 0.006629147 -0.14684348 -0.08502976 -0.034741666 -0.20879583
-0.2087785 -0.090741225 -0.45101267 -0.3307229 -0.26629728 -0.12726301 -0.052761123 -0.12197882
-0.11291899 -0.27673894 -0.15329722 0.15646468 0.0068839476 0.3282431 -0.023024488 0.008874608
0.15358073 0.08943763 0.080821835 0.011247082 0.32817945 -0.1000207 -0.08657675 -0.023328286
-0.081367664 -0.17399877 -0.0016665054 -0.19709067 -0.169768 -0.07479261 0.19712244 0.23894776
-0.058125574 0.087042466 0.09576671 -0.11317373 -0.16740239 0.11908826 0.22144444 0.016784122
0.03244419 -0.041179024 0.14910159 0.066361405 0.11510185 0.13327338 -0.028637534 -0.27925724
-0.2197292 -0.28132123 -0.13552378 -0.12692893 -0.32135826 -0.11375673 -0.21311612 -0.324228
0.077112176 -0.10875017 -0.22444604 -0.04585415 -0.19634883 -0.20806442 -0.079320826 -0.14438102
-0.024150142 0.097827 0.17084654 0.26623192 0.18876813 0.18875672 0.19538441 0.1977919
0.15025423 0.22883949 -0.013041422 -0.107439674 0.05411946 -0.076561265 0.005042519 0.22606194
0.18971542 0.04461525 0.20998444 -0.31602493 -0.16577938 -0.2294263 -0.33849806 -0.21327752
-0.01989984 -0.24965064 -0.08803266 -0.0009964384 -0.025666798 -0.088703595 -0.21094805 0.045126032
-0.30188102 -0.16376002 0.016086051 -0.2687552 -0.19338994 -0.10206074 -0.26499844 -0.09703008
0.09755451 -0.06645863 0.02195722 -0.34272796 -0.21654712 -0.37661162 -0.23646207 -0.3247708
-0.17063747 -0.0065746442 -0.19244178 -0.13959786 -0.2608338 -0.18457468 0.058279864 -0.17478323
-0.20943333 -0.18471265 -0.056818508 -0.18812509 -0.044331875 -0.26521423 -0.109794445 0.01083564
0.019914318 0.27932274 0.14122495 0.07999269 0.15120561 0.03109515 -0.08736706 0.0015085778
0.08584626 -0.05170216 0.1327893 -0.066375 0.0805012 -0.027100453 -0.004453302 0.009883556
-0.15688308 -0.0546596 0.29655576 0.15238458 0.19727258 0.07809072 0.119877696 0.076888494
-0.07281162 0.12556858 0.17761236 -0.15306346 0.07945355 -0.20690137 -0.006538523 0.08525596
0.020199895 0.060871355 0.0521994 0.13418712 -0.033567198 0.02866038 0.20000158 0.05155662
-0.021884538 0.20942922 0.052139383 0.12387994 0.0652452 -0.040078707 -0.39410368 -0.08419864
-0.037045524 -0.21806125 -0.003815335 0.11106831 -0.1508208 -0.053431824 -0.108381055 0.037989203
-0.012040747 -0.025766687 -0.10186453 -0.25730154 -0.18376733 -0.19503617 -0.41269958 0.20219466
0.16012697 0.26153195 -0.16001116 -0.16556253 0.30526802 0.19770627 0.26282415 0.27662137
0.3518094 0.19417927 0.24783881 0.3513822 0.26755583 0.17843978 0.15782212 0.21949302
-0.023490317 -0.10541131 -0.03563396 -0.14719786 -0.2884491 -0.24444401 -0.0056579374 -0.2818832
-0.1213055 0.072271146 0.2559104 0.2116906 0.18465932 0.19343714 0.14957358 0.037334163
0.0693273 0.12104419 -0.09819313 0.39650732 0.19380186 0.3428143 0.15853645 0.4081987
0.32466173 0.28551766 0.31965774 0.3047351 0.20702094 0.2097238 0.1680599 0.19528045

conv1.5.bias f4 [32]
00000000: 2814 443e bfeb d5bb f325 44bd 7664 44be
00000010: 71b7 2a3d 4b7c 183e 134e f53c 9c52 653e
00000020: b75f 13bd 3bce 403e 58c8 013d bcf9 493d
00000030: 1916 83bd c412 e03c 25ee 6a3d 6125 febb
00000040: c5fc 383e b25f 873d 8b74 363e 2bf9 403e
00000050: 9847 043e 7617 b03e 598a 48bd 0379 8f3d
00000060: 4201 e3bc 21d6 963d e06e 2f3d d635 773e
00000070: 00b7 623e b233 a93d b6dc 7b3e fdc0 513e
0.19148314 -0.0065283473 -0.047887754 -0.19178948 0.04167885 0.14891164 0.029944455 0.22394794
-0.035979953 0.1882867 0.031685203 0.04931043 -0.06400699 0.027352698 0.05735602 -0.0077559208
0.18065174 0.06610049 0.17817895 0.1884505 0.12917936 0.343929 -0.048960064 0.07005503
-0.02771056 0.073650606 0.042830348 0.2414163 0.22140121 0.08261813 0.24595913 0.20483775

classification.0.weight f4 [1, 32, 1, 1]
00000000: ec69 093f db4c 0cbf 1b86 32bf e9e8 713e
00000010: 0c5b 133f 3825 65bf 9a7d 00bf 827f 9f3f
00000020: e772 16bf f7bc 393f 0512 243f f0d0 e2be
00000030: 1575 e0be efab 533f b82b 063e a9e5 f8be
00000040: bd21 f73e 08c6 a53f 43b3 903f 58ff a23f
00000050: e491 2d3f 422f 38bf 36e5 bdbe c475 1abf
00000060: ba63 09bf 2650 5e3f 340d 633f d08e 57bf
00000070: 8e43 a63e 5d96 17bf 204a d0be 57fa 003f
0.5367725 -0.5480477 -0.6973588 0.23624004 0.575608 -0.89509916 -0.5019165 1.2460787
-0.5876908 0.7255396 0.64089996 -0.44300032 -0.43839327 0.82684225 0.13102615 -0.48612717
0.48267928 1.2951059 1.1304706 1.2734175 0.67800736 -0.7194711 -0.37088937 -0.60335946
-0.53667796 0.86841047 0.8869202 -0.8420229 0.32473415 -0.5921381 -0.40681553 0.5038199

regression.weight f4 [4, 32, 1, 1]
00000000: 3607 343d 5750 d13c ed3e 8a3c 2dda 643d
00000010: bcc8 8cbd f8b0 cbbc 86e0 c03d 15b1 c9bc
00000020: 7658 8a3c 48f7 b8bd 2599 7d3d 05f5 183c
00000030: 3b04 dbbc 0372 323d 6bc0 28bd 8ed2 d8bd
00000040: 2e2f e6bb 49c4 85ba 8fc3 47bb 3ed2 053d
00000050: fb55 13bd 4ce0 a8bd 6485 3e3d 6ccc c23c
00000060: aafa 40bd 9a7c be3d 67a3 313c eb86 0ebe
00000070: d265 d0bd 673e 8dbc 1b03 45bc faa9 053d
00000080: f0f4 9bbc 51c7 653d 9508 683d f00d 423e
00000090: 955a 95bb 84eb 583d 2946 e13c 9b3d babb
000000a0: 139e 723c bd71 42bd c9d6 253d 63ce a73d
000000b0: ac28 5e3d ece1 6f3d 2209 e83c ec51 88bd
000000c0: 569a 1a3d 2010 d6ba 11d4 0dbc 1604 3f3d
000000d0: 67ee 5dbd afa4 52be bc35 c13b e81a 93bd
000000e0: 2a0b 1abd 0bd3 9a3d 2dae bb3d de0b ddbd
000000f0: 3c46 78bc f485 b8bd 0160 56be d605 65bd
00000100: ce69 d43c d7dc 4ebd 7fef 2b3c 1834 0cbe
00000110: c92e 8cbd b8bf 00bd 9110 6d3d 045d f13c
00000120: 0090 cbb8 3cfd acbd 4978 633c 4d18 80bd
00000130: c002 80bd cbfe 83bd 86b6 fc3d c14e fbbb
00000140: bb84 953d 169a e5bb 929b 1fbc 9b93 20bd
00000150: 056f 8d3d 0a07 843d 3d5c c7bd f757 e63d
00000160: 5831 293d 5ea0 d43c 91fa cabc e138 a43b
00000170: 0523 b4bd eccc 883d 3681 c43d a419 533c
00000180: a504 6dbd 2c53 54bd 302f 5b3d 156a a3bd
00000190: 7b05 8abb 3ea7 233d 4192 21bc e537 583d
000001a0: 716f f0bb 48fb 6fbd 82b7 bcbc 9b77 c8bc
000001b0: 5713 193c b97d a4bd 5c1b 853e 7102 613d
000001c0: 97a7 33bb 3815 3dbc 3c9c a5bc 4a3a 1bbd
000001d0: 7a15 9b3d feb2 7e3b b188 3cbe 8997 5a3d
000001e0: 655f af3d 014f 9dbc b2de 1e3d c906 ba3d
000001f0: d8b3 063e bf6f e33c c100 75bd 12d7 003c
0.04395219 0.025551004 0.016875708 0.05587213 -0.068742245 -0.024864659 0.094178244 -0.024620572
0.016887885 -0.0903154 0.061913628 0.009335761 -0.026735416 0.04356576 -0.04119913 -0.10587035
-0.007024667 -0.0010205592 -0.0030481552 0.032671206 -0.03597067 -0.08245906 0.04651393 0.023779117
-0.047114052 0.093011096 0.010842181 -0.13918655 -0.10175671 -0.01724167 -0.012024666 0.032632805
-0.019037694 0.056098286 0.05664881 0.18950629 -0.0045579174 0.05295898 0.027499275 -0.0056836135
0.014808196 -0.04747175 0.04048804 0.08193662 0.054238006 0.058565065 0.028324667 -0.0665625
0.037744842 -0.001633171 -0.008656518 0.046634756 -0.054182436 -0.20570634 0.005896298 -0.07182866
-0.037608303 0.075597845 0.09164081 -0.10793279 -0.015153464 -0.090099245 -0.2093506 -0.05591377
0.025929358 -0.050503578 0.010494112 -0.13691747 -0.06844861 -0.031432837 0.057877127 0.029463299
-9.7066164e-05 -0.08446738 0.013883659 -0.06254635 -0.062505245 -0.06445082 0.12339501 -0.0076693003
0.07300707 -0.007006894 -0.009741681 -0.039203268 0.06905941 0.06446655 -0.0973439 0.11247247
0.041306823 0.025955375 -0.024777682 0.0050116633 -0.08795742 0.06679711 0.095949575 0.012884531
-0.057865757 -0.05183713 0.0535118 -0.07979218 -0.004212079 0.039954416 -0.00986153 0.05278768
-0.0073375036 -0.05858925 -0.023036722 -0.024471095 0.00934299 -0.08031792 0.25997436 0.05493397
-0.0027413124 -0.0115407035 -0.0202161 -0.037897386 0.07572456 0.0038864012 -0.18411519 0.05336717
0.08563117 -0.019202711 0.038786598 0.090833254 0.13154542 0.027763246 -0.059815172 0.007863777

regression.bias f4 [4]
00000000: 357c 013e 24cf b6bd 3baa 6fbd d126 873c
0.12645037 -0.08926228 -0.058511954 0.016498001
