Chapter09/q_net_CartPole.pth (torch_old, 170181 bytes, 8 tensors)

layer.0.weight f4 [64, 4]
00000000: 0ead 253f dc88 fb3e 5565 55be c35e 4a3e
00000010: a215 133f a198 ab3e 29e5 153f ccdf 883d
00000020: 93c3 24be 61f4 64bc 6094 d6be e55c 3bbf
00000030: b736 eebd a785 a7bc 8714 15bf 1997 1dbf
00000040: a781 343f d273 343f 12bc d9bd f2d9 ae3e
00000050: 4c19 91bb 35f4 14bd 55bd 8e3e 338b e93e
00000060: 6953 86bf 400f 26bf b3ce 953e 3ebb d6be
00000070: 4ff1 a53e f3c1 06be f2cf 1cbf 88fa 05bf
00000080: a249 533e 30e4 853d 406e 843e c15f 303f
00000090: 2d66 1cbd 7d05 bc3e 081f bfbe d5d2 053e
000000a0: 2eac b23e f634 14bf 2e03 fdbe db7e a0bd
000000b0: 1b0a 37bf 230a 31bf 06a1 b6bc 21df c7be
000000c0: bca3 2a3f 8701 d4bd 1913 0b3d f691 9abd
000000d0: 4744 e73c 67bb 0f3f e68b 72be 3322 663e
000000e0: 18c6 813d e013 44bd 8e57 b0be e840 fcbe
000000f0: ce95 b6bd 7c69 eabd 0e5d a9be 49f5 363e
00000100: 950a 983d 6380 023e d7d6 453f cc50 803e
00000110: e82a 63be 6fff e93d 269c 1cbd a714 323f
00000120: e9ce 17be ed25 18be 5348 4dbe 003b febe
00000130: 48a4 6a3d 5144 b43e 720b 09bf 6637 05bf
00000140: da1f 5bbf bc9b 6dbe 8200 14bd 333c 913c
00000150: 6f51 273f f8d1 a33d 0b11 5f3e 2c61 493e
00000160: 6b52 5e3f b9d6 1b3f f66a f9be 4101 c63e
00000170: c800 ab3e 2744 d83e 5d42 203c 4a60 cbbd
00000180: 5c01 623e 0011 ccbd 2680 773e 6bfe 71bb
00000190: 1fe3 1c3f 2662 a53e ea4f a63e 3caf 09bc
000001a0: ea23 093f 8693 14bf 3416 963e be29 73be
000001b0: 1775 5bbe 89ff 44be 6d91 47bf d743 16bf
000001c0: a4fd e33e ef26 32be 39ec 0dbf c497 8bbe
000001d0: 7e8e 23bf ed2c 65be 0645 82be f3c8 bdbd
000001e0: c6f6 203f 004f 1dbf 1dcb 23be 3af1 4fbe
000001f0: b48d 883e 5ea5 723e ead1 b83e c96c 303f
00000200: 3b62 9b3e 0718 aebd 9161 0c3f a065 2abc
00000210: df10 1b3f c7a3 3dbe 76da 8a3e 6097 cdbe
00000220: bafa 493f 295d 5b3e fbfd 933e 75a1 be3c
00000230: b138 f9be 681c f2be 5ae3 d63c 968f 08bd
00000240: 6084 a33d 4b90 bdbc f194 06bf 055f 1dbf
00000250: 034c 8e3e bf20 04be e105 4bbe 0fdd 30bd
00000260: c23d 1f3f e2ee 37bc e8fa ae3d e4f2 90be
00000270: bb86 1c3f d743 dbbe 259f bdbe 9057 02bf
00000280: 90fa 0f3e 9558 a2be 3d1e 28bd 8ad2 a0be
00000290: a225 68bd 34b7 01bd 3bbe 9ebd bd12 b5bd
000002a0: 46b4 753f c5ca 1d3f c5c7 d63d 1365 ad3e
000002b0: 099e a83e 67ec 92be e4d6 9a3e bbdb adbe
000002c0: 7f43 0d3e 3517 b13e c2eb 56bf 64cb d5be
000002d0: 0f7a fcbc 0ad4 f83e 7320 0d3f 0e96 97bd
000002e0: 84d0 8dbe ca5c 5b3e 5978 bdbe 828b 783e
000002f0: 25ee 96bd 2d9a 3c3c 6fa2 253f 69ee 90bd
00000300: f735 c5bd b19c 0fbe 279a 1bbf 2701 a5bd
00000310: 4788 39be c521 f73e f99b 4a3d 7c9a 74be
00000320: 6fd9 e8be 22ee 0ebf 1ab4 4a3e efd3 83be
00000330: ffb3 eb3e c9c2 69bd d465 d0bd b4f0 9f3e
00000340: d41c 3bbf ac0c b13e f215 d13e c986 65bc
00000350: 6fdf 8abe dfab fc3e 36ea d0be 57ca 7ebe
00000360: a6ef 053e c470 c2be 462a 493e acca a1be
00000370: 65ea 403c 36aa 163d b9b1 393f 3f90 303f
00000380: fe53 113f 8cff 05bf 5f44 963e bf1d c43e
00000390: 8199 65be 8cdd f0bd 4e9f 29bf 77a4 f0be
000003a0: dadb 073e e28b 73bd b1f3 0c3f 0cb8 54bd
000003b0: 4379 ea3e b2ca a3bd c7fc 2ebe 641f 103e
000003c0: 1b16 3d3f 96d3 11be 44c6 643e 09fe 823e
000003d0: 5851 c6be 2c38 d2be 10cc 873e f69b a4bd
000003e0: 6c64 03be b69a 1a3e dea2 b23e 692b afbe
000003f0: 9402 c0be ee32 e9ba 2409 02bf c5ca 80bd
0.64717185 0.49127853 -0.20839436 0.19762711 0.57454884 0.33514884 0.58552796 0.06683311
-0.1609023 -0.01397428 -0.41910076 -0.7318862 -0.1163153 -0.020449473 -0.5823445 -0.6155868
0.70510334 0.7048923 -0.10631575 0.34150654 -0.0044280645 -0.036365706 0.27878824 0.45614013
-1.0494205 -0.6486702 0.2925926 -0.4193973 0.32410666 -0.13159923 -0.612548 -0.52335405
0.20633557 0.06537664 0.25865364 0.6889611 -0.03818338 0.36722937 -0.37328362 0.13068707
0.34896988 -0.5789331 -0.49416488 -0.07836696 -0.71499795 -0.6915609 -0.022293579 -0.3903742
0.6665609 -0.10351854 0.03395376 -0.07547371 0.0282308 0.5614533 -0.2368618 0.22473983
0.063366115 -0.047870517 -0.344418 -0.4926827 -0.08915292 -0.11445901 -0.33078808 0.17867006
0.07423893 0.12744288 0.77280945 0.25061643 -0.22184336 0.11425673 -0.038234852 0.6956276
-0.14825024 -0.14858218 -0.20047121 -0.49654388 0.057285577 0.3520837 -0.5353309 -0.52037656
-0.85595477 -0.23203939 -0.036133297 0.0177289 0.6535863 0.07999033 0.21783845 0.19665974
0.8684451 0.60874516 -0.48714417 0.38672832 0.33399034 0.42239496 0.009781447 -0.09930475
0.22070831 -0.0996418 0.24169978 -0.0036925327 0.6128406 0.32301444 0.32482845 -0.008403596
0.53570426 -0.580376 0.29313815 -0.23746392 -0.21431385 -0.19238104 -0.7795628 -0.58697265
0.4452945 -0.17397664 -0.5543857 -0.27264225 -0.638893 -0.22380419 -0.25443286 -0.09266844
0.62876546 -0.6144867 -0.1599545 -0.20306864 0.2667061 0.23695895 0.36097652 0.6891599
0.3034838 -0.085006766 0.54836375 -0.010400206 0.6057262 -0.18519507 0.27119797 -0.40154552
0.78898203 0.21422257 0.2890471 0.023270348 -0.48676065 -0.47287297 0.026231457 -0.03334006
0.07984233 -0.023140093 -0.52571017 -0.61473113 0.27792367 -0.12903117 -0.19826461 -0.043179568
0.6220361 -0.011226388 0.0854395 -0.2831031 0.6114308 -0.42825195 -0.3703548 -0.5091486
0.14060426 -0.31708208 -0.041044462 -0.3141063 -0.056676514 -0.031668857 -0.07751127 -0.08841465
0.959782 0.61637527 0.10487322 0.33866176 0.3293307 -0.28695986 0.30242074 -0.33956704
0.13795279 0.34588018 -0.8395349 -0.41756737 -0.03081992 0.48599273 0.5512764 -0.074016675
-0.27698147 0.21422115 -0.3700588 0.24271968 -0.07369641 0.011511368 0.6470098 -0.07076723
-0.096294336 -0.14024617 -0.6078209 -0.080568604 -0.18118392 0.48267952 0.049465153 -0.23887056
-0.4547839 -0.5583211 0.19795266 -0.2574763 0.46035764 -0.057070527 -0.10175672 0.3123833
-0.73090863 0.3457998 0.40837055 -0.014009186 -0.2712359 0.49349877 -0.4080369 -0.24881874
0.130797 -0.37976658 0.19645032 -0.3159994 0.011774634 0.03678342 0.7253681 0.689701
0.56768787 -0.5234306 0.29349038 0.38303944 -0.22421838 -0.11761007 -0.66258705 -0.47000477
0.1326746 -0.059459575 0.55059344 -0.051933333 0.4579564 -0.079976454 -0.17088614 0.14074475
0.73861855 -0.1424087 0.22341257 0.25584438 -0.38733935 -0.4105848 0.26522875 -0.0803756
-0.12831277 0.1509808 0.34889883 -0.34212807 -0.37501967 -0.0017791667 -0.507952 -0.06288675

layer.0.bias f4 [64]
00000000: 321e 0f3f b7b5 ef3d a5d6 53be 61d0 47be
00000010: a34b 973d e0d9 debd 6820 4ebd fb89 173f
00000020: 9c27 3ebe a9e3 053f 31d4 b63d 65ab bf3e
00000030: bd73 c3bc a27f cd3e b47e 363f ffd3 f5be
00000040: d8d6 123c 7ce9 f63d 7ace cb3d 8fda e9be
00000050: 3df9 18be f2c4 2c3f 4762 c23d 585a 0c3f
00000060: ace5 d13e f41d 0f3f 2af3 b03d 8dce ce3c
00000070: b585 eb3d 49a7 3ebd a31b c33d 077c 563e
00000080: b507 ca3e 5846 323f 391d d33d a7a0 393d
00000090: 0edd 103f df47 d6be bd4b bc3e d615 053f
000000a0: bf49 11bf 1cc8 0f3f f580 c23d cfba 0ebf
000000b0: 3c0a f8be 044a 163f dc84 ddbe 0198 0e3f
000000c0: a611 22bf 8398 b03e 61e5 1abc 75aa 2f3f
000000d0: ec59 b8bd 2db1 7e3e 62ca 23bf 5c76 8cbd
000000e0: 158e 17be d0b6 f33b 1056 a53e 6dbe 1d3f
000000f0: 415d 133f 079e 103d f91b 353f 2258 1ebf
0.5590545 0.11704581 -0.20687349 -0.19513084 0.073874734 -0.108814 -0.050323874 0.59194916
-0.18569797 0.52300507 0.08927191 0.3743545 -0.0238589 0.4013644 0.71287084 -0.48013303
0.008962356 0.12056252 0.09951492 -0.4567456 -0.14938827 0.67488015 0.09491401 0.54825354
0.40995538 0.5590508 0.0864013 0.025244975 0.11500112 -0.046546254 0.09526756 0.2094575
0.39459005 0.69638586 0.10308308 0.045319226 0.565873 -0.41851708 0.36776534 0.51986444
-0.5675315 0.5616472 0.09497253 -0.557538 -0.48445308 0.5870669 -0.43265426 0.5570069
-0.6330818 0.34491357 -0.009454102 0.6861947 -0.09001526 0.24872275 -0.63980687 -0.06858513
-0.14800294 0.0074375644 0.32292223 0.6161869 0.5756417 0.035306957 0.7074581 -0.6185323

layer.2.weight f4 [128, 64]
00000000: 6542 2ebe e545 93be 0299 c13e ea97 ac3e
00000010: d26b 0ebf b593 a1be ee34 94be 2d7e 233e
00000020: 0d37 a3be 366d 31bc 150a 463d e063 c83e
00000030: 2ea9 2ebe 2ded 7cbe b7a4 933e a84f b63b
00000040: c656 15bf 366d 14be a43f ca3e 0256 863e
00000050: 8393 62be e874 bebd d928 8ebe 20b3 a0bd
00000060: ba2c 003e c8af 3cbd 1402 1fbe ceae 0d3f
00000070: d6e3 6b3e e916 db3c a474 723d 8143 a6be
00000080: 312d ce3c c8cf 013e c698 08be b38d 893e
00000090: ca6a 973e 06a2 b5bd cd82 5cbc 7f22 963e
000000a0: 01ce e8bc bf47 5d3e 9ece 1ebf a13c ecbd
000000b0: 17f6 133e 56f5 c3bd a415 dbbd 6e7a 303d
000000c0: 2258 cebd f3ac a7bd 9462 a93d 5630 913c
000000d0: 6764 1abf 34b3 c53c 2a1b 1dbe 7e3e 81be
000000e0: 954d 81be 8832 dc3e 623b 97bc 5cd1 473c
000000f0: 355e bc3d 3678 a73e 1cdb 7b3e 824d a03d
00000100: 0045 a73d a9af 333e 4fe6 74be 70d9 3fbd
00000110: 03e7 763e 46cc a2bd 00f0 253f e4b1 923d
00000120: ba17 20be ca08 2e3e 8a57 c23e 058f 263d
00000130: 945b 0e3e 6faf ab3d fe8e 623e e1c3 2bbe
00000140: b579 323b 96d6 3b3d 8ccc ab3d a106 db3d
00000150: 92e1 2e3e 76a7 993e b6b2 863e 6b16 303e
00000160: d3ca 653e 64b1 fa3d 3e87 ac3e 1459 b4be
00000170: a844 5f3e 6aac ca3e 7a19 063f 2117 b93d
00000180: 0476 4d3e 4732 7e3e 699b 543e ccb3 4c3e
00000190: 2689 f73d 58b1 03be ca2c d53d cd3c 1b3d
000001a0: b74e e6bd 8d79 8e3d ab62 da3e 18ec 1dbe
000001b0: a3a6 91bd 6166 393e e7a0 13be ebb3 413e
000001c0: dc5a ebbd ec81 c53d ff7f 743e 9290 823e
000001d0: c5b9 833e f8fb dc3c 38bc d4bd 9483 05be
000001e0: f4c5 9b3e e0b6 3ebe c673 e83d dbf4 213e
000001f0: 3b86 523d 53c9 2f3e ec4f 6c3e 6d8d 72bc
00000200: cf54 9f3d 22db cebe 99f7 993e 6cdd 4b3e
00000210: b6d1 c7be cfe0 b13e 537a 38bf 1711 f03d
00000220: 7a1d 6e3e cb65 5c3d 917a d1be 178e b33d
00000230: e8e2 80be c9f7 2a3b 7fc2 5d3e b098 25bc
00000240: 79a6 203e b677 b93e ffbb 133e 7320 ab3c
00000250: ecae f3be 3792 fbbc 2a43 94be f42a 95bd
00000260: c9c6 e53d 4cd0 bfbc 98a5 d4be db18 9e3e
00000270: 7a4e 913b 21ef d6be 0640 d2be 986d 613d
00000280: d6fc 8dbd 2356 d63d 4463 63be 2b0c 63bd
00000290: d950 b53d cc15 b9bb eb8d 323e f504 9b3d
000002a0: f310 80bd 9fab 533e 8c1b 07bf fea0 eabd
000002b0: 0abb 7c3e 6818 a4bd 915e a5bd 0f6f 333e
000002c0: b87c cfbd 7db8 013e 2d33 a3be 4b3b d03c
000002d0: f86b febe ed60 c63d 1dea d9bc cb08 e03e
000002e0: eabf 4c3d 51ec c03e c36a 78bc e244 1c3c
000002f0: 3a97 593e becc 03bd 22c9 bb3d 4306 dd3c
00000300: ae3a 9e3e 49b4 823e 8ddd d4bd 6c23 78bd
00000310: bbdd b53e b4ee 70bd 591c db3e 1ba4 5a3e
00000320: 07e0 7dbe a326 713e 0c23 b13e f1a5 163e
00000330: afd2 a33d e7c9 4f3d 8d9e 103e 05f2 93be
00000340: f6b4 a53c fe2b a6bc 41af 06bd 89bc b4bd
00000350: 1ed2 dc3d 939f 773e ab81 a13e 5f41 2b3e
00000360: 1e75 923e dbd7 a33d 7e44 e73e 76f3 3bbe
00000370: dc54 a93d d40c b73e a897 103f c13f f93d
00000380: 5bad 353e 1c91 623e 08ff 293e 31ed 373e
00000390: dffd 4a3e 3311 e8bd dad0 0f3d ce2a 383e
000003a0: 657c 5dbd 76dd 863e ce22 983e dad1 7bbd
000003b0: 75e6 1ebd eaa9 0d3d 502d b4bd 794a a33d
000003c0: 0a44 5bbe 646f 583d 6ad9 2c3e 4b02 643e
000003d0: d471 e03e af60 b93d 1e2b 96ba efe5 81be
000003e0: afae a23e 377b 1ebe 0ddd af3d 59d9 023e
000003f0: 0432 843e fd2a 063c 7cbc 203e 57e1 03bb
-0.17017515 -0.28764263 0.37812048 0.3370965 -0.5563327 -0.31558004 -0.28946632 0.15966101
-0.31877938 -0.010829261 0.04834946 0.391387 -0.17056724 -0.2469985 0.28836605 0.005563695
-0.5833553 -0.14494786 0.3950168 0.26237494 -0.22126584 -0.09299642 -0.2776554 -0.078466654
0.12517062 -0.046066076 -0.15528136 0.55344856 0.23036131 0.026744323 0.05919327 -0.32473376
0.025168033 0.12676919 -0.13339528 0.2686592 0.2957366 -0.08868794 -0.01345892 0.29323193
-0.028418543 0.216094 -0.6203402 -0.115350015 0.14449345 -0.095682785 -0.10697487 0.043085508
-0.10075404 -0.08187284 0.082707554 0.017723244 -0.6030945 0.024133302 -0.15342394 -0.2524299
-0.25254503 0.43007302 -0.018460933 0.012195911 0.09197656 0.327089 0.24595302 0.078272834
0.081674576 0.17547478 -0.23915981 -0.046838224 0.24111561 -0.07949118 0.64819336 0.07162836
-0.15634051 0.1699554 0.37957412 0.040663738 0.13902122 0.08383071 0.2212486 -0.1677394
0.0027233188 0.045858942 0.083886236 0.10694624 0.17078236 0.30010575 0.2630822 0.17196052
0.22440653 0.12240866 0.33696932 -0.3522421 0.21803534 0.39584666 0.52382624 0.090376146
0.2006455 0.24823867 0.2076241 0.19990462 0.12086706 -0.1286062 0.104089335 0.03789978
-0.112454824 0.06956778 0.42653403 -0.15422094 -0.071118616 0.1810546 -0.14416848 0.1891629
-0.114919394 0.09643921 0.23876952 0.25500923 0.25727668 0.026975617 -0.103874624 -0.13038474
0.30424464 -0.18624449 0.11350207 0.15816061 0.051397543 0.17166643 0.23077363 -0.014804226
0.07779848 -0.4040156 0.30071715 0.19908684 -0.39027184 0.34741828 -0.7206165 0.1172201
0.23253432 0.053808015 -0.40913823 0.08767336 -0.25173116 0.0026087633 0.21656226 -0.010107204
0.15688504 0.36224145 0.14427184 0.020889496 -0.47594392 -0.03070937 -0.28957492 -0.07283583
0.11219556 -0.023414753 -0.41532588 0.30878338 0.004434404 -0.41979316 -0.4106447 0.055036157
-0.0693299 0.10465648 -0.22205836 -0.055431526 0.08853311 -0.0056483503 0.1743695 0.07569305
-0.06253233 0.20670937 -0.5277641 -0.11456488 0.24680725 -0.080124676 -0.08074678 0.17522834
-0.1013121 0.12668033 -0.31874982 0.025418898 -0.4969175 0.09686456 -0.026600892 0.43756709
0.04998771 0.37680295 -0.015162173 0.009537907 0.21249095 -0.03217768 0.091692224 0.026980525
0.30904144 0.25528172 -0.1039382 -0.060580656 0.3552073 -0.058821395 0.42795065 0.21351664
-0.24792491 0.23549895 0.3459705 0.14711739 0.07999169 0.05072966 0.14122982 -0.28895584
0.02022789 -0.020284649 -0.03288198 -0.08825023 0.10782264 0.24181966 0.3154424 0.16724156
0.28604978 0.080001555 0.45169443 -0.18354592 0.08268139 0.35751975 0.5648141 0.12170363
0.17741911 0.22125667 0.16601193 0.17961575 0.19823407 -0.113314055 0.035111286 0.17985079
-0.05407371 0.26340836 0.29714054 -0.061479427 -0.038794 0.03458587 -0.08797705 0.07973189
-0.21412674 0.052840605 0.16879812 0.222665 0.43836844 0.09051644 -0.0011456942 -0.25370738
0.31773898 -0.1547669 0.08587084 0.12778224 0.2581941 0.00818896 0.15696901 -0.0020123327

layer.2.bias f4 [128]
00000000: bf7c ef3d 54b0 883e b34e 293d ad7c 963d
00000010: ab47 823e 8f0c b13d 4d73 3b3d a995 013e
00000020: 478d a6bd 421b 673e d4a4 543e 32d1 543e
00000030: ffdd 5d3e a614 783e 5754 8b3e cc8f db3d
00000040: b9fd 163e 6553 9d3d ab13 763e 6328 803e
00000050: a88e 403e dbba 2a3d ef48 503e e12d 8ebd
00000060: 499d 883e 6956 e13d a56f 973d face 253e
00000070: fa02 cb3d 72cf 8a3d 760c 893e ce49 453e
00000080: d997 463e 16d3 243e 205d 873e 2c2c 91be
00000090: b0d8 8ebe 2798 353e c520 543e 4197 873e
000000a0: 2f85 293e 66d4 893e 76ef 543d e85f 53be
000000b0: aa1f 5f3e caa0 3f3e d4c6 8c3e 30af d03d
000000c0: 6327 2e3e 63a5 50be f7ce 3c3e d6c5 6a3e
000000d0: 9fd3 653e 5945 a23d c7fe 033e 9b3b 6a3e
000000e0: 7c70 423e a792 333e a22e de3d d7cc ab3d
000000f0: 6390 143e e982 533e 55fa 6c3e 22ea 7a3e
00000100: f02d 8fbe 866e 183e 1fd4 91be 9588 34be
00000110: 6baf 923e 4553 413e 814c a03d 0b9e 773e
00000120: 04da 8b3e d445 6a3d 4ee9 5a3e 331e 4e3e
00000130: 3f88 2b3e 4fc9 033e e0c1 7dbe 4a49 7f3e
00000140: 9bdb 0a3e 8aa5 7a3e 6312 4f3e b548 353e
00000150: 40ee 233e 61d3 843e 28b0 b93d 67dc 513e
00000160: 04c5 453e 71f8 793e 3e42 683e 2325 283d
00000170: 2023 93be b880 4d3e 8169 243e fb36 43be
00000180: 9c58 6d3e 70be 433e 8938 8dbe fe7c db3d
00000190: 09a5 e93d 42d1 8c3e 6196 893e 6900 2ebe
000001a0: a375 6c3d bbaa b7bd ee91 7c3e e372 543e
000001b0: 311d 643e e09a 333e 3a74 813e 91c8 9a3d
000001c0: 798b a73d 545f b33d 17da d33d 13aa 883e
000001d0: f367 8ebe 9a1a 753e c20f 353e 6012 153e
000001e0: ad64 2c3e 5360 91be e70c 263e e3d7 483e
000001f0: 99f6 993d 9f2c 113e a5fc 4d3e 5fd0 943d
0.11693715 0.26697028 0.04133482 0.07347999 0.25445303 0.086449735 0.045764256 0.12654747
-0.08132415 0.22568992 0.20766002 0.20782927 0.21666716 0.24226627 0.27212784 0.107207865
0.14745225 0.07681922 0.2403094 0.25030813 0.18804419 0.041682106 0.20340322 -0.069423445
0.266825 0.110028096 0.073943414 0.16192237 0.09912677 0.06777848 0.2676732 0.19266436
0.19393863 0.16096148 0.26438236 -0.28354013 -0.27899694 0.17733823 0.20715626 0.26482585
0.16554712 0.2691986 0.05198618 -0.20642054 0.21789423 0.1871368 0.27495444 0.10189664
0.17007212 -0.2037559 0.18438326 0.22927031 0.22444008 0.07923383 0.12890159 0.228743
0.18988222 0.17536412 0.10848738 0.083886795 0.14508204 0.20655407 0.23142369 0.24503377
-0.27964735 0.14885911 -0.28482148 -0.17630227 0.28649458 0.18879421 0.07827092 0.24181382
0.2731477 0.0571955 0.21378061 0.20128708 0.16751193 0.12869762 -0.24780989 0.24930301
0.13560335 0.2447721 0.20221858 0.17703517 0.16008854 0.2594252 0.09066802 0.20494233
0.19313437 0.24411179 0.2268152 0.04105104 -0.28737736 0.20068634 0.16055872 -0.19063942
0.23178333 0.19115615 -0.27582195 0.107172 0.11408431 0.275034 0.26872543 -0.16992344
0.057729375 -0.08968111 0.24665043 0.20746951 0.2227676 0.17539549 0.25283986 0.07557786
0.08180899 0.08758417 0.10344332 0.26692256 -0.27813682 0.23935929 0.17681792 0.14557791
0.1683528 -0.28393802 0.1621586 0.19613604 0.07517738 0.14177178 0.20115907 0.07266306

layer.4.weight f4 [256, 128]
00000000: 84ba cfbe d291 7d3e 6850 eabe cafd 5d3e
00000010: caa3 7a3e ab59 6d3e faf9 1f3e 4018 703e
00000020: 585e 3bbe b530 103e edf2 ab3e 0392 3d3e
00000030: f6b6 393e 98de 5a3e 11f4 6d3e 54da afbe
00000040: 29d9 1d3e b044 813e ea36 583e f238 223e
00000050: 8485 093e ba3c 3b3e 9445 4a3e d6b3 5abe
00000060: 70c7 233e 302a 583e 0460 8a3e 2e33 823e
00000070: 1270 783e eed1 b1be d6f1 713e 3eb6 d8be
00000080: e094 053e 6dd7 863e ea58 7d3e 78df 15be
00000090: ea86 f0bd b47d 563e 1e2e 9a3e c50d 823e
000000a0: 81e5 043e 9472 453e 73a4 b2be 8033 81be
000000b0: 43d4 743e 5e39 5f3e fdd9 3d3e d1ae 7d3e
000000c0: 4f41 9f3e c5ba 69be 9945 893e beb0 393e
000000d0: 2d8e 503e b4d2 383e 8385 383e ba0b 183e
000000e0: bb41 703e 5b31 6c3e 95dd 7a3e a6de a0be
000000f0: 8c37 603e 4c5f 803e 29a7 7a3e f149 753e
00000100: f459 77be d3c5 793e a914 1cbe 203d 43be
00000110: 3deb 493e 4e31 963e d37c 5b3e 8ff3 943e
00000120: 00f2 6f3e 7585 543e ccc3 fc3d 5230 5d3e
00000130: 78f1 edbe ec45 e63d b66e 26be bad3 923e
00000140: 651c 7a3e 566c 6f3e 8263 9c3e c89b 913e
00000150: eb30 8abe d365 3d3e 3264 6a3e 638d 473e
00000160: e4ea bcbe 9dfc 873e 50d3 5e3e 6ff5 983e
00000170: fb0c 92be c1b3 763e ea25 6c3e f2d2 20be
00000180: 9105 5b3e 5124 4a3e 93d8 13be 2be9 0b3e
00000190: 2da9 8e3e c089 953e 2767 593e e671 b1bd
000001a0: 6adf 303e 1e7d 70be 257c 933e 4fbf 883e
000001b0: d89e 6b3e ec93 883e 6f6b cc3d 235f 963e
000001c0: 9a3d 9f3e 872e 0e3e 4675 fb3d a5c8 323e
000001d0: ec90 84be 07de 103e 9d07 7d3e 5e55 993e
000001e0: 3a94 3a3e abba 1ebe 4e6e 4a3e 13dd 05bf
000001f0: fa60 983e aed4 773e a83e 1f3e a5c8 ae3e
00000200: ca12 203e 9172 49be c1b2 553e 354d 7dbe
00000210: 6195 c8bd 61dd 93be 7fc0 52be 1243 85be
00000220: e9cd 543e 3f80 4cbe ecbc 27be 7ac6 6ebe
00000230: 69c5 6dbe dc81 3cbe ff0b 0cbe 2007 9b3e
00000240: 4006 6cbe 6db4 94be 49a9 2dbe 6f85 6bbe
00000250: f1e9 7ebe 7735 41be 7da7 85be afd4 573e
00000260: d6c9 54be 127b 70be 321b 85be d08a 8bbe
00000270: 2cdc 0dbe c21c 5c3e b54f f5bd 46e9 fe3d
00000280: a328 c9bd aed7 64be 550c 6bbe 052b 5f3e
00000290: 992e 703e 45ff 8fbe 7d8f aabe a848 22be
000002a0: 86b1 d1bd 2fc7 5cbe e13c 903e 0cfd 763e
000002b0: 4bbc 8cbe 3237 08be ec86 80be d0ac 17be
000002c0: 3560 75be e0b4 e53d b29a 9dbe c86a e0bd
000002d0: 168a 94be 609c 1bbe eeff 97be 9c11 5bbe
000002e0: 2559 91be a38a 29be 7020 4dbe f5bd 633d
000002f0: 3943 76be 4947 83be cd46 0fbe e785 3bbe
00000300: 84cd 663e 7135 6cbe 17fe 793e 1303 5d3e
00000310: 7a76 80be ff44 21be 335d 80be aa75 16be
00000320: eb8f a6be 2d79 d8bd f8f6 27be 0a7a d8bd
00000330: 14c7 7b3e 217b 38be a5c9 213e 2172 09be
00000340: 8054 86be 0473 23be 9096 67be 4aad 31be
00000350: 190f 133e a5ff 77be 79c7 56be 034b 00be
00000360: 5d81 b23e dcc3 a0be abac 47be 5edf 0fbe
00000370: 188b 903e 7f31 7cbe e709 a7bd 9bd7 fc3d
00000380: 6a63 94be 03d2 86be c80a 853e 9e93 f7bd
00000390: 5615 4abe 3bd7 80be 0fa8 fbbd e9f4 3e3e
000003a0: 1b6e 19be b2b2 633e f47c 7dbe f76b 9ebe
000003b0: a2ea 0cbe 247b 83be ef5e 3bbe 8489 f0bd
000003c0: 0b13 6fbe e15d 3fbe 85ec 19be ab79 89be
000003d0: 1f4e 123e e9be 66be 00fb 34be eb25 aabd
000003e0: d848 37be d8b9 1e3e c426 56be c414 c83e
000003f0: 7ea0 99be 0352 21be 2ee5 57be 0633 2fbe
-0.40571988 0.24762657 -0.4576447 0.21678844 0.24476543 0.23178737 0.15622702 0.2344675
-0.18297708 0.1408108 0.33583775 0.1851273 0.181362 0.21373975 0.23237635 -0.3434626
0.15414871 0.25247717 0.21114698 0.15842035 0.13429838 0.18284884 0.19753104 -0.21357664
0.15994048 0.21109843 0.2702638 0.25429672 0.24261501 -0.34730476 0.2362741 -0.4232654
0.13045073 0.26336232 0.2474095 -0.14636028 -0.11744483 0.2094639 0.3011331 0.2540113
0.12978174 0.1928199 -0.3489109 -0.25234604 0.23909096 0.21799228 0.18540187 0.24773718
0.31104514 -0.22825153 0.2681091 0.18133828 0.20366736 0.18049127 0.1801968 0.14848223
0.23462574 0.23065703 0.2449859 -0.31419867 0.2189619 0.25072706 0.24477829 0.23953988
-0.24155408 0.2439187 -0.15242256 -0.19066286 0.19718643 0.29334491 0.21434335 0.2909207
0.2343216 0.20754035 0.12342033 0.21600464 -0.4647329 0.11243805 -0.1625317 0.2867716
0.24424894 0.2338117 0.30544668 0.28439164 -0.26990446 0.18495874 0.22889784 0.19487529
-0.36897957 0.26559916 0.21760297 0.2987475 -0.28525528 0.24092008 0.23061338 -0.15705469
0.21388842 0.19740416 -0.14438085 0.13663165 0.27863446 0.29206657 0.21230756 -0.086643025
0.17272726 -0.23485228 0.28805652 0.26708457 0.23009813 0.26675355 0.09981429 0.2936946
0.31101686 0.13884936 0.122782275 0.17459352 -0.25891817 0.14147197 0.24709935 0.29947942
0.18220606 -0.15500896 0.1976864 -0.5229046 0.29761487 0.24202225 0.15551245 0.34137455
0.15632167 -0.1967261 0.2086897 -0.24736483 -0.09794117 -0.28879836 -0.20581244 -0.26027733
0.20781673 -0.19970797 -0.16380662 -0.233179 -0.23219837 -0.18408912 -0.13676451 0.30278873
-0.23049259 -0.29043904 -0.16959108 -0.2300012 -0.24893929 -0.18868051 -0.26104346 0.21077226
-0.2078012 -0.23484448 -0.2599731 -0.27254343 -0.1385352 0.21495345 -0.119780935 0.12446837
-0.09822204 -0.223479 -0.22953923 0.21793754 0.23455276 -0.28124443 -0.33312598 -0.15848029
-0.10238938 -0.21560358 0.28171447 0.24119967 -0.27487406 -0.13302305 -0.25102937 -0.14812016
-0.23962481 0.1121614 -0.30782086 -0.10957867 -0.290116 -0.15196371 -0.29687446 -0.21393436
-0.28388324 -0.16556792 -0.20031905 0.05560108 -0.24049081 -0.25640324 -0.13991852 -0.18312798
0.22539335 -0.23067261 0.24413334 0.21583204 -0.2509039 -0.15748976 -0.25071105 -0.14693323
-0.32531676 -0.105699874 -0.16402805 -0.10570152 0.24587661 -0.1801572 0.15799578 -0.13422443
-0.26236343 -0.15961844 -0.22616029 -0.17351261 0.14361228 -0.24218614 -0.2097453 -0.12528615
0.3486432 -0.3139943 -0.19499461 -0.14050052 0.2823112 -0.24628256 -0.081561856 0.12345811
-0.28982097 -0.263321 0.25984788 -0.120887026 -0.19734702 -0.25164208 -0.12287914 0.18648113
-0.14983408 0.22236136 -0.24754697 -0.30941746 -0.1376138 -0.25679886 -0.18297933 -0.11744979
-0.23347108 -0.18688156 -0.15031631 -0.26850638 0.14287613 -0.22533764 -0.17673874 -0.083080135
-0.17898881 0.15500581 -0.20913225 0.39078343 -0.30005258 -0.15753941 -0.21083519 -0.17109308

layer.4.bias f4 [256]
00000000: 14d2 313e 2c98 12be 9d74 83be 2f38 493e
00000010: a272 55be 047b 163e cd8a 89be 8290 5d3e
00000020: 62ae 353e 551f ac3d 1687 19be 0693 60be
00000030: 16aa 613e ab89 253e 7a3f 6dbe 68ad 843c
00000040: 88eb bb3d 58f2 c8bd c1de 373d 0b89 d73d
00000050: 653f 463e 8dad 1c3e e34c 213e 8f79 823d
00000060: a0e5 143d d90d 43be 3dfd b4bd 4e4f 0c3d
00000070: 1c18 283e 2cba e73c adc8 4a3e 7e4b 8d3d
00000080: 903a 813e 2269 ef3d 60e4 0abe bd5b b3bd
00000090: 15c1 ad3d bfb7 703e c10a 573e 3f4d b73c
000000a0: a69b 4dbe 7231 2bbe 9bca 263e 26e7 f4bc
000000b0: f56d 303e fe18 fdbc 0ff7 87bd 6d0a 333e
000000c0: 8f6b 763e f187 323e 337c b73d 4b9e 55be
000000d0: 1eda 16be 02a0 423e 668e 253e 5d12 143e
000000e0: af00 56be f5d6 8b3d a908 2ebe 31fe 5c3e
000000f0: 497d 2b3e 5296 6d3e d7f3 aabc 9313 63be
00000100: 9f28 1ebd c1c6 9ebb cb74 2e3e 1c5c cc3d
00000110: 1bf0 1dbe 18a6 9a3b ef94 9e3d 076a 4c3b
00000120: 63ec adbd 65ab 273e 18ea 853c b008 123e
00000130: c62a 9d3a 532b 30be c7a6 78be 2653 693e
00000140: e1f8 143e fbbe 7fbe 3aed 2e3e 5c2d 813e
00000150: 3e66 383e d16f dfbd 32fc ba3c 6ec2 633e
00000160: 1915 20be 7e98 b4bc 2b58 5b3e eb76 743e
00000170: 59b5 173d 0c5a 6b3e 523d 053e dfbb 1ebd
00000180: 4616 763e c5d8 253e b0d8 4dbe b26a 493e
00000190: e2ac 17be 0271 47bd 1dca d13d d832 d03d
000001a0: f326 3c3e 4b81 0b3e a860 5fbd a980 323e
000001b0: 9520 c0bc 6c39 293e 8434 84bc 07fc 6cbe
000001c0: 2d51 24bd 29ff 61be c833 d23d 76dd 6ebe
000001d0: 1d53 45bc bd55 7dbe 96d0 393e 07f3 5b3e
000001e0: 5303 08bd 997b 733e f7f5 3b3e d8e3 7a3e
000001f0: 2e91 8bbe 2c5a 193e 1234 563e ac0a dd3d
00000200: 9615 123d 8ab1 60be a9fd d43c 6549 683d
00000210: 99fd 20be 7069 ad3d 9c0f a83d 303c 063e
00000220: 8596 5abd 0270 d93c 12ae 5d3c b077 503a
00000230: 58bf 80be b471 0ebe df94 4b3e 00f7 28be
00000240: 18b9 3f3e db19 0a3d 3e30 20be 69f8 7ebe
00000250: 7e59 823d 4588 203e c86f 313d e46b 62bc
00000260: cc80 be3d bede 3e3e ea87 533e 33aa 2bbe
00000270: 784f b1bc 04aa cabd 19cd 89bd 2740 bdbc
00000280: ee9e d63d 6dac 54be c37d 923d 1d56 0c3e
00000290: 4a9e 543e 24e4 4fbe 1fe0 a03d 95b0 52be
000002a0: b71b 5a3e 9edc 813d e498 093e 2c0f b03d
000002b0: ac91 02be 787c 5e3e 1f14 34bd 91bf 473c
000002c0: 4d55 64be d736 2d3e e527 0bbe 4908 cc3d
000002d0: 1900 5c3d f8c3 49be 43e7 703e daaf 9d3d
000002e0: 0468 91bd 3ea0 d33c 9072 61be 4eb8 7e3e
000002f0: 3b11 78be b5b2 6d3e 271d 423e ff82 833e
00000300: d1af e0bd 566e 493e cde4 cd3d 71fd 373e
00000310: 781d e4bd dcda 213e e8ff a4bd bdfe 1a3e
00000320: f263 a03d 826b b73d 8348 7f3e 82f5 57bc
00000330: a467 c8bd 53ff 163d a3eb 48be e9ae 87be
00000340: 6670 efbc e57d 173e 5f79 60be b666 513d
00000350: 2965 82be 3601 653d 1a09 3d3e ba57 1e3e
00000360: 434a 3cbd 6921 5cbe 9b70 b039 9e67 bebc
00000370: a487 fdbd e0c3 a83d f47c 733e 3087 79be
00000380: 051c 05be 9bb4 a03d a65c c2bd 79a1 27be
00000390: 6a8f 933c 92df 2a3e ac8d 743e 74d5 4b3e
000003a0: e7f4 163e 2a60 64be a8ee 0b3e 62b0 4d3e
000003b0: 7c8b 133e d1cb 163e 73ca 043e ec04 463e
000003c0: 4b13 18be 443d 143e 445f e43d 15c2 713e
000003d0: 4253 983c db46 423e f236 213e 8e31 143e
000003e0: 455b 483e 8ea5 fa3d 3292 533e 968f 4c3e
000003f0: e330 173e c516 86be 0b43 ff3d 6e90 ef3d
0.17365295 -0.14315861 -0.25674906 0.19650339 -0.2084451 0.14695364 -0.2686371 0.21637157
0.17742303 0.084044136 -0.14992937 -0.21931085 0.22037539 0.16165797 -0.23168746 0.016195968
0.091757834 -0.098118484 0.04489017 0.10524186 0.1936012 0.1530058 0.15751986 0.06370842
0.0363518 -0.19048251 -0.08837364 0.03425532 0.16415447 0.028287016 0.19803114 0.068991646
0.25239992 0.11689974 -0.1356368 -0.08757732 0.08484093 0.23507594 0.21000196 0.022375701
-0.20078906 -0.1671808 0.16288225 -0.029895376 0.17229445 -0.030895706 -0.066389196 0.17484446
0.24064468 0.1743467 0.08959236 -0.20861165 -0.14731643 0.1900635 0.16167602 0.1446013
-0.20898698 0.06828109 -0.16995491 0.21581341 0.16747011 0.23201874 -0.020868225 -0.22175436
-0.038612958 -0.0048454707 0.1703674 0.09978506 -0.15423624 0.004719507 0.077432506 0.0031191127
-0.08492353 0.16373976 0.016346976 0.14261127 0.0011990897 -0.17204027 -0.2428237 0.22785625
0.14548065 -0.24975197 0.17082682 0.2522992 0.18007752 -0.10909999 0.022825334 0.22242138
-0.15633048 -0.02204537 0.21420352 0.23873489 0.03703818 0.22983569 0.13011673 -0.038753387
0.24031934 0.16195972 -0.20102191 0.19669607 -0.14812043 -0.048691757 0.10243628 0.10165948
0.18374233 0.1362354 -0.054535538 0.17431892 -0.023453036 0.16525811 -0.016138323 -0.23143016
-0.040116478 -0.22069992 0.10263783 -0.23326668 -0.0120437415 -0.24739738 0.18145975 0.21479426
-0.033206295 0.23777618 0.18355547 0.24500978 -0.272592 0.14975804 0.20918301 0.10793051
0.035665117 -0.21942726 0.02599986 0.05671062 -0.1572174 0.08467376 0.08206102 0.13108897
-0.053366203 0.026542667 0.013530271 0.0007952405 -0.25145984 -0.13910562 0.19881009 -0.16500473
0.18722951 0.033716064 -0.15643403 -0.24899448 0.063647255 0.15676983 0.043319494 -0.013819668
0.0930191 0.18639657 0.20657316 -0.16764145 -0.021644339 -0.09895709 -0.067285724 -0.02310188
0.10479532 -0.207689 0.071528934 0.13704725 0.20763507 -0.20301872 0.07855248 -0.20575173
0.21299635 0.063409075 0.1343723 0.08596644 -0.12750882 0.21727169 -0.0439645 0.012191669
-0.22298165 0.16915451 -0.13589437 0.09962518 0.05371103 -0.19703662 0.2352572 0.07699557
-0.070999175 0.025833245 -0.22016358 0.24874994 -0.24225323 0.23212703 0.18956433 0.2568588
-0.10971034 0.19670996 0.10053406 0.17967774 -0.11138433 0.15806144 -0.08056623 0.15136237
0.07831563 0.08956052 0.24930005 -0.013181092 -0.09785393 0.03686459 -0.19621138 -0.26500633
-0.0292284 0.14794119 -0.219213 0.051123343 -0.25467804 0.055909358 0.18460503 0.15463153
-0.04596926 -0.2149712 0.00033653234 -0.023242768 -0.12379387 0.08240485 0.23778135 -0.24367976
-0.1299897 0.07846948 -0.094903275 -0.1637019 0.018012721 0.16686848 0.23882169 0.19905645
0.1474186 -0.22302309 0.13665259 0.20086816 0.14408678 0.14726187 0.12967853 0.19337815
-0.1485111 0.14476496 0.11150983 0.23609193 0.018594388 0.18972342 0.15743616 0.14472029
0.19566067 0.12238608 0.20661238 0.19976649 0.14764743 -0.26189247 0.12463959 0.1169747

layer.6.weight f4 [2, 256]
00000000: cdc5 853e 3dfc 6fbe e311 45be e81e 883e
00000010: 8515 25be 0e3e 5b3e a09a 20be e832 353e
00000020: a87c 533e 89b5 823e 2e7f 71be 23d3 7bbe
00000030: f754 633e 6909 823e 23b2 5abe 7e8a c13e
00000040: 05a4 ea3d 19d0 47be e82a 19bd e563 5c3e
00000050: 3cd6 123e 7740 093e 10a1 1b3e 1f9d c7be
00000060: 7c88 06be 58ec 85be 26d9 14be 9157 1cbe
00000070: a22a 333e 8b43 813e 97bc 8a3e 7937 6f3e
00000080: d1ed 1f3e 20e2 793e 2420 79be c27c 81be
00000090: f561 603e ddb5 4c3e ca1f 493e 3a6e c63e
000000a0: 5610 75be 0459 5fbe d97a 853e 1ea3 af3e
000000b0: f799 793e f928 42be bf73 75be db0e 133e
000000c0: c011 253e 15af 7c3e 458d 863e 8ac9 55be
000000d0: eb23 60be 2168 093e 9bcb 823e 8328 5b3e
000000e0: 87e6 45be 7426 5e3e e046 33be 3cc5 613e
000000f0: 96ef 683e 209e 2c3e 8684 40be b712 40be
00000100: 19f0 9d3e 7565 9abd 7d98 613e e851 94bc
00000110: 3a41 80be 39f8 18be dbbd 23be 35d0 1cbe
00000120: 5e4d 50be b3b1 813e be4c 7dbd 2290 5e3e
00000130: 63f9 1dbe 67ef 42be e81f 7fbe 0462 6a3e
00000140: b2fc 623e 76f1 67be 9e8d 483e 093c 183e
00000150: d039 5f3e 1711 5ebe 7020 19be 2c92 393e
00000160: 359c fdbd 5a6e df3e d46c 8a3e dbcb 6f3e
00000170: b79d 693e a5d6 783e 4b67 253e 5099 69be
00000180: 03cc 453e be96 653e a3da 62be 8d2f 693e
00000190: 5b10 6fbe 7a5d 9d3e e4e8 623e 0e8b 433e
000001a0: 673d 693e a765 633e a674 4ebe 27d3 5b3e
000001b0: d63c febd af07 873e 5864 1ebe 4a7a 79be
000001c0: a066 08be 5193 22be 9dcd cc3d 47e7 1dbe
000001d0: da9d 27be c0aa 4dbe 66c0 733e 1517 823e
000001e0: a626 4dbe 0ab1 713e e847 103e 28b7 633e
000001f0: 2586 23be cad6 3d3e 3d39 763e 8f4a 953e
00000200: ac04 8e3e 842c 5dbe 979b f9bd 6f8e c1bd
00000210: 0f43 7abe f7f2 413e c11f 643e 13b7 803e
00000220: 5960 2bbe ec63 2cbe 993e 46be bf57 d43e
00000230: 4c10 6fbe 11c6 f3bd 99a5 d93d 3834 40be
00000240: 7eee 873e fe1f 9dbd 5901 30be c62e 72be
00000250: ba68 8a3e 6cf5 703e 085e 65bd 80b1 1abe
00000260: 6935 1a3e 3948 633e ff74 803e 556a 30be
00000270: 84c6 a03e 0a33 1cbe 8f7d cabd fe7b 9f3e
00000280: a233 843e 11fa 53be baf6 583e 7495 5a3e
00000290: 73f4 6f3e 64d8 41be 18a6 783e be70 2fbe
000002a0: 6444 1f3e 08f4 883e 208d 243e 3441 493e
000002b0: 81f7 7fbe a81b 69bd 610c f4bd 7e0b 10be
000002c0: 0bb0 1bbe 63fa 873e e673 47be ee20 143e
000002d0: 80d7 803e b4b7 6fbe bd31 593e b45a 8a3e
000002e0: a11c 9fbd 6964 30be 73a5 32be 95e5 613e
000002f0: 5229 75be aa0b 7e3e ef9a 843e e64a d73d
00000300: 91bf 87be c6a8 e93d 0e9c 823e 26d9 d93d
00000310: 1209 81be 0fda 313e 5862 b63e edd1 193e
00000320: 1690 853e 3ee6 833e 3156 1c3e e297 d3bd
00000330: 1568 63be 7c05 19be c768 6dbe c968 52be
00000340: fae7 09be 2b4e 413e 5d43 88be 0c14 8a3e
00000350: 431a 1ebe 52fe 22be 24a1 773e 3188 5c3e
00000360: 97af 3ebe e7ce 77be 039b 03be 9d63 d2bd
00000370: 21d9 18be 4ea2 7d3e 1a90 783e 7dd1 5fbe
00000380: f292 10be 9de6 f5bd 481a 63be 9b61 69be
00000390: e72d ddbd cab3 443e 8efe e03d e217 603e
000003a0: 97ff 843e 9790 53be 7573 8a3e a459 893e
000003b0: e501 713e d234 533e bc9c 713e ab1f 713e
000003c0: 52ff 47be e33f 6c3e 6c8f 333e 887f 803e
000003d0: 67f5 b23e f24b 303e 3f69 7f3e 7fb1 4c3e
000003e0: b9b7 5f3e a9cd 443e a9f1 3b3e 053c 8e3e
000003f0: 6ee1 763e 9e90 31be 1ad7 2d3e 0699 703e
0.26127473 -0.23436065 -0.19245104 0.2658608 -0.1612149 0.2141039 -0.15683985 0.176952
0.20653021 0.25529125 -0.23583671 -0.24592261 0.2220038 0.25397804 -0.21357016 0.37800974
0.114570655 -0.19512977 -0.037394434 0.21522482 0.14339536 0.13403498 0.15198159 -0.3898706
-0.13138002 -0.26156878 -0.1453596 -0.15267779 0.17496732 0.25246844 0.27097008 0.23361005
0.15618064 0.24402666 -0.24328667 -0.25290495 0.21912368 0.1999125 0.19641033 0.3875597
-0.23932013 -0.218113 0.26070288 0.34304136 0.24375139 -0.18960942 -0.23969935 0.14361136
0.16120052 0.24676163 0.26279655 -0.20877662 -0.21888702 0.13418628 0.25545964 0.21402173
-0.1932622 0.21694356 -0.17507505 0.22047895 0.22747645 0.16857195 -0.18800554 -0.18757139
0.30847242 -0.07538883 0.22030826 -0.018105462 -0.25049764 -0.1493844 -0.15990393 -0.153138
-0.20342013 0.25330886 -0.061840765 0.2173467 -0.15427165 -0.19036637 -0.24914515 0.22888952
0.22166708 -0.22650704 0.19585273 0.14866652 0.21799397 -0.21686207 -0.1495378 0.18122166
-0.1238331 0.4363888 0.27036154 0.23417608 0.2281407 0.2430063 0.16152684 -0.2281239
0.19316106 0.22420785 -0.22153716 0.22772045 -0.23346083 0.3073538 0.22159153 0.19096014
0.2277733 0.22206746 -0.20161685 0.21467267 -0.12413947 0.2637305 -0.15467966 -0.24363056
-0.13320398 -0.15876509 0.10000155 -0.15420257 -0.1636881 -0.20084667 0.23803863 0.25408235
-0.20034274 0.23602691 0.1408993 0.22237837 -0.15969141 0.18538967 0.24045272 0.29158446
0.2773794 -0.21599013 -0.121878795 -0.09450995 -0.24439643 0.1894034 0.22277738 0.25139675
-0.16735972 -0.16834992 -0.19359817 0.41473195 -0.2334606 -0.119030125 0.10627288 -0.1876992
0.26549143 -0.07672118 -0.17188014 -0.23650655 0.27033025 0.23531121 -0.05599788 -0.15106773
0.15059437 0.2219552 0.2508926 -0.17228062 0.31401455 -0.15253845 -0.0988723 0.31149286
0.25820643 -0.20700862 0.21187869 0.21346074 0.23433094 -0.18930203 0.2428211 -0.17132851
0.15553433 0.2674868 0.1606946 0.1965378 -0.24996759 -0.05691114 -0.119164236 -0.14066884
-0.15203874 0.26558217 -0.19477805 0.14465687 0.25164413 -0.23409921 0.2121038 0.27022326
-0.077691324 -0.17225803 -0.17445926 0.22060235 -0.23941544 0.24809137 0.25899455 0.105123326
-0.2651334 0.11409144 0.25509685 0.10637121 -0.25202233 0.17368339 0.35621905 0.15021487
0.2608649 0.25761598 0.15267254 -0.10331704 -0.22207673 -0.14943498 -0.231845 -0.20547785
-0.13467398 0.18877475 -0.26613894 0.2696842 -0.15439706 -0.15917328 0.24182564 0.21536328
-0.1862167 -0.2420002 -0.12852101 -0.10272906 -0.14926578 0.24768946 0.2427372 -0.21857257
-0.14118555 -0.120068766 -0.22177994 -0.2279114 -0.10799771 0.19209209 0.109860525 0.2188411
0.2597625 -0.20660625 0.27041212 0.26826203 0.23535879 0.20625618 0.23594946 0.23547237
-0.1953099 0.23071246 0.1753518 0.250973 0.34952852 0.17216471 0.24942492 0.19989584
0.21847428 0.19219078 0.18353905 0.27780166 0.24109432 -0.17340323 0.16976586 0.23495874

layer.6.bias f4 [2]
00000000: 61ce 0d3d a535 273e
0.034620646 0.16329058
