Chapter09/q_net_MountainCar.pth (torch_old, 170696 bytes, 8 tensors)

layer.0.weight f4 [64, 2]
0.44915298 -0.5200771 0.15956818 2.1654587 0.22349025 1.3309442 -0.542961 -0.58376366
-0.16958036 -2.1757443 0.16250834 1.7440244 0.32148284 1.3879596 -0.22888774 -0.5417231
0.2980119 1.5163605 -0.611611 -1.7490802 0.3627596 -0.22687161 0.48820874 1.6721282
0.06825282 -1.934022 0.520247 0.32419485 0.10609268 1.9068383 -0.06620376 2.257886
0.21649516 1.8635237 0.63055533 1.2373613 -0.26321554 -1.4939396 -0.50874853 -1.920554
0.57344085 0.02091438 0.27823278 -1.9171216 0.75792503 0.8271718 -0.03859562 -1.4383194
0.15137902 -0.8873866 0.32573512 1.9780473 0.16088684 0.09154166 0.4522338 1.3553994
-0.07116903 1.165401 0.47606292 0.60138243 0.1005451 -2.0390341 -0.049295392 -1.3758593
-0.07715692 1.7882742 -0.70012647 -0.80628604 0.6125305 1.7442834 0.021156568 -1.4146233
0.6132512 0.6356094 -0.38986674 -2.0488353 -0.06636451 -2.096493 -0.1381113 -2.199127
0.10634666 1.6804909 0.5242663 0.13788427 0.678448 0.4902036 0.31546548 1.9042516
0.11814179 1.7256775 0.27081954 1.8919282 -0.45457375 -2.1268198 0.63042146 1.619376
-0.08291723 -1.7319698 -0.03315237 2.0436716 0.38036212 0.8576572 -0.22644258 2.2733698
-0.02553997 -2.091732 -0.60066575 -1.9867568 -0.37713048 -0.121364094 -0.029685825 -1.8841639
-0.18045099 -1.4645545 -0.18965438 -2.3210847 0.37376326 0.21490757 -0.68374527 -1.555536
-0.13196017 0.4509729 -0.1774775 0.50844824 -0.12120156 -1.6631124 -0.0065538203 1.1661202
00000000: 61f7 e53e c623 05bf d765 233e e096 0a40
00000010: a1da 643e 615c aa3f 7eff 0abf 8971 15bf
00000020: 79a6 2dbe 653f 0bc0 9668 263e 313c df3f
00000030: 6699 a43e a9a8 b13f 8c61 6abe 5dae 0abf
00000040: 0495 983e 1a18 c23f 8a92 1cbf dce1 dfbf
00000050: a0bb b93e 0851 68be 7ff6 f93e 4c08 d63f
00000060: 22c8 8b3d 088e f7bf e82e 053f defc a53e
00000070: 1e47 d93d 4713 f43f d695 87bd 3481 1040
00000080: e8b0 5d3e f287 ee3f 136c 213f db61 9e3f
00000090: 30c4 86be 6a39 bfbf 583d 02bf b7d4 f5bf
000000a0: 05cd 123f a254 ab3c 8774 8e3e 3e64 f5bf
000000b0: 6007 423f 88c1 533f 7116 1ebd da1a b8bf
000000c0: 1a03 1b3e c52b 63bf c1c6 a63e a730 fd3f
000000d0: 85bf 243e 327a bb3d 308b e73e ba7d ad3f
000000e0: 12c1 91bd dc2b 953f 85be f33e 33f4 193f
000000f0: 97ea cd3d 897f 02c0 f7e9 49bd 281c b0bf
00000100: 7304 9ebd 2be6 e43f 7d3b 33bf c368 4ebf
00000110: cdce 1c3f ae44 df3f 8a50 ad3c 6012 b5bf
00000120: 08fe 1c3f 4cb7 223f 9d9c c7be 1e20 03c0
00000130: 1eea 87bd f12c 06c0 0c6d 0dbe 7fbe 0cc0
00000140: 47cc d93d 531a d73f 5136 063f 8931 0d3e
00000150: c5ae 2d3f f7fb fa3e b184 a13e 84be f33f
00000160: 53f4 f13d 00e3 dc3f dca8 8a3e b42a f23f
00000170: e4bd e8be d11d 08c0 4d63 213f b647 cf3f
00000180: 82d0 a9bd 30b1 ddbf c8ca 07bd 84cb 0240
00000190: d3be c23e 6c8f 5b3f 90e0 67be e47e 1140
000001a0: 3339 d1bc f0de 05c0 3bc5 19bf 0c4e febf
000001b0: 3f17 c1be bd8d f8bd b02f f3bc 482c f1bf
000001c0: 25c8 38be 8676 bbbf c234 42be a78c 14c0
000001d0: e65d bf3e bb10 5c3e ee09 2fbf ce1b c7bf
000001e0: 9120 07be ece5 e63e a9bc 35be aa29 023f
000001f0: 8638 f8bd dee0 d4bf 6ec1 d6bb 6d43 953f

layer.0.bias f4 [64]
0.5319078 0.2279553 0.1552167 -0.28370887 0.042826176 0.074080236 0.17279047 -0.23102237
-0.09541347 -0.21339528 0.45971572 0.47837228 -0.18942131 -0.21683672 0.04220317 0.121729754
-0.085408 -0.14148894 0.07944499 -0.27437893 0.43961048 0.46533298 0.35391483 0.22639479
-0.30335653 0.3979455 -0.09123962 0.4126731 0.3173649 -0.19288774 0.1865799 -0.1831003
0.178711 -0.3948196 -0.26007393 0.18930608 -0.041814853 0.074314386 0.093653046 0.11749993
-0.048102397 -0.17185256 -0.07349307 0.3468955 0.16927648 0.49741513 -0.090596095 -0.20943874
0.06345457 0.4360595 -0.026442623 0.07275316 0.105383456 -0.21799201 0.4563777 -0.0091819065
0.42768222 0.10935611 0.37840047 -0.442472 -0.1725427 0.16497405 -0.28800833 -0.121090874
00000000: 1c2b 083f 1d6d 693e 20f1 1e3e 4a42 91be
00000010: 806a 2f3d 61b7 973d fcef 303e 2191 6cbe
00000020: 2368 c3bd 4b84 5abe dc5f eb3e 36ed f43e
00000030: a9f7 41be 720a 5ebe 3bdd 2c3d 734d f93d
00000040: 64ea aebd 7ae2 10be 0eb4 a23d 657b 8cbe
00000050: a014 e13e 2040 ee3e 5334 b53e 09d4 673e
00000060: 8c51 9bbe 83bf cb3e d6db babd e349 d33e
00000070: a77d a23e 5d84 45be cd0e 3f3e a57e 3bbe
00000080: 0400 373e cb25 cabe 6928 85be 74d9 413e
00000090: 0d46 2bbd 2432 983d 2bcd bf3d cea3 f03d
000000a0: 0507 45bd 1efa 2fbe 8983 96bd 499c b13e
000000b0: d056 2d3e 32ad fe3e 728a b9bd 1c77 56be
000000c0: 78f4 813d 3143 df3e 339e d8bc 9cff 943d
000000d0: 48d3 d73d 4c39 5fbe 57aa e93e b56f 16bc
000000e0: 2af9 da3e 19f6 df3d b5bd c13e b18b e2be
000000f0: 09af 30be f5ee 283e d475 93be 7efe f7bd

layer.2.weight f4 [128, 64]
-0.11943939 0.10201556 0.078326926 0.480856 -0.23075952 0.15026875 0.100842945 0.18659636
-0.115343824 -0.10497635 0.054997925 0.1640827 -0.19636747 -0.2509555 0.29586408 0.1610753
-0.05598764 -0.07750317 6.846659e-05 0.22104931 0.020769805 0.02406573 0.08357707 -0.05677297
-0.12842897 0.1058778 0.0689913 0.040355418 0.10377384 -0.13277805 -0.43883383 -0.0756126
0.13650538 0.40693337 -0.07594671 0.0037344617 -0.1337987 -0.16255757 -0.28440276 -0.07989951
0.08065647 -0.13581745 -0.19525369 0.06749468 0.08349993 0.032321133 -0.008549475 -0.1665222
-0.26893196 0.12348449 -0.1537649 0.6908889 -0.5123687 -0.046010952 -0.044370543 -0.20057963
-0.100724556 -0.24077012 -0.08975274 0.21932663 0.08287658 -0.010773136 -0.06460462 0.07849277
0.044502586 -0.087090775 0.08208537 -0.19495584 0.12169296 -0.21795714 -0.14321266 -0.118085
0.23128161 0.03386472 0.012381017 -0.07658783 -0.058119964 0.22012676 -0.20047121 -0.021555575
0.19532107 0.16506673 0.007122555 -0.11100645 -0.057191584 -0.066755585 -0.0780013 0.09908162
-0.057767626 0.12946375 0.09863116 -0.075805195 0.023029841 0.13808745 -0.021516254 0.07692819
-0.103478685 -0.2340501 0.123868264 -0.089133225 -0.007781015 -0.03694267 -0.0070728655 -0.029839918
-0.048113037 0.14992103 0.10840557 -0.07679966 0.020810435 0.061625615 0.08537399 0.30969954
0.08831058 -0.031655908 0.17569384 -0.259676 0.014291132 0.04384148 0.10644769 -0.39970598
-0.06591285 0.10245599 0.05081565 -0.05134396 0.0045947144 -0.08711542 -0.014685441 -0.008950466
0.08556579 0.15506777 0.16189729 -0.22755715 -0.07329796 0.038227756 0.098899856 0.114517495
0.2623092 -0.11183492 -0.03449535 -0.058003426 -0.15497595 0.30763733 0.21287088 0.22801003
0.3707582 0.3101452 0.066168725 -0.29862353 0.032240298 -0.14048608 0.0067410464 -0.1054659
0.102361456 0.053541966 -0.025844235 0.15274437 -0.060071565 0.22856554 -0.25374788 -0.1577804
0.007274485 -0.07597704 0.5864025 -0.1697154 0.21206634 -0.042305473 -0.5144578 -0.63070434
0.46805605 0.23847796 0.10530067 -0.048771087 0.042851824 0.12462668 -0.025429687 0.25783196
-0.1931073 -0.038720198 0.34185278 0.2327227 -0.6817233 -0.16998228 -0.060583793 -0.6691408
-0.16224137 -0.08278576 -0.02720412 -0.07895482 0.06135968 -0.17439069 0.05956584 0.07087494
0.04965865 -0.062991016 -0.0378222 0.13967486 0.055312432 0.18264005 0.07287851 -0.067621775
-0.32104233 -0.08897783 0.03582906 0.06652381 0.064745694 -0.27952042 0.10556194 -0.000537595
-0.21186754 -0.17583212 0.06432799 0.19319564 -0.13080749 -0.02082969 0.1481998 0.05947463
0.02143026 0.035935555 0.109010495 0.013700713 0.045815274 -0.19685136 0.21791689 0.008463714
-0.037011303 0.1130194 -0.1358754 -0.12537943 -0.15170565 0.027839178 0.03341265 -0.109243035
-0.056300122 -0.23250066 -0.24276274 0.05477567 -0.030837813 0.034127325 0.05985516 -0.22243968
0.06298508 0.039441407 -0.18406168 -0.25141382 0.0031556985 -0.0132949855 0.07891645 0.43982276
-0.14620602 -0.12081482 -0.113431446 0.13055524 -0.07741986 -0.072317086 0.032003447 0.0754478
00000000: a49c f4bd 89ed d03d de69 a03d c232 f63e
00000010: 394c 6cbe 0de0 193e bf86 ce3d 1e13 3f3e
00000020: 6239 ecbd d7fd d6bd 8145 613d 4c05 283e
00000030: 8e14 49be 3d7d 80be 7f7b 973e ecf0 243e
00000040: 4c53 65bd fbb9 9ebd b895 8f38 c05a 623e
00000050: 7025 aa3c 7e25 c53c 742a ab3d c68a 68bd
00000060: e282 03be 76d6 d83d 504b 8d3d b94b 253d
00000070: 6187 d43d f8f6 07be d4ae e0be c7da 9abd
00000080: 11c8 0b3e 9259 d03e f389 9bbd dfbd 743b
00000090: 8702 09be 7e75 26be 3d9d 91be 5ba2 a3bd
000000a0: 382f a53d bb13 0bbe 95f0 47be a73a 8a3d
000000b0: 0302 ab3d 2a63 043d 1913 0cbc cc84 2abe
000000c0: 73b1 89be 70e5 fc3d 8c74 1dbe 18de 303f
000000d0: 982a 03bf fb75 3cbd e3bd 35bd bf64 4dbe
000000e0: ad48 cebd 718c 76be 49d0 b7bd 2997 603e
000000f0: 32bb a93d cf81 30bc 6d4f 84bd d1c0 a03d
00000100: 5848 363d a65c b2bd 601c a83d 81a2 47be
00000110: 293a f93d 2830 5fbe 57a6 12be 8cd6 f1bd
00000120: 16d5 6c3e bcb5 0a3d c0d9 4a3c 15da 9cbd
00000130: 330f 6ebd e968 613e 5348 4dbe 5195 b0bc
00000140: 3f02 483e 4107 293e 5264 e93b 5a57 e3bd
00000150: b941 6abd 27b7 88bd 25bf 9fbd 4eeb ca3d
00000160: bf9d 6cbd 2592 043e 22ff c93d c13f 9bbd
00000170: 14a9 bc3c cc66 0d3e db42 b0bc 878c 9d3d
00000180: a2ec d3bd d4aa 6fbe a5ae fd3d 7b8b b6bd
00000190: e2f7 febb 3251 17bd 7fc3 e7bb d872 f4bc
000001a0: 2d12 45bd e684 193e bd03 de3d 2449 9dbd
000001b0: a57a aa3c 246b 7c3d 8fd8 ae3d f090 9e3e
000001c0: 2ddc b43d a0a9 01bd 16e9 333e 41f4 84be
000001d0: 5a25 6a3c 2093 333d 3f01 da3d 43a6 ccbe
000001e0: 51fd 86bd 72d4 d13d 1224 503d 0b4e 52bd
000001f0: 428f 963b 9269 b2bd 349b 70bc faa4 12bc
00000200: 1e3d af3d 16ca 1e3e 67c8 253e be04 69be
00000210: 3e1d 96bd b594 1c3d 028c ca3d 2688 ea3d
00000220: 644d 863e b509 e5bd ff4a 0dbd 0095 6dbd
00000230: 04b2 1ebe a482 9d3e d3fa 593e 767b 693e
00000240: 05d4 bd3e 5acb 9e3e 7883 873d 2fe5 98be
00000250: 670e 043d 95db 0fbe ffe3 dc3b 81fe d7bd
00000260: e2a2 d13d d24e 5b3d 4ab7 d3bc 0569 1c3e
00000270: 9a0d 76bd 160d 6a3e 3eeb 81be 2f91 21be
00000280: ce5e ee3b da99 9bbd 791e 163f e0c9 2dbe
00000290: eb27 593e 8148 2dbd 82b3 03bf d775 21bf
000002a0: 0ba5 ef3e 9133 743e e1a7 d73d 31c4 47bd
000002b0: 6585 2f3d 463c ff3d eb51 d0bc 8d02 843e
000002c0: ecbd 45be 1299 1ebd 5407 af3e dc4e 6e3e
000002d0: 6b85 2ebf d60f 2ebe b626 78bd d04c 2bbf
000002e0: 9a22 26be 958b a9bd 2ddb debc 11b3 a1bd
000002f0: 4a54 7b3d 7993 32be 4ffb 733d e126 913d
00000300: de66 4b3d 6f01 81bd 74eb 1abd ed06 0f3e
00000310: 4a8f 623d fe05 3b3e 5441 953d 497d 8abd
00000320: a95f a4be 023a b6bd 7ec1 123d a33d 883d
00000330: 6499 843d 4d1d 8fbe dc30 d83d 64ed 0cba
00000340: cef3 58be 560d 34be 65be 833d 14d5 453e
00000350: 66f2 05be 07a3 aabc b0c1 173e ab9b 733d
00000360: 838e af3c 2931 133d e540 df3d f578 603c
00000370: cca8 3b3d 6793 49be 9b25 5f3e 64ab 0a3c
00000380: 2a99 17bd b776 e73d ec22 0bbe 7763 00be
00000390: ba58 1bbe fd0e e43c b4db 083d d0ba dfbd
000003a0: f59a 66bd a714 6ebe cc96 78be 745c 603d
000003b0: 959f fcbc 18c9 0b3d af2a 753d 3ac7 63be
000003c0: 52fe 803d 508d 213d aa7a 3cbe 50b9 80be
000003d0: d6cf 4e3b 36d3 59bc f39e a13d 7330 e13e
000003e0: 08b7 15be c36d f7bd bf4e e8bd 46b0 053e
000003f0: 4e8e 9ebd fb1a 94bd 0c16 033d 6084 9a3d

layer.2.bias f4 [128]
0.019952536 -0.052990355 -0.055637155 -0.070479766 -0.13550763 0.08820909 -0.03639477 0.077714235
-0.03991333 -0.03032315 -0.0015185092 -0.099546544 0.012817586 0.006135406 0.07434765 0.022841921
-0.049693257 0.053717595 0.05642327 -0.10222933 0.06551045 -0.11157777 -0.015810013 -0.014484939
-0.028401164 0.09595662 -0.03455241 0.0476112 -0.01682738 -0.055191647 0.054494485 -0.08119303
-0.14401029 0.0886397 0.047730982 -0.0719435 -0.04115588 0.0799046 -0.04912568 0.026041731
0.05643815 0.0006596315 -0.04876554 -0.106786326 -0.12180061 -0.14265813 0.16268201 -0.06584674
0.053829614 -0.021433258 0.0007841953 -0.08333882 -0.08722192 -0.028730676 -0.09395583 -0.034146275
0.08100968 -0.033316497 0.09469353 0.047274876 -0.053365763 0.049782038 -0.053047784 0.05113961
-0.014065868 -0.0694921 -0.09383272 -0.012182784 -0.014457583 -0.063979074 0.110622235 0.040104095
-0.05174631 -0.06182559 0.015717959 -0.030899787 -0.10337012 -0.020322084 -0.05606565 0.10964757
0.07731489 0.024139792 0.013725438 -0.016822888 -0.055639505 -0.00963727 -0.041570555 -0.03796533
0.06705164 0.0089738015 0.027492046 0.069581896 -0.059735462 -0.105821066 -0.12301987 0.04287047
0.107111916 -0.022511082 0.121379666 -0.028139574 0.046864495 0.023140622 0.06999737 0.06140331
-0.049483143 -0.024555711 0.0053419457 -0.00088269747 0.0751748 -0.09328081 0.0022077323 -0.092793934
-0.041824806 0.014936395 0.07284903 0.16607624 -0.09809277 0.074770436 0.07510032 -0.022172665
-0.11474722 -0.07141795 0.033871785 0.016946873 0.08312391 0.071046 -0.013723369 -0.07881714
00000000: 8073 a33c 6a0c 59bd c9e3 63bd b257 90bd
00000010: 83c2 0abe f8a6 b43d af12 15bd a428 9f3d
00000020: 297c 23bd 4168 f8bc b708 c7ba 0fdf cbbd
00000030: da00 523c 840b c93b 9543 983d fb1e bb3c
00000040: 288b 4bbd fb06 5c3d 161c 673d 9c5d d1bd
00000050: 582a 863d e382 e4bd 0084 81bc 3d52 6dbc
00000060: 8fa9 e8bc e884 c43d d486 0dbd f603 433d
00000070: 93d9 89bc a310 62bd 9c35 5f3d 8848 a6bd
00000080: 6f77 13be bb88 b53d 9081 433d 1d57 93bd
00000090: 1193 28bd 06a5 a33d 0238 49bd 7855 d53c
000000a0: b12b 673d 1feb 2c3a 60be 47bd cab2 dabd
000000b0: 9972 f9bd f914 12be 1d96 263e a8da 86bd
000000c0: 717c 5c3d cd94 afbc 7592 4d3a 8bad aabd
000000d0: 68a1 b2bd 985c ebbc ea6b c0bd f7dc 0bbd
000000e0: 67e8 a53d e176 08bd aeee c13d 4da3 413d
000000f0: 0f96 5abd 40e8 4b3d a248 59bd c577 513d
00000100: 8774 66bc e051 8ebd 5e2b c0bd 4d9a 47bc
00000110: 80df 6cbc 7607 83bd e98d e23d 3144 243d
00000120: f0f3 53bd d43c 7dbd f3c2 803c 8d21 fdbc
00000130: b7b3 d3bd 807a a6bc 18a5 65bd e88e e03d
00000140: 4557 9e3d d0c0 c53c a9e0 603c 27d0 89bc
00000150: 40e6 63bd a4e5 1dbc e345 2abd 8981 1bbd
00000160: 5f52 893d da06 133c 0037 e13c f480 8e3d
00000170: 2cad 74bd b7b8 d8bd d7f1 fbbd f298 2f3d
00000180: 7e5d db3d 2969 b8bc e795 f83d f784 e6bc
00000190: fcf4 3f3d 6791 bd3c c85a 8f3d 0a82 7b3d
000001a0: d6ae 4abd 0f29 c9bc 7d0b af3b d364 67ba
000001b0: 3ff5 993d 020a bfbd 9aaf 103b bf0a bebd
000001c0: 7d50 2bbd c8b7 743c df31 953d e40f 2a3e
000001d0: dde4 c8bd 3e21 993d 32ce 993d 73a3 b5bc
000001e0: 9700 ebbd 9343 92bd 24bd 0a3d 2bd4 8a3c
000001f0: de3c aa3d 9180 913d fbd7 60bc e16a a1bd

layer.4.weight f4 [256, 128]
0.0878451 -0.03821086 -0.2774343 -0.0014162372 -0.12579343 -0.022017056 0.11748402 0.0010782034
-0.08680921 0.08084638 0.06958782 -0.10591087 -0.0024848434 -0.11707864 -0.044102646 0.08232042
-0.07908746 -0.022391984 -0.06590606 -0.045952283 -0.22775231 -0.050558057 -0.023884902 0.018387597
0.028892918 -0.043183375 -0.068363994 0.018957704 0.20423633 0.049576197 -0.05622518 -0.044695504
-0.07087293 -0.0100074 0.0006425983 -0.04224625 -0.022605492 -0.07571161 0.07865727 -0.054282345
-0.05748846 -0.31909937 0.02410258 -0.095226645 -0.061470658 -0.04497286 -0.014925397 0.044774223
0.102617666 0.06765737 0.037122454 0.1320626 -0.027808962 0.03329118 -0.042414285 0.11721113
-0.099953905 -0.027232034 0.046944052 -0.07005964 0.03370233 0.058660675 -0.16572793 -0.29703996
0.089757785 0.06168131 -0.045474607 -0.017498009 -0.042793825 0.039385855 0.08804012 -0.07301583
-0.03356643 0.009849692 -0.013375864 0.101837926 -0.025713166 0.04630205 0.030199049 -0.0020169595
0.052491207 -0.05994234 0.18479228 0.08624152 -0.0058237207 -0.07067111 0.13898568 -0.07147181
0.06411609 -0.09767383 -0.035530243 -0.0025147344 0.03357992 -0.2206057 0.025420409 0.030897848
0.012802434 -0.09526493 0.03382724 -0.086892165 0.07882374 0.049074437 0.06648412 0.07670315
-0.08490823 -0.014048444 -0.049573053 -0.0781537 0.06616332 0.116866596 0.010767713 -0.007859607
-0.035266697 0.08164095 -0.040402673 0.053414594 -0.04469435 -0.010404693 -0.063002594 -0.06908096
-0.13147938 0.0050029526 0.0010287248 -0.011962953 -0.020547708 -0.1469151 -0.31025916 -0.03596943
0.05350286 -0.031685006 -0.09592247 0.022938622 -0.061902348 0.06328832 -0.074536115 0.09537477
-0.004880538 -0.042346094 0.009627225 0.110759854 -0.045877006 0.033765793 -0.03071044 -0.019602563
-0.011878918 -0.0132693285 -0.07326334 -0.024059022 -0.12954418 -0.06097511 0.018725328 0.08219131
0.10818932 0.0609791 0.09317886 0.056547765 0.03601768 0.026155058 -0.03965207 -0.006103859
0.074523665 0.029597335 0.0900731 0.09075811 -0.110776156 -0.03529719 0.039606865 0.0287702
-0.118383475 -0.032258257 -0.07904679 -0.04804609 -0.0066421567 -0.028157033 -0.08927133 -0.028625807
0.014426721 -0.08221519 0.004972472 0.07991945 -0.04725317 0.030553212 0.039137766 0.05184708
0.11522722 0.056116536 -0.017042246 -0.06268659 -0.056405418 0.0020061831 0.031854395 0.0033238644
0.06372563 0.032565624 0.049568873 -0.10115822 0.06670284 -0.027462246 -0.025751613 -0.0042459127
-0.10172302 -0.07515644 -0.042412773 0.055308785 0.065910324 0.016935932 -0.06135441 -0.08462045
-0.04283634 -0.029193357 0.109216526 -0.030614749 -0.041463114 0.028412644 -0.091989465 -0.09646526
0.027293622 -0.09577606 0.059247088 0.04286785 0.087770164 0.065776736 -0.019592717 0.0023210675
-0.036433075 0.015481475 -0.05291096 0.047114145 0.0643174 -0.054764394 -0.11221147 0.034543205
0.027868586 0.018627133 -0.041449517 -0.03734896 0.0369137 -0.015984539 0.06360955 0.029537596
-0.006595456 0.05564397 0.03694186 0.032604743 -0.12158398 0.015429592 0.026809767 -0.04617304
-0.048676573 -0.13927047 0.011775184 -0.09581494 -0.061845426 -0.02771003 0.010644206 -0.04033807
00000000: 22e8 b33d fe82 1cbd de0b 8ebe 09a1 b9ba
00000010: fecf 00be 1d5d b4bc 769b f03d 8152 8d3a
00000020: 07c9 b1bd c992 a53d 0f84 8e3d cce7 d8bd
00000030: c1d8 22bb edc6 efbd faa4 34bd 9c97 a83d
00000040: 9bf8 a1bd 656f b7bc c2f9 86bd 7638 3cbd
00000050: e737 69be f715 4fbd 45aa c3bc 96a1 963c
00000060: d7b0 ec3c 0de1 30bd 6c02 8cbd 304d 9b3c
00000070: 5423 513e 6910 4b3d 604c 66bd a212 37bd
00000080: d425 91bd 14f6 23bc 0b74 283a 670a 2dbd
00000090: 272f b9bc b00e 9bbd 1017 a13d 2a57 5ebd
000000a0: 0579 6bbd fe60 a3be c672 c53c 3006 c3bd
000000b0: a8c8 7bbd 7635 38bd a789 74bc 2d65 373d
000000c0: 3629 d23d f28f 8a3d b70d 183d 6b3b 073e
000000d0: 9fcf e3bc 555c 083d 9aba 2dbd 640c f03d
000000e0: a2b4 ccbd b715 dfbc 6848 403d 6e7b 8fbd
000000f0: 740b 0a3d 2d46 703d 95b4 29be 9f15 98be
00000100: eed2 b73d 8ba5 7c3d 9543 3abd fc57 8fbc
00000110: 9448 2fbd 1053 213d 614e b43d 5389 95bd
00000120: f47c 09bd 9a60 213c 7126 5bbc 6790 d03d
00000130: 6ba4 d2bc 38a7 3d3d ff63 f73c f72e 04bb
00000140: 0501 573d 1986 75bd 303a 3d3e 659f b03d
00000150: e9d4 bebb 04bc 90bd 4352 0e3e d05f 92bd
00000160: 4c4f 833d 3809 c8bd 2988 11bd 3ece 24bb
00000170: 198b 093d 76e6 61be 763e d03c 7c1d fd3c
00000180: 4dc1 513c 421a c3bd 6f8e 0a3d 85f4 b1bd
00000190: 576e a13d 4702 493d d428 883d 8b16 9d3d
000001a0: 5ee4 adbd 722b 66bc 1d0d 4bbd 0c0f a0bd
000001b0: a280 873d c157 ef3d 106b 303c 95c5 00bc
000001c0: d073 10bd 5f33 a73d 467d 25bd 43c9 5a3d
000001d0: 6c11 37bd 7278 2abc 8107 81bd 517a 8dbd
000001e0: 88a2 06be cfef a33b 47d6 863a 4300 44bc
000001f0: ab53 a8bc e970 16be 4ada 9ebe ae54 13bd
00000200: d125 5b3d 23c8 01bd 0073 c4bd c7e9 bb3c
00000210: 518d 7dbd 4f9d 813d 64a6 98bd d953 c33d
00000220: ecec 9fbb 1973 2dbd 82bb 1d3c 10d6 e23d
00000230: 87e9 3bbd 004e 0a3d 7694 fbbc 8e95 a0bc
00000240: cb9f 42bc 9967 59bc 170b 96bd 6d17 c5bc
00000250: 3ba7 04be 09c1 79bd dc65 993c eb53 a83d
00000260: 5d92 dd3d 39c5 793d 8fd4 be3d a19e 673d
00000270: 4687 133d 2243 d63c 356a 22bd e102 c8bb
00000280: dd9f 983d 1c76 f23c 3f78 b83d 63df b93d
00000290: 9cde e2bd c993 10bd cf3a 223d 7caf eb3c
000002a0: 0973 f2bd 3c21 04bd 49e3 a1bd facb 44bd
000002b0: 73a6 d9bb 94a9 e6bc e3d3 b6bd ab80 eabc
000002c0: 0e5e 6c3c 7060 a8bd 1ef0 a23b cfac a33d
000002d0: 8a8c 41bd bb4a fa3c ec4e 203d 9b5d 543d
000002e0: 40fc eb3d 74da 653d 2e9c 8bbc d461 80bd
000002f0: 5e09 67bd 2b7a 033b c179 023d 31d5 593b
00000300: 9582 823d 8863 053d bb08 4b3d 0a2c cfbd
00000310: 809b 883d 81f8 e0bc 0cf5 d2bc 4c21 8bbb
00000320: 2954 d0bd 9feb 99bd 04b9 2dbd 778b 623d
00000330: fefb 863d 39bd 8a3c c34e 7bbd 7d4d adbd
00000340: 2875 2fbd e826 efbc eaac df3d c8cb fabc
00000350: 3ad5 29bd a2c1 e83c f964 bcbd 948f c5bd
00000360: e096 df3c 3d26 c4bd 13ad 723d 3396 2f3d
00000370: d8c0 b33d f4b5 863d e880 a0bc 0d1d 183b
00000380: d93a 15bd 03a6 7d3c 2ab9 58bd c3fa 403d
00000390: d7b8 833d a150 60bd 21cf e5bd 2d7d 0d3d
000003a0: a94c e43c ee97 983c f8c6 29bd 39fb 18bd
000003b0: d232 173d 02f2 82bc b945 823d d4f8 f13c
000003c0: b21e d8bb eeea 633d 5950 173d 8d8c 053d
000003d0: 0601 f9bd 66cc 7c3c 28a0 db3c f11f 3dbd
000003e0: 1661 47bd eb9c 0ebe b4ec 403c a03a c4bd
000003f0: a151 7dbd 2500 e3bc 0965 2e3c 8839 25bd

layer.4.bias f4 [256]
0.04652234 -0.089395516 0.04156087 0.03451317 -0.046001136 -0.040324405 0.006543853 0.09578098
-0.031235756 -0.0844403 0.04011395 0.019088922 -0.15572657 -0.15221721 0.0026079766 -0.015606391
-0.008838534 0.000947629 0.014024966 -0.026550565 -0.08196979 0.06687312 -0.07647663 -0.08308808
0.019256976 0.02499725 -0.101612695 -0.011600048 -0.025311675 0.018151728 -0.11474982 0.05417481
0.15540898 0.025071582 -0.009736429 -0.028024767 0.0038311034 -0.05636566 0.04067576 0.10914132
-0.0231437 0.027077014 -0.11588674 -0.067563854 -0.025640907 -0.027187852 0.0044458373 -0.04288775
-0.14583926 0.13386494 0.03252908 -0.07129411 -0.10174903 -0.10653649 -0.02673689 -0.06058834
-0.16437167 -0.046723664 -0.13082954 -0.024747264 -0.009697175 0.12241828 0.028883075 -0.021154819
-0.010405558 -0.056793816 0.08504197 -0.023026664 -0.010372692 -0.011055504 -0.13000979 0.0030246177
0.057287496 0.055050943 -0.094698295 -0.12367206 -0.13876027 -0.06694064 -0.089423984 0.029330006
0.17563078 -0.04604559 -0.0007500085 -0.06999938 0.0026479359 -0.17813747 -0.12699264 -0.14200862
-0.031384476 0.0009933225 -0.046134297 -0.052351262 -0.063431285 0.11065823 -0.16882856 -0.13082962
0.104386695 0.036502853 -0.0038440474 -0.018650236 -0.04418963 0.063896224 0.0034424483 0.06224087
0.01899107 0.04210393 -0.04897055 0.10696761 -0.02039569 -0.11022845 0.010515616 0.10118288
0.01744304 0.014682543 -0.05819181 -0.14403357 0.1305053 0.07319624 -0.001503014 -0.077874824
-0.059460565 -0.15525211 0.00514957 -0.0152147 0.049021177 -0.0820604 -0.027057271 -0.027518636
-0.09064356 -0.14920212 0.022178495 0.06396941 0.009340981 -0.121815644 0.054027475 -0.07489934
-0.03202122 0.05311018 -0.018582756 -0.07638999 -0.0066899047 0.045777105 0.028868739 -0.09071014
-0.00828865 -0.016884666 -0.06264193 -0.055225864 -0.0466713 0.07974578 0.031010952 -0.050689857
0.090995505 -0.11537298 -0.09185944 -0.0018036707 -0.05005895 0.0849589 0.05197845 -0.036875334
-0.07779691 0.11286982 -0.099325806 0.043173876 0.043503772 0.08389109 0.059142213 0.059206787
-0.0689312 -0.09310886 -0.05159125 0.09745424 0.065693006 0.049770303 0.097679466 0.05320067
0.034726392 0.006712503 -0.038950816 0.14498791 -0.08236584 0.035893563 0.025969632 0.06764245
-0.030944612 -0.00012860949 -0.062279504 0.04998465 -0.17929277 -0.038338773 -0.13971397 0.06385279
0.124169 -0.11853278 0.11719126 0.06947588 -0.12924522 -0.16076013 0.017167484 -0.18543947
-0.14040425 0.041629583 -0.0040344805 -0.04459902 0.056266453 0.0012175979 -0.06457824 0.032418136
-0.028329523 0.03727132 0.005377506 -0.09454541 -0.00878893 -0.015769152 0.020149335 0.012192065
0.014105749 0.043681312 0.04093996 0.00088706386 0.034078807 -0.047023058 -0.069815695 0.057328664
0.13317633 -0.12686267 0.12607683 0.0065315445 0.038594857 0.050698753 0.044050843 0.12766051
-0.10555374 -0.03161686 -0.0060974266 0.060410067 0.048218194 -0.004297349 -0.094902605 -0.14322072
-0.053566102 -0.056164235 0.07508667 0.09858362 -0.15231425 0.05700698 -0.01920808 -0.054322127
-0.00070772157 0.009213954 0.03237293 -0.011642083 0.046430573 -0.013676523 -0.044044457 -0.023376366
00000000: 368e 3e3d ff14 b7bd bb3b 2a3d af5d 0d3d
00000010: b06b 3cbd 342b 25bd d16d d63b d228 c43d
00000020: 21e2 ffbc 09ef acbd 864e 243d 5f60 9c3c
00000030: c976 1fbe d4de 1bbe 96ea 2a3b f3b1 7fbc
00000040: 80cf 10bc 4e6a 783a f9c8 653c 9280 d9bc
00000050: c7df a7bd c6f4 883d c89f 9cbd 152a aabd
00000060: cec0 9d3c 08c7 cc3c 511a d0bd 210e 3ebc
00000070: 6e5a cfbc efb2 943c f401 ebbd 68e6 5d3d
00000080: 8823 1f3e eb62 cd3c 8b85 1fbc 3294 e5bc
00000090: 4013 7b3b aedf 66bd a09b 263d 7c85 df3d
000000a0: db97 bdbc 9dd0 dd3c 0756 edbd eb5e 8abd
000000b0: e10c d2bc 0fb9 debc 63ae 913b 11ab 2fbd
000000c0: e356 15be e413 093e 363d 053d a502 92bd
000000d0: cc61 d0bd ce2f dabd 5307 dbbc 7b2b 78bd
000000e0: 0c51 28be 5061 3fbd 2ef8 05be c6ba cabc
000000f0: e6e0 1ebc 6fb6 fa3d 339c ec3c df4c adbc
00000100: 137c 2abc a2a0 68bd 7c2a ae3d 6aa2 bcbc
00000110: 39f2 29bc 2522 35bc 4921 05be aa38 463b
00000120: 4ba6 6a3d 197d 613d 2ef1 c1bd c747 fdbd
00000130: 2c17 0ebe 2d18 89bd ec23 b7bd 7b45 f03c
00000140: 8ed8 333e 4d9a 3cbd 389c 44ba d65b 8fbd
00000150: fe88 2d3b ab69 36be 5c0a 02be b56a 11be
00000160: 028d 00bd 5f32 823a 51f7 3cbd 476e 56bd
00000170: 43e8 81bd c8a0 e23d 65e1 2cbe 33f8 05be
00000180: b1c8 d53d 0484 153d 6aec 7bbb 61c8 98bc
00000190: 2f00 35bd 06dc 823d b39a 613b 48f0 7e3d
000001a0: 2993 9b3c 2c75 2c3d 5895 48bd d611 db3d
000001b0: dd14 a7bc 74bf e1bd b149 2c3c f838 cf3d
000001c0: b5e4 8e3c 0d8f 703c 895a 6ebd 897d 13be
000001d0: 2ea3 053e e9e7 953d c800 c5ba d67c 9fbd
000001e0: ec8c 73bd 69fa 1ebe b9bd a83b 1447 79bc
000001f0: 6eca 483d 480f a8bd 36a7 ddbc c36e e1bc
00000200: 55a3 b9bd 71c8 18be adaf b53c 6502 833d
00000210: ea0a 193c 7b7a f9bd ea4b 5d3d d364 99bd
00000220: af28 03bd 0f8a 593d dd3a 98bc 5b72 9cbd
00000230: fd36 dbbb c680 3b3d 227e ec3c 3dc6 b9bd
00000240: 1ecd 07bc b651 8abc 6a4a 80bd 8434 62bd
00000250: 682a 3fbd c151 a33d ae0a fe3c 2ba0 4fbd
00000260: da5b ba3d ab48 ecbd cd20 bcbd 2569 ecba
00000270: 9d0a 4dbd effe ad3d 5be7 543d 970a 17bd
00000280: fd53 9fbd 4b28 e73d 546b cbbd 17d7 303d
00000290: 0331 323d 17cf ab3d 1b3f 723d d182 723d
000002a0: cd2b 8dbd dcaf bebd 5951 53bd 1796 c73d
000002b0: 0e8a 863d f2db 4b3d 2c0c c83d f2e8 593d
000002c0: 433d 0e3d 8ef4 db3b e48a 1fbd b677 143e
000002d0: 6caf a8bd 2105 133d 44be d43c 2088 8a3d
000002e0: 8e7f fdbc 59db 06b9 cb18 7fbd b4bc 4c3d
000002f0: 8698 37be 1e09 1dbd 2e11 0fbe 40c5 823d
00000300: 514c fe3d 50c1 f2bd f901 f03d 5f49 8e3d
00000310: dc58 04be 4e9e 24be d3a2 8c3c d8e3 3dbe
00000320: 22c6 0fbe c883 2a3d ad33 84bb 76ad 36bd
00000330: a777 663d ce97 9f3a 9941 84bd e1c8 043d
00000340: 5113 e8bc d0a9 183d ca35 b03b 06a1 c1bd
00000350: 72ff 0fbc 4f2e 81bc 3810 a53c 3ac1 473c
00000360: cd1b 673c 2deb 323d a9b0 273d d989 683a
00000370: 3896 0b3d 409b 40bd 88fb 8ebd 76d1 6a3d
00000380: 605f 083e 4ae8 01be 491a 013e 9106 d63b
00000390: a415 1e3d 7fa9 4f3d a86e 343d 70b9 023e
000003a0: 8f2c d8bd ae80 01bd eccc c7bb 8c70 773d
000003b0: 7180 453d c7d0 8cbb 4c5c c2bd 74a8 12be
000003c0: 2168 5bbd 780c 66bd 0ac7 993d 35e6 c93d
000003d0: 44f8 1bbe 2780 693d 435a 9dbc e180 5ebd
000003e0: 6486 39ba 20f6 163c 7a99 043d 6fbe 3ebc
000003f0: fc2d 3e3d 7f13 60bc f667 34bd cb7f bfbc

layer.6.weight f4 [3, 256]
0.03872883 0.0029336377 0.061113942 0.043776385 -0.041088283 0.09727799 0.06650497 0.060248315
0.0749752 -0.040772285 0.08964472 -0.0185665 -0.084426396 -0.096235715 0.060695514 0.1098359
0.084597036 0.09262994 0.019188313 0.09509505 0.044053044 0.07095414 -0.029760048 0.118999965
-0.005483627 0.095194414 -0.07185237 0.06500917 0.075434245 -0.024653783 -0.051739186 0.08975433
0.112515494 -0.054248866 0.0010521725 0.024485713 0.09211733 -0.08951176 0.09761231 0.09775464
0.1936285 0.042136136 -0.00084384857 -0.102365166 -0.05217411 -0.045028605 0.08004688 0.14682648
-0.076435514 0.07553866 0.059540313 -0.025040807 -0.090930395 0.11691782 -0.04154366 -0.05014749
-0.047335356 0.07520527 -0.047670875 0.055238914 -0.08700755 0.090001814 0.07708457 0.028465398
0.06516815 0.007540907 0.06297193 0.052006815 0.11707281 0.05383814 -0.09074647 0.018267272
0.06359325 -0.020258222 -0.10178567 0.16554491 -0.0751442 -0.0635264 -0.082041554 -0.04212302
-0.05014578 0.15824887 0.053109728 -0.07145922 0.065065354 -0.10401656 -0.08220017 -0.058748536
-0.013344806 0.08453706 0.058269978 0.029903518 0.066946715 0.054826785 -0.114202775 -0.10660702
0.2542438 0.06650234 0.17523709 0.05477586 0.05798077 0.044459913 0.0032926223 0.0780901
0.02894616 0.08910796 0.07343272 0.20046584 0.07307936 -0.07665134 -0.02516766 0.11433164
0.19080701 0.07727911 0.16940275 -0.0791537 0.10485509 0.06331724 -0.0028992118 -0.0434697
-0.029674739 -0.093839906 0.06852809 0.046355374 0.07048487 0.010630088 0.14694461 -0.03888644
0.0013476753 -0.091669835 0.064493 0.11583266 0.09392718 -0.08490514 0.21572271 0.1376694
0.101726376 0.08551786 0.13127795 -0.036419813 0.1661659 0.0564784 -0.043890003 -0.05878763
0.06987429 0.055663675 0.15082967 0.015432114 -0.08326907 0.097394265 0.0946602 0.07661036
0.06301423 -0.060542587 0.076864526 0.0620436 0.11556673 0.075775556 0.07427188 -0.036290783
-0.05405439 -0.019541906 0.03532194 0.009301355 0.10380538 0.087304376 0.045158748 0.010614809
-0.080336206 0.041216716 -0.06170463 0.037921753 0.051218726 0.051342662 0.072550744 0.043116737
0.10145148 0.12663655 -0.07538655 0.08408864 0.075286835 0.070889026 0.021849267 0.11090739
0.08824553 0.09916157 0.04371594 -0.09028061 -0.055479776 -0.046756737 0.071360916 -0.0125553375
0.09383012 0.14218009 0.21451576 0.037155706 -0.021981362 -0.10037685 -0.004079427 -0.103047535
-0.07087335 0.054033194 0.07332263 0.1017381 0.034230743 0.11159391 -0.06870396 0.042109873
0.05057037 0.08041852 0.07525146 0.0339371 0.08537325 -0.032368712 0.049448673 0.081546426
0.0037408907 -0.06663579 0.066332474 -0.02105883 0.07111886 -0.067120284 0.06519524 0.039982546
0.09248365 0.12892681 0.09808598 0.09205781 0.20912546 -0.02440328 0.16155754 0.09178204
-0.0856862 0.0020029244 0.08923516 0.078713655 0.06758741 0.083877824 0.11030017 -0.057008144
0.07943881 0.027462348 0.21530917 0.10416954 -0.08382728 0.07795186 0.124691784 -0.091563046
-0.058996 0.08111092 0.20792876 0.067913875 0.17944284 -0.038425 -0.0025397213 0.15999012
00000000: 1fa2 1e3d 4642 403b 9d52 7a3d de4e 333d
00000010: 304c 28bd af39 c73d c233 883d f0c6 763d
00000020: 998c 993d d700 27bd a797 b73d c618 98bc
00000030: bfe7 acbd 3b17 c5bd dc9b 783d a5f1 e03d
00000040: 3641 ad3d c4b4 bd3d cf30 9d3c 32c1 c23d
00000050: f770 343d 6750 913d 58cb f3bc 41b6 f33d
00000060: ffaf b3bb 4af5 c23d 5627 93bd 8723 853d
00000070: 457d 9a3d bbf6 c9bc 78ec 53bd 1ed1 b73d
00000080: 866e e63d 0f34 5ebd 0de9 893a 4396 c83c
00000090: 03a8 bc3d f151 b7bd f6e8 c73d 9633 c83d
000000a0: 8d46 463e f196 2c3d b835 5dba d4a4 d1bd
000000b0: 85b4 55bd ea6f 38bd 9eef a33d ae59 163e
000000c0: 398a 9cbd 03b4 9a3d 8be0 733d 6122 cdbc
000000d0: b739 babd 9c72 ef3d af29 2abd 7467 4dbd
000000e0: b8e2 41bd 3805 9a3d 8942 43bd 3342 623d
000000f0: 0431 b2bd df52 b83d 84de 9d3d 4430 e93c
00000100: e176 853d b619 f73b 6df7 803d 1905 553d
00000110: dfc3 ef3d 6285 5c3d 49d9 b9bd 3fa5 953c
00000120: 2e3d 823d 92f4 a5bc 0175 d0bd 9b84 293e
00000130: 34e5 99bd 211a 82bd 6705 a8bd 3089 2cbd
00000140: a965 4dbd fe0b 223e 9689 593d 3659 92bd
00000150: fc40 853d a206 d5bd 9058 a8bd 4ea2 70bd
00000160: 2ca4 5abc c421 ad3d 80ac 6e3d 39f8 f43c
00000170: 5c1b 893d 0d92 603d 25e3 e9bd c854 dabd
00000180: 3e2c 823e 6132 883d 5a71 333e a75c 603d
00000190: 3e7d 6d3d 991b 363d 09c9 573b b4ed 9f3d
000001a0: 7f20 ed3c 3c7e b63d e563 963d eb46 4d3e
000001b0: a2aa 953d 61fb 9cbd 692c cebc b526 ea3d
000001c0: ea62 433e 8344 9e3d ea77 2d3e 561b a2bd
000001d0: 44be d63d 78ac 813d b400 3ebb 490d 32bd
000001e0: 7018 f3bc 232f c0bd 7558 8c3d 22df 3d3d
000001f0: 5f5a 903d d229 2e3c a678 163e 6347 1fbd
00000200: 7ba4 b03a 65bd bbbd e814 843d ac39 ed3d
00000210: e55c c03d bfe2 adbd 6ae6 5c3e 35f9 0c3e
00000220: eb55 d03d fd23 af3d ba6d 063e f12c 15bd
00000230: 6527 2a3e e555 673d 01c6 33bd 4ccb 70bd
00000240: 401a 8f3d 98ff 633d 1873 1a3e fad6 7c3c
00000250: f988 aabd a576 c73d 35dd c13d e4e5 9c3d
00000260: 9b0d 813d 81fb 77bd 266b 9d3d 6e21 7e3d
00000270: 40ae ec3d 3730 9b3d db1b 983d a5a5 14bd
00000280: 2368 5dbd 5916 a0bc bdad 103d b664 183c
00000290: ea97 d43d a3cc b23d 61f8 383d bce9 2d3c
000002a0: 4f87 a4bd dcd2 283d febd 7cbd d753 1b3d
000002b0: baca 513d af4c 523d 7c95 943d 2d9b 303d
000002c0: cbc5 cf3d 03ad 013e 4364 9abd aa36 ac3d
000002d0: fc2f 9a3d 442e 913d 3cfd b23c 6a23 e33d
000002e0: 13ba b43d 3915 cb3d 7c0f 333d 0ae5 b8bd
000002f0: c33e 63bd fe83 3fbd ac25 923d e7b4 4dbc
00000300: 022a c03d a897 113e 05aa 5b3e 9530 183d
00000310: 4212 b4bc 6192 cdbd b7ac 85bb 960a d3bd
00000320: 0c26 91bd e951 5d3d 2d2a 963d 115c d03d
00000330: 8935 0c3d 598b e43d a9b4 8cbd 677b 2c3d
00000340: e022 4f3d 77b2 a43d 701d 9a3d a101 0b3d
00000350: 2cd8 ae3d 0e95 04bd b18a 4a3d d001 a73d
00000360: bb29 753b 5878 88bd 52d9 873d 9183 acbc
00000370: c4a6 913d 5c76 89bd 1585 853d bdc4 233d
00000380: 1168 bd3d 6405 043e 4de1 c83d ce88 bc3d
00000390: fc24 563e 63e9 c7bc 576f 253e 39f8 bb3d
000003a0: 3f7c afbd 7f43 033b ecc0 b63d a034 a13d
000003b0: 456b 8a3d 23c8 ab3d 0ee5 e13d 5f81 69bd
000003c0: d1b0 a23d b8f8 e03c 027a 5c3e d756 d53d
000003d0: a3ad abbd 3aa5 9f3d 685e ff3d 6885 bbbd
000003e0: caa5 71bd 7b1d a63d 47eb 543e 6e16 8b3d
000003f0: ddbf 373e 8863 1dbd 7471 26bb 73d4 233e

layer.6.bias f4 [3]
0.08339277 -0.04043221 0.08547788
00000000: d4c9 aa3d 3f9c 25bd 070f af3d
